{"format": "layers-model", "generatedBy": "keras v2.7.0", "convertedBy": "TensorFlow.js Converter v3.12.0", "modelTopology": {"keras_version": "2.7.0", "backend": "tensorflow", "model_config": {"class_name": "Functional", "config": {"name": "model", "layers": [{"class_name": "InputLayer", "config": {"batch_input_shape": [null, 416, 416, 3], "dtype": "float32", "sparse": false, "ragged": false, "name": "input_1"}, "name": "input_1", "inbound_nodes": []}, {"class_name": "Conv2D", "config": {"name": "conv2d", "trainable": true, "dtype": "float32", "filters": 32, "kernel_size": [3, 3], "strides": [1, 1], "padding": "same", "data_format": "channels_last", "dilation_rate": [1, 1], "groups": 1, "activation": "linear", "use_bias": false, "kernel_initializer": {"class_name": "RandomNormal", "config": {"mean": 0.0, "stddev": 0.01, "seed": null}}, "bias_initializer": {"class_name": "Constant", "config": {"value": 0.0}}, "kernel_regularizer": {"class_name": "L2", "config": {"l2": 0.0005000000237487257}}, "bias_regularizer": null, "activity_regularizer": null, "kernel_constraint": null, "bias_constraint": null}, "name": "conv2d", "inbound_nodes": [[["input_1", 0, 0, {}]]]}, {"class_name": "BatchNormalization", "config": {"name": "batch_normalization", "trainable": true, "dtype": "float32", "axis": [3], "momentum": 0.99, "epsilon": 0.001, "center": true, "scale": true, "beta_initializer": {"class_name": "Zeros", "config": {}}, "gamma_initializer": {"class_name": "Ones", "config": {}}, "moving_mean_initializer": {"class_name": "Zeros", "config": {}}, "moving_variance_initializer": {"class_name": "Ones", "config": {}}, "beta_regularizer": null, "gamma_regularizer": null, "beta_constraint": null, "gamma_constraint": null}, "name": "batch_normalization", "inbound_nodes": [[["conv2d", 0, 0, {}]]]}, {"class_name": "TFOpLambda", "config": {"name": "tf.math.softplus", "trainable": true, "dtype": "float32", "function": "math.softplus"}, "name": "tf.math.softplus", "inbound_nodes": [["batch_normalization", 0, 0, {}]]}, {"class_name": "TFOpLambda", "config": {"name": "tf.math.tanh", "trainable": true, "dtype": "float32", "function": "math.tanh"}, "name": "tf.math.tanh", "inbound_nodes": [["tf.math.softplus", 0, 0, {"name": null}]]}, {"class_name": "TFOpLambda", "config": {"name": "tf.math.multiply", "trainable": true, "dtype": "float32", "function": "math.multiply"}, "name": "tf.math.multiply", "inbound_nodes": [["batch_normalization", 0, 0, {"y": ["tf.math.tanh", 0, 0], "name": null}]]}, {"class_name": "ZeroPadding2D", "config": {"name": "zero_padding2d", "trainable": true, "dtype": "float32", "padding": [[1, 0], [1, 0]], "data_format": "channels_last"}, "name": "zero_padding2d", "inbound_nodes": [[["tf.math.multiply", 0, 0, {}]]]}, {"class_name": "Conv2D", "config": {"name": "conv2d_1", "trainable": true, "dtype": "float32", "filters": 64, "kernel_size": [3, 3], "strides": [2, 2], "padding": "valid", "data_format": "channels_last", "dilation_rate": [1, 1], "groups": 1, "activation": "linear", "use_bias": false, "kernel_initializer": {"class_name": "RandomNormal", "config": {"mean": 0.0, "stddev": 0.01, "seed": null}}, "bias_initializer": {"class_name": "Constant", "config": {"value": 0.0}}, "kernel_regularizer": {"class_name": "L2", "config": {"l2": 0.0005000000237487257}}, "bias_regularizer": null, "activity_regularizer": null, "kernel_constraint": null, "bias_constraint": null}, "name": "conv2d_1", "inbound_nodes": [[["zero_padding2d", 0, 0, {}]]]}, {"class_name": "BatchNormalization", "config": {"name": "batch_normalization_1", "trainable": true, "dtype": "float32", "axis": [3], "momentum": 0.99, "epsilon": 0.001, "center": true, "scale": true, "beta_initializer": {"class_name": "Zeros", "config": {}}, "gamma_initializer": {"class_name": "Ones", "config": {}}, "moving_mean_initializer": {"class_name": "Zeros", "config": {}}, "moving_variance_initializer": {"class_name": "Ones", "config": {}}, "beta_regularizer": null, "gamma_regularizer": null, "beta_constraint": null, "gamma_constraint": null}, "name": "batch_normalization_1", "inbound_nodes": [[["conv2d_1", 0, 0, {}]]]}, {"class_name": "TFOpLambda", "config": {"name": "tf.math.softplus_1", "trainable": true, "dtype": "float32", "function": "math.softplus"}, "name": "tf.math.softplus_1", "inbound_nodes": [["batch_normalization_1", 0, 0, {}]]}, {"class_name": "TFOpLambda", "config": {"name": "tf.math.tanh_1", "trainable": true, "dtype": "float32", "function": "math.tanh"}, "name": "tf.math.tanh_1", "inbound_nodes": [["tf.math.softplus_1", 0, 0, {"name": null}]]}, {"class_name": "TFOpLambda", "config": {"name": "tf.math.multiply_1", "trainable": true, "dtype": "float32", "function": "math.multiply"}, "name": "tf.math.multiply_1", "inbound_nodes": [["batch_normalization_1", 0, 0, {"y": ["tf.math.tanh_1", 0, 0], "name": null}]]}, {"class_name": "Conv2D", "config": {"name": "conv2d_3", "trainable": true, "dtype": "float32", "filters": 64, "kernel_size": [1, 1], "strides": [1, 1], "padding": "same", "data_format": "channels_last", "dilation_rate": [1, 1], "groups": 1, "activation": "linear", "use_bias": false, "kernel_initializer": {"class_name": "RandomNormal", "config": {"mean": 0.0, "stddev": 0.01, "seed": null}}, "bias_initializer": {"class_name": "Constant", "config": {"value": 0.0}}, "kernel_regularizer": {"class_name": "L2", "config": {"l2": 0.0005000000237487257}}, "bias_regularizer": null, "activity_regularizer": null, "kernel_constraint": null, "bias_constraint": null}, "name": "conv2d_3", "inbound_nodes": [[["tf.math.multiply_1", 0, 0, {}]]]}, {"class_name": "BatchNormalization", "config": {"name": "batch_normalization_3", "trainable": true, "dtype": "float32", "axis": [3], "momentum": 0.99, "epsilon": 0.001, "center": true, "scale": true, "beta_initializer": {"class_name": "Zeros", "config": {}}, "gamma_initializer": {"class_name": "Ones", "config": {}}, "moving_mean_initializer": {"class_name": "Zeros", "config": {}}, "moving_variance_initializer": {"class_name": "Ones", "config": {}}, "beta_regularizer": null, "gamma_regularizer": null, "beta_constraint": null, "gamma_constraint": null}, "name": "batch_normalization_3", "inbound_nodes": [[["conv2d_3", 0, 0, {}]]]}, {"class_name": "TFOpLambda", "config": {"name": "tf.math.softplus_3", "trainable": true, "dtype": "float32", "function": "math.softplus"}, "name": "tf.math.softplus_3", "inbound_nodes": [["batch_normalization_3", 0, 0, {}]]}, {"class_name": "TFOpLambda", "config": {"name": "tf.math.tanh_3", "trainable": true, "dtype": "float32", "function": "math.tanh"}, "name": "tf.math.tanh_3", "inbound_nodes": [["tf.math.softplus_3", 0, 0, {"name": null}]]}, {"class_name": "TFOpLambda", "config": {"name": "tf.math.multiply_3", "trainable": true, "dtype": "float32", "function": "math.multiply"}, "name": "tf.math.multiply_3", "inbound_nodes": [["batch_normalization_3", 0, 0, {"y": ["tf.math.tanh_3", 0, 0], "name": null}]]}, {"class_name": "Conv2D", "config": {"name": "conv2d_4", "trainable": true, "dtype": "float32", "filters": 32, "kernel_size": [1, 1], "strides": [1, 1], "padding": "same", "data_format": "channels_last", "dilation_rate": [1, 1], "groups": 1, "activation": "linear", "use_bias": false, "kernel_initializer": {"class_name": "RandomNormal", "config": {"mean": 0.0, "stddev": 0.01, "seed": null}}, "bias_initializer": {"class_name": "Constant", "config": {"value": 0.0}}, "kernel_regularizer": {"class_name": "L2", "config": {"l2": 0.0005000000237487257}}, "bias_regularizer": null, "activity_regularizer": null, "kernel_constraint": null, "bias_constraint": null}, "name": "conv2d_4", "inbound_nodes": [[["tf.math.multiply_3", 0, 0, {}]]]}, {"class_name": "BatchNormalization", "config": {"name": "batch_normalization_4", "trainable": true, "dtype": "float32", "axis": [3], "momentum": 0.99, "epsilon": 0.001, "center": true, "scale": true, "beta_initializer": {"class_name": "Zeros", "config": {}}, "gamma_initializer": {"class_name": "Ones", "config": {}}, "moving_mean_initializer": {"class_name": "Zeros", "config": {}}, "moving_variance_initializer": {"class_name": "Ones", "config": {}}, "beta_regularizer": null, "gamma_regularizer": null, "beta_constraint": null, "gamma_constraint": null}, "name": "batch_normalization_4", "inbound_nodes": [[["conv2d_4", 0, 0, {}]]]}, {"class_name": "TFOpLambda", "config": {"name": "tf.math.softplus_4", "trainable": true, "dtype": "float32", "function": "math.softplus"}, "name": "tf.math.softplus_4", "inbound_nodes": [["batch_normalization_4", 0, 0, {}]]}, {"class_name": "TFOpLambda", "config": {"name": "tf.math.tanh_4", "trainable": true, "dtype": "float32", "function": "math.tanh"}, "name": "tf.math.tanh_4", "inbound_nodes": [["tf.math.softplus_4", 0, 0, {"name": null}]]}, {"class_name": "TFOpLambda", "config": {"name": "tf.math.multiply_4", "trainable": true, "dtype": "float32", "function": "math.multiply"}, "name": "tf.math.multiply_4", "inbound_nodes": [["batch_normalization_4", 0, 0, {"y": ["tf.math.tanh_4", 0, 0], "name": null}]]}, {"class_name": "Conv2D", "config": {"name": "conv2d_5", "trainable": true, "dtype": "float32", "filters": 64, "kernel_size": [3, 3], "strides": [1, 1], "padding": "same", "data_format": "channels_last", "dilation_rate": [1, 1], "groups": 1, "activation": "linear", "use_bias": false, "kernel_initializer": {"class_name": "RandomNormal", "config": {"mean": 0.0, "stddev": 0.01, "seed": null}}, "bias_initializer": {"class_name": "Constant", "config": {"value": 0.0}}, "kernel_regularizer": {"class_name": "L2", "config": {"l2": 0.0005000000237487257}}, "bias_regularizer": null, "activity_regularizer": null, "kernel_constraint": null, "bias_constraint": null}, "name": "conv2d_5", "inbound_nodes": [[["tf.math.multiply_4", 0, 0, {}]]]}, {"class_name": "BatchNormalization", "config": {"name": "batch_normalization_5", "trainable": true, "dtype": "float32", "axis": [3], "momentum": 0.99, "epsilon": 0.001, "center": true, "scale": true, "beta_initializer": {"class_name": "Zeros", "config": {}}, "gamma_initializer": {"class_name": "Ones", "config": {}}, "moving_mean_initializer": {"class_name": "Zeros", "config": {}}, "moving_variance_initializer": {"class_name": "Ones", "config": {}}, "beta_regularizer": null, "gamma_regularizer": null, "beta_constraint": null, "gamma_constraint": null}, "name": "batch_normalization_5", "inbound_nodes": [[["conv2d_5", 0, 0, {}]]]}, {"class_name": "TFOpLambda", "config": {"name": "tf.math.softplus_5", "trainable": true, "dtype": "float32", "function": "math.softplus"}, "name": "tf.math.softplus_5", "inbound_nodes": [["batch_normalization_5", 0, 0, {}]]}, {"class_name": "TFOpLambda", "config": {"name": "tf.math.tanh_5", "trainable": true, "dtype": "float32", "function": "math.tanh"}, "name": "tf.math.tanh_5", "inbound_nodes": [["tf.math.softplus_5", 0, 0, {"name": null}]]}, {"class_name": "TFOpLambda", "config": {"name": "tf.math.multiply_5", "trainable": true, "dtype": "float32", "function": "math.multiply"}, "name": "tf.math.multiply_5", "inbound_nodes": [["batch_normalization_5", 0, 0, {"y": ["tf.math.tanh_5", 0, 0], "name": null}]]}, {"class_name": "TFOpLambda", "config": {"name": "tf.__operators__.add", "trainable": true, "dtype": "float32", "function": "__operators__.add"}, "name": "tf.__operators__.add", "inbound_nodes": [["tf.math.multiply_3", 0, 0, {"y": ["tf.math.multiply_5", 0, 0], "name": null}]]}, {"class_name": "Conv2D", "config": {"name": "conv2d_6", "trainable": true, "dtype": "float32", "filters": 64, "kernel_size": [1, 1], "strides": [1, 1], "padding": "same", "data_format": "channels_last", "dilation_rate": [1, 1], "groups": 1, "activation": "linear", "use_bias": false, "kernel_initializer": {"class_name": "RandomNormal", "config": {"mean": 0.0, "stddev": 0.01, "seed": null}}, "bias_initializer": {"class_name": "Constant", "config": {"value": 0.0}}, "kernel_regularizer": {"class_name": "L2", "config": {"l2": 0.0005000000237487257}}, "bias_regularizer": null, "activity_regularizer": null, "kernel_constraint": null, "bias_constraint": null}, "name": "conv2d_6", "inbound_nodes": [[["tf.__operators__.add", 0, 0, {}]]]}, {"class_name": "Conv2D", "config": {"name": "conv2d_2", "trainable": true, "dtype": "float32", "filters": 64, "kernel_size": [1, 1], "strides": [1, 1], "padding": "same", "data_format": "channels_last", "dilation_rate": [1, 1], "groups": 1, "activation": "linear", "use_bias": false, "kernel_initializer": {"class_name": "RandomNormal", "config": {"mean": 0.0, "stddev": 0.01, "seed": null}}, "bias_initializer": {"class_name": "Constant", "config": {"value": 0.0}}, "kernel_regularizer": {"class_name": "L2", "config": {"l2": 0.0005000000237487257}}, "bias_regularizer": null, "activity_regularizer": null, "kernel_constraint": null, "bias_constraint": null}, "name": "conv2d_2", "inbound_nodes": [[["tf.math.multiply_1", 0, 0, {}]]]}, {"class_name": "BatchNormalization", "config": {"name": "batch_normalization_6", "trainable": true, "dtype": "float32", "axis": [3], "momentum": 0.99, "epsilon": 0.001, "center": true, "scale": true, "beta_initializer": {"class_name": "Zeros", "config": {}}, "gamma_initializer": {"class_name": "Ones", "config": {}}, "moving_mean_initializer": {"class_name": "Zeros", "config": {}}, "moving_variance_initializer": {"class_name": "Ones", "config": {}}, "beta_regularizer": null, "gamma_regularizer": null, "beta_constraint": null, "gamma_constraint": null}, "name": "batch_normalization_6", "inbound_nodes": [[["conv2d_6", 0, 0, {}]]]}, {"class_name": "BatchNormalization", "config": {"name": "batch_normalization_2", "trainable": true, "dtype": "float32", "axis": [3], "momentum": 0.99, "epsilon": 0.001, "center": true, "scale": true, "beta_initializer": {"class_name": "Zeros", "config": {}}, "gamma_initializer": {"class_name": "Ones", "config": {}}, "moving_mean_initializer": {"class_name": "Zeros", "config": {}}, "moving_variance_initializer": {"class_name": "Ones", "config": {}}, "beta_regularizer": null, "gamma_regularizer": null, "beta_constraint": null, "gamma_constraint": null}, "name": "batch_normalization_2", "inbound_nodes": [[["conv2d_2", 0, 0, {}]]]}, {"class_name": "TFOpLambda", "config": {"name": "tf.math.softplus_6", "trainable": true, "dtype": "float32", "function": "math.softplus"}, "name": "tf.math.softplus_6", "inbound_nodes": [["batch_normalization_6", 0, 0, {}]]}, {"class_name": "TFOpLambda", "config": {"name": "tf.math.softplus_2", "trainable": true, "dtype": "float32", "function": "math.softplus"}, "name": "tf.math.softplus_2", "inbound_nodes": [["batch_normalization_2", 0, 0, {}]]}, {"class_name": "TFOpLambda", "config": {"name": "tf.math.tanh_6", "trainable": true, "dtype": "float32", "function": "math.tanh"}, "name": "tf.math.tanh_6", "inbound_nodes": [["tf.math.softplus_6", 0, 0, {"name": null}]]}, {"class_name": "TFOpLambda", "config": {"name": "tf.math.tanh_2", "trainable": true, "dtype": "float32", "function": "math.tanh"}, "name": "tf.math.tanh_2", "inbound_nodes": [["tf.math.softplus_2", 0, 0, {"name": null}]]}, {"class_name": "TFOpLambda", "config": {"name": "tf.math.multiply_6", "trainable": true, "dtype": "float32", "function": "math.multiply"}, "name": "tf.math.multiply_6", "inbound_nodes": [["batch_normalization_6", 0, 0, {"y": ["tf.math.tanh_6", 0, 0], "name": null}]]}, {"class_name": "TFOpLambda", "config": {"name": "tf.math.multiply_2", "trainable": true, "dtype": "float32", "function": "math.multiply"}, "name": "tf.math.multiply_2", "inbound_nodes": [["batch_normalization_2", 0, 0, {"y": ["tf.math.tanh_2", 0, 0], "name": null}]]}, {"class_name": "TFOpLambda", "config": {"name": "tf.concat", "trainable": true, "dtype": "float32", "function": "concat"}, "name": "tf.concat", "inbound_nodes": [[["tf.math.multiply_6", 0, 0, {"axis": -1}], ["tf.math.multiply_2", 0, 0, {"axis": -1}]]]}, {"class_name": "Conv2D", "config": {"name": "conv2d_7", "trainable": true, "dtype": "float32", "filters": 64, "kernel_size": [1, 1], "strides": [1, 1], "padding": "same", "data_format": "channels_last", "dilation_rate": [1, 1], "groups": 1, "activation": "linear", "use_bias": false, "kernel_initializer": {"class_name": "RandomNormal", "config": {"mean": 0.0, "stddev": 0.01, "seed": null}}, "bias_initializer": {"class_name": "Constant", "config": {"value": 0.0}}, "kernel_regularizer": {"class_name": "L2", "config": {"l2": 0.0005000000237487257}}, "bias_regularizer": null, "activity_regularizer": null, "kernel_constraint": null, "bias_constraint": null}, "name": "conv2d_7", "inbound_nodes": [[["tf.concat", 0, 0, {}]]]}, {"class_name": "BatchNormalization", "config": {"name": "batch_normalization_7", "trainable": true, "dtype": "float32", "axis": [3], "momentum": 0.99, "epsilon": 0.001, "center": true, "scale": true, "beta_initializer": {"class_name": "Zeros", "config": {}}, "gamma_initializer": {"class_name": "Ones", "config": {}}, "moving_mean_initializer": {"class_name": "Zeros", "config": {}}, "moving_variance_initializer": {"class_name": "Ones", "config": {}}, "beta_regularizer": null, "gamma_regularizer": null, "beta_constraint": null, "gamma_constraint": null}, "name": "batch_normalization_7", "inbound_nodes": [[["conv2d_7", 0, 0, {}]]]}, {"class_name": "TFOpLambda", "config": {"name": "tf.math.softplus_7", "trainable": true, "dtype": "float32", "function": "math.softplus"}, "name": "tf.math.softplus_7", "inbound_nodes": [["batch_normalization_7", 0, 0, {}]]}, {"class_name": "TFOpLambda", "config": {"name": "tf.math.tanh_7", "trainable": true, "dtype": "float32", "function": "math.tanh"}, "name": "tf.math.tanh_7", "inbound_nodes": [["tf.math.softplus_7", 0, 0, {"name": null}]]}, {"class_name": "TFOpLambda", "config": {"name": "tf.math.multiply_7", "trainable": true, "dtype": "float32", "function": "math.multiply"}, "name": "tf.math.multiply_7", "inbound_nodes": [["batch_normalization_7", 0, 0, {"y": ["tf.math.tanh_7", 0, 0], "name": null}]]}, {"class_name": "ZeroPadding2D", "config": {"name": "zero_padding2d_1", "trainable": true, "dtype": "float32", "padding": [[1, 0], [1, 0]], "data_format": "channels_last"}, "name": "zero_padding2d_1", "inbound_nodes": [[["tf.math.multiply_7", 0, 0, {}]]]}, {"class_name": "Conv2D", "config": {"name": "conv2d_8", "trainable": true, "dtype": "float32", "filters": 128, "kernel_size": [3, 3], "strides": [2, 2], "padding": "valid", "data_format": "channels_last", "dilation_rate": [1, 1], "groups": 1, "activation": "linear", "use_bias": false, "kernel_initializer": {"class_name": "RandomNormal", "config": {"mean": 0.0, "stddev": 0.01, "seed": null}}, "bias_initializer": {"class_name": "Constant", "config": {"value": 0.0}}, "kernel_regularizer": {"class_name": "L2", "config": {"l2": 0.0005000000237487257}}, "bias_regularizer": null, "activity_regularizer": null, "kernel_constraint": null, "bias_constraint": null}, "name": "conv2d_8", "inbound_nodes": [[["zero_padding2d_1", 0, 0, {}]]]}, {"class_name": "BatchNormalization", "config": {"name": "batch_normalization_8", "trainable": true, "dtype": "float32", "axis": [3], "momentum": 0.99, "epsilon": 0.001, "center": true, "scale": true, "beta_initializer": {"class_name": "Zeros", "config": {}}, "gamma_initializer": {"class_name": "Ones", "config": {}}, "moving_mean_initializer": {"class_name": "Zeros", "config": {}}, "moving_variance_initializer": {"class_name": "Ones", "config": {}}, "beta_regularizer": null, "gamma_regularizer": null, "beta_constraint": null, "gamma_constraint": null}, "name": "batch_normalization_8", "inbound_nodes": [[["conv2d_8", 0, 0, {}]]]}, {"class_name": "TFOpLambda", "config": {"name": "tf.math.softplus_8", "trainable": true, "dtype": "float32", "function": "math.softplus"}, "name": "tf.math.softplus_8", "inbound_nodes": [["batch_normalization_8", 0, 0, {}]]}, {"class_name": "TFOpLambda", "config": {"name": "tf.math.tanh_8", "trainable": true, "dtype": "float32", "function": "math.tanh"}, "name": "tf.math.tanh_8", "inbound_nodes": [["tf.math.softplus_8", 0, 0, {"name": null}]]}, {"class_name": "TFOpLambda", "config": {"name": "tf.math.multiply_8", "trainable": true, "dtype": "float32", "function": "math.multiply"}, "name": "tf.math.multiply_8", "inbound_nodes": [["batch_normalization_8", 0, 0, {"y": ["tf.math.tanh_8", 0, 0], "name": null}]]}, {"class_name": "Conv2D", "config": {"name": "conv2d_10", "trainable": true, "dtype": "float32", "filters": 64, "kernel_size": [1, 1], "strides": [1, 1], "padding": "same", "data_format": "channels_last", "dilation_rate": [1, 1], "groups": 1, "activation": "linear", "use_bias": false, "kernel_initializer": {"class_name": "RandomNormal", "config": {"mean": 0.0, "stddev": 0.01, "seed": null}}, "bias_initializer": {"class_name": "Constant", "config": {"value": 0.0}}, "kernel_regularizer": {"class_name": "L2", "config": {"l2": 0.0005000000237487257}}, "bias_regularizer": null, "activity_regularizer": null, "kernel_constraint": null, "bias_constraint": null}, "name": "conv2d_10", "inbound_nodes": [[["tf.math.multiply_8", 0, 0, {}]]]}, {"class_name": "BatchNormalization", "config": {"name": "batch_normalization_10", "trainable": true, "dtype": "float32", "axis": [3], "momentum": 0.99, "epsilon": 0.001, "center": true, "scale": true, "beta_initializer": {"class_name": "Zeros", "config": {}}, "gamma_initializer": {"class_name": "Ones", "config": {}}, "moving_mean_initializer": {"class_name": "Zeros", "config": {}}, "moving_variance_initializer": {"class_name": "Ones", "config": {}}, "beta_regularizer": null, "gamma_regularizer": null, "beta_constraint": null, "gamma_constraint": null}, "name": "batch_normalization_10", "inbound_nodes": [[["conv2d_10", 0, 0, {}]]]}, {"class_name": "TFOpLambda", "config": {"name": "tf.math.softplus_10", "trainable": true, "dtype": "float32", "function": "math.softplus"}, "name": "tf.math.softplus_10", "inbound_nodes": [["batch_normalization_10", 0, 0, {}]]}, {"class_name": "TFOpLambda", "config": {"name": "tf.math.tanh_10", "trainable": true, "dtype": "float32", "function": "math.tanh"}, "name": "tf.math.tanh_10", "inbound_nodes": [["tf.math.softplus_10", 0, 0, {"name": null}]]}, {"class_name": "TFOpLambda", "config": {"name": "tf.math.multiply_10", "trainable": true, "dtype": "float32", "function": "math.multiply"}, "name": "tf.math.multiply_10", "inbound_nodes": [["batch_normalization_10", 0, 0, {"y": ["tf.math.tanh_10", 0, 0], "name": null}]]}, {"class_name": "Conv2D", "config": {"name": "conv2d_11", "trainable": true, "dtype": "float32", "filters": 64, "kernel_size": [1, 1], "strides": [1, 1], "padding": "same", "data_format": "channels_last", "dilation_rate": [1, 1], "groups": 1, "activation": "linear", "use_bias": false, "kernel_initializer": {"class_name": "RandomNormal", "config": {"mean": 0.0, "stddev": 0.01, "seed": null}}, "bias_initializer": {"class_name": "Constant", "config": {"value": 0.0}}, "kernel_regularizer": {"class_name": "L2", "config": {"l2": 0.0005000000237487257}}, "bias_regularizer": null, "activity_regularizer": null, "kernel_constraint": null, "bias_constraint": null}, "name": "conv2d_11", "inbound_nodes": [[["tf.math.multiply_10", 0, 0, {}]]]}, {"class_name": "BatchNormalization", "config": {"name": "batch_normalization_11", "trainable": true, "dtype": "float32", "axis": [3], "momentum": 0.99, "epsilon": 0.001, "center": true, "scale": true, "beta_initializer": {"class_name": "Zeros", "config": {}}, "gamma_initializer": {"class_name": "Ones", "config": {}}, "moving_mean_initializer": {"class_name": "Zeros", "config": {}}, "moving_variance_initializer": {"class_name": "Ones", "config": {}}, "beta_regularizer": null, "gamma_regularizer": null, "beta_constraint": null, "gamma_constraint": null}, "name": "batch_normalization_11", "inbound_nodes": [[["conv2d_11", 0, 0, {}]]]}, {"class_name": "TFOpLambda", "config": {"name": "tf.math.softplus_11", "trainable": true, "dtype": "float32", "function": "math.softplus"}, "name": "tf.math.softplus_11", "inbound_nodes": [["batch_normalization_11", 0, 0, {}]]}, {"class_name": "TFOpLambda", "config": {"name": "tf.math.tanh_11", "trainable": true, "dtype": "float32", "function": "math.tanh"}, "name": "tf.math.tanh_11", "inbound_nodes": [["tf.math.softplus_11", 0, 0, {"name": null}]]}, {"class_name": "TFOpLambda", "config": {"name": "tf.math.multiply_11", "trainable": true, "dtype": "float32", "function": "math.multiply"}, "name": "tf.math.multiply_11", "inbound_nodes": [["batch_normalization_11", 0, 0, {"y": ["tf.math.tanh_11", 0, 0], "name": null}]]}, {"class_name": "Conv2D", "config": {"name": "conv2d_12", "trainable": true, "dtype": "float32", "filters": 64, "kernel_size": [3, 3], "strides": [1, 1], "padding": "same", "data_format": "channels_last", "dilation_rate": [1, 1], "groups": 1, "activation": "linear", "use_bias": false, "kernel_initializer": {"class_name": "RandomNormal", "config": {"mean": 0.0, "stddev": 0.01, "seed": null}}, "bias_initializer": {"class_name": "Constant", "config": {"value": 0.0}}, "kernel_regularizer": {"class_name": "L2", "config": {"l2": 0.0005000000237487257}}, "bias_regularizer": null, "activity_regularizer": null, "kernel_constraint": null, "bias_constraint": null}, "name": "conv2d_12", "inbound_nodes": [[["tf.math.multiply_11", 0, 0, {}]]]}, {"class_name": "BatchNormalization", "config": {"name": "batch_normalization_12", "trainable": true, "dtype": "float32", "axis": [3], "momentum": 0.99, "epsilon": 0.001, "center": true, "scale": true, "beta_initializer": {"class_name": "Zeros", "config": {}}, "gamma_initializer": {"class_name": "Ones", "config": {}}, "moving_mean_initializer": {"class_name": "Zeros", "config": {}}, "moving_variance_initializer": {"class_name": "Ones", "config": {}}, "beta_regularizer": null, "gamma_regularizer": null, "beta_constraint": null, "gamma_constraint": null}, "name": "batch_normalization_12", "inbound_nodes": [[["conv2d_12", 0, 0, {}]]]}, {"class_name": "TFOpLambda", "config": {"name": "tf.math.softplus_12", "trainable": true, "dtype": "float32", "function": "math.softplus"}, "name": "tf.math.softplus_12", "inbound_nodes": [["batch_normalization_12", 0, 0, {}]]}, {"class_name": "TFOpLambda", "config": {"name": "tf.math.tanh_12", "trainable": true, "dtype": "float32", "function": "math.tanh"}, "name": "tf.math.tanh_12", "inbound_nodes": [["tf.math.softplus_12", 0, 0, {"name": null}]]}, {"class_name": "TFOpLambda", "config": {"name": "tf.math.multiply_12", "trainable": true, "dtype": "float32", "function": "math.multiply"}, "name": "tf.math.multiply_12", "inbound_nodes": [["batch_normalization_12", 0, 0, {"y": ["tf.math.tanh_12", 0, 0], "name": null}]]}, {"class_name": "TFOpLambda", "config": {"name": "tf.__operators__.add_1", "trainable": true, "dtype": "float32", "function": "__operators__.add"}, "name": "tf.__operators__.add_1", "inbound_nodes": [["tf.math.multiply_10", 0, 0, {"y": ["tf.math.multiply_12", 0, 0], "name": null}]]}, {"class_name": "Conv2D", "config": {"name": "conv2d_13", "trainable": true, "dtype": "float32", "filters": 64, "kernel_size": [1, 1], "strides": [1, 1], "padding": "same", "data_format": "channels_last", "dilation_rate": [1, 1], "groups": 1, "activation": "linear", "use_bias": false, "kernel_initializer": {"class_name": "RandomNormal", "config": {"mean": 0.0, "stddev": 0.01, "seed": null}}, "bias_initializer": {"class_name": "Constant", "config": {"value": 0.0}}, "kernel_regularizer": {"class_name": "L2", "config": {"l2": 0.0005000000237487257}}, "bias_regularizer": null, "activity_regularizer": null, "kernel_constraint": null, "bias_constraint": null}, "name": "conv2d_13", "inbound_nodes": [[["tf.__operators__.add_1", 0, 0, {}]]]}, {"class_name": "BatchNormalization", "config": {"name": "batch_normalization_13", "trainable": true, "dtype": "float32", "axis": [3], "momentum": 0.99, "epsilon": 0.001, "center": true, "scale": true, "beta_initializer": {"class_name": "Zeros", "config": {}}, "gamma_initializer": {"class_name": "Ones", "config": {}}, "moving_mean_initializer": {"class_name": "Zeros", "config": {}}, "moving_variance_initializer": {"class_name": "Ones", "config": {}}, "beta_regularizer": null, "gamma_regularizer": null, "beta_constraint": null, "gamma_constraint": null}, "name": "batch_normalization_13", "inbound_nodes": [[["conv2d_13", 0, 0, {}]]]}, {"class_name": "TFOpLambda", "config": {"name": "tf.math.softplus_13", "trainable": true, "dtype": "float32", "function": "math.softplus"}, "name": "tf.math.softplus_13", "inbound_nodes": [["batch_normalization_13", 0, 0, {}]]}, {"class_name": "TFOpLambda", "config": {"name": "tf.math.tanh_13", "trainable": true, "dtype": "float32", "function": "math.tanh"}, "name": "tf.math.tanh_13", "inbound_nodes": [["tf.math.softplus_13", 0, 0, {"name": null}]]}, {"class_name": "TFOpLambda", "config": {"name": "tf.math.multiply_13", "trainable": true, "dtype": "float32", "function": "math.multiply"}, "name": "tf.math.multiply_13", "inbound_nodes": [["batch_normalization_13", 0, 0, {"y": ["tf.math.tanh_13", 0, 0], "name": null}]]}, {"class_name": "Conv2D", "config": {"name": "conv2d_14", "trainable": true, "dtype": "float32", "filters": 64, "kernel_size": [3, 3], "strides": [1, 1], "padding": "same", "data_format": "channels_last", "dilation_rate": [1, 1], "groups": 1, "activation": "linear", "use_bias": false, "kernel_initializer": {"class_name": "RandomNormal", "config": {"mean": 0.0, "stddev": 0.01, "seed": null}}, "bias_initializer": {"class_name": "Constant", "config": {"value": 0.0}}, "kernel_regularizer": {"class_name": "L2", "config": {"l2": 0.0005000000237487257}}, "bias_regularizer": null, "activity_regularizer": null, "kernel_constraint": null, "bias_constraint": null}, "name": "conv2d_14", "inbound_nodes": [[["tf.math.multiply_13", 0, 0, {}]]]}, {"class_name": "BatchNormalization", "config": {"name": "batch_normalization_14", "trainable": true, "dtype": "float32", "axis": [3], "momentum": 0.99, "epsilon": 0.001, "center": true, "scale": true, "beta_initializer": {"class_name": "Zeros", "config": {}}, "gamma_initializer": {"class_name": "Ones", "config": {}}, "moving_mean_initializer": {"class_name": "Zeros", "config": {}}, "moving_variance_initializer": {"class_name": "Ones", "config": {}}, "beta_regularizer": null, "gamma_regularizer": null, "beta_constraint": null, "gamma_constraint": null}, "name": "batch_normalization_14", "inbound_nodes": [[["conv2d_14", 0, 0, {}]]]}, {"class_name": "TFOpLambda", "config": {"name": "tf.math.softplus_14", "trainable": true, "dtype": "float32", "function": "math.softplus"}, "name": "tf.math.softplus_14", "inbound_nodes": [["batch_normalization_14", 0, 0, {}]]}, {"class_name": "TFOpLambda", "config": {"name": "tf.math.tanh_14", "trainable": true, "dtype": "float32", "function": "math.tanh"}, "name": "tf.math.tanh_14", "inbound_nodes": [["tf.math.softplus_14", 0, 0, {"name": null}]]}, {"class_name": "TFOpLambda", "config": {"name": "tf.math.multiply_14", "trainable": true, "dtype": "float32", "function": "math.multiply"}, "name": "tf.math.multiply_14", "inbound_nodes": [["batch_normalization_14", 0, 0, {"y": ["tf.math.tanh_14", 0, 0], "name": null}]]}, {"class_name": "TFOpLambda", "config": {"name": "tf.__operators__.add_2", "trainable": true, "dtype": "float32", "function": "__operators__.add"}, "name": "tf.__operators__.add_2", "inbound_nodes": [["tf.__operators__.add_1", 0, 0, {"y": ["tf.math.multiply_14", 0, 0], "name": null}]]}, {"class_name": "Conv2D", "config": {"name": "conv2d_15", "trainable": true, "dtype": "float32", "filters": 64, "kernel_size": [1, 1], "strides": [1, 1], "padding": "same", "data_format": "channels_last", "dilation_rate": [1, 1], "groups": 1, "activation": "linear", "use_bias": false, "kernel_initializer": {"class_name": "RandomNormal", "config": {"mean": 0.0, "stddev": 0.01, "seed": null}}, "bias_initializer": {"class_name": "Constant", "config": {"value": 0.0}}, "kernel_regularizer": {"class_name": "L2", "config": {"l2": 0.0005000000237487257}}, "bias_regularizer": null, "activity_regularizer": null, "kernel_constraint": null, "bias_constraint": null}, "name": "conv2d_15", "inbound_nodes": [[["tf.__operators__.add_2", 0, 0, {}]]]}, {"class_name": "Conv2D", "config": {"name": "conv2d_9", "trainable": true, "dtype": "float32", "filters": 64, "kernel_size": [1, 1], "strides": [1, 1], "padding": "same", "data_format": "channels_last", "dilation_rate": [1, 1], "groups": 1, "activation": "linear", "use_bias": false, "kernel_initializer": {"class_name": "RandomNormal", "config": {"mean": 0.0, "stddev": 0.01, "seed": null}}, "bias_initializer": {"class_name": "Constant", "config": {"value": 0.0}}, "kernel_regularizer": {"class_name": "L2", "config": {"l2": 0.0005000000237487257}}, "bias_regularizer": null, "activity_regularizer": null, "kernel_constraint": null, "bias_constraint": null}, "name": "conv2d_9", "inbound_nodes": [[["tf.math.multiply_8", 0, 0, {}]]]}, {"class_name": "BatchNormalization", "config": {"name": "batch_normalization_15", "trainable": true, "dtype": "float32", "axis": [3], "momentum": 0.99, "epsilon": 0.001, "center": true, "scale": true, "beta_initializer": {"class_name": "Zeros", "config": {}}, "gamma_initializer": {"class_name": "Ones", "config": {}}, "moving_mean_initializer": {"class_name": "Zeros", "config": {}}, "moving_variance_initializer": {"class_name": "Ones", "config": {}}, "beta_regularizer": null, "gamma_regularizer": null, "beta_constraint": null, "gamma_constraint": null}, "name": "batch_normalization_15", "inbound_nodes": [[["conv2d_15", 0, 0, {}]]]}, {"class_name": "BatchNormalization", "config": {"name": "batch_normalization_9", "trainable": true, "dtype": "float32", "axis": [3], "momentum": 0.99, "epsilon": 0.001, "center": true, "scale": true, "beta_initializer": {"class_name": "Zeros", "config": {}}, "gamma_initializer": {"class_name": "Ones", "config": {}}, "moving_mean_initializer": {"class_name": "Zeros", "config": {}}, "moving_variance_initializer": {"class_name": "Ones", "config": {}}, "beta_regularizer": null, "gamma_regularizer": null, "beta_constraint": null, "gamma_constraint": null}, "name": "batch_normalization_9", "inbound_nodes": [[["conv2d_9", 0, 0, {}]]]}, {"class_name": "TFOpLambda", "config": {"name": "tf.math.softplus_15", "trainable": true, "dtype": "float32", "function": "math.softplus"}, "name": "tf.math.softplus_15", "inbound_nodes": [["batch_normalization_15", 0, 0, {}]]}, {"class_name": "TFOpLambda", "config": {"name": "tf.math.softplus_9", "trainable": true, "dtype": "float32", "function": "math.softplus"}, "name": "tf.math.softplus_9", "inbound_nodes": [["batch_normalization_9", 0, 0, {}]]}, {"class_name": "TFOpLambda", "config": {"name": "tf.math.tanh_15", "trainable": true, "dtype": "float32", "function": "math.tanh"}, "name": "tf.math.tanh_15", "inbound_nodes": [["tf.math.softplus_15", 0, 0, {"name": null}]]}, {"class_name": "TFOpLambda", "config": {"name": "tf.math.tanh_9", "trainable": true, "dtype": "float32", "function": "math.tanh"}, "name": "tf.math.tanh_9", "inbound_nodes": [["tf.math.softplus_9", 0, 0, {"name": null}]]}, {"class_name": "TFOpLambda", "config": {"name": "tf.math.multiply_15", "trainable": true, "dtype": "float32", "function": "math.multiply"}, "name": "tf.math.multiply_15", "inbound_nodes": [["batch_normalization_15", 0, 0, {"y": ["tf.math.tanh_15", 0, 0], "name": null}]]}, {"class_name": "TFOpLambda", "config": {"name": "tf.math.multiply_9", "trainable": true, "dtype": "float32", "function": "math.multiply"}, "name": "tf.math.multiply_9", "inbound_nodes": [["batch_normalization_9", 0, 0, {"y": ["tf.math.tanh_9", 0, 0], "name": null}]]}, {"class_name": "TFOpLambda", "config": {"name": "tf.concat_1", "trainable": true, "dtype": "float32", "function": "concat"}, "name": "tf.concat_1", "inbound_nodes": [[["tf.math.multiply_15", 0, 0, {"axis": -1}], ["tf.math.multiply_9", 0, 0, {"axis": -1}]]]}, {"class_name": "Conv2D", "config": {"name": "conv2d_16", "trainable": true, "dtype": "float32", "filters": 128, "kernel_size": [1, 1], "strides": [1, 1], "padding": "same", "data_format": "channels_last", "dilation_rate": [1, 1], "groups": 1, "activation": "linear", "use_bias": false, "kernel_initializer": {"class_name": "RandomNormal", "config": {"mean": 0.0, "stddev": 0.01, "seed": null}}, "bias_initializer": {"class_name": "Constant", "config": {"value": 0.0}}, "kernel_regularizer": {"class_name": "L2", "config": {"l2": 0.0005000000237487257}}, "bias_regularizer": null, "activity_regularizer": null, "kernel_constraint": null, "bias_constraint": null}, "name": "conv2d_16", "inbound_nodes": [[["tf.concat_1", 0, 0, {}]]]}, {"class_name": "BatchNormalization", "config": {"name": "batch_normalization_16", "trainable": true, "dtype": "float32", "axis": [3], "momentum": 0.99, "epsilon": 0.001, "center": true, "scale": true, "beta_initializer": {"class_name": "Zeros", "config": {}}, "gamma_initializer": {"class_name": "Ones", "config": {}}, "moving_mean_initializer": {"class_name": "Zeros", "config": {}}, "moving_variance_initializer": {"class_name": "Ones", "config": {}}, "beta_regularizer": null, "gamma_regularizer": null, "beta_constraint": null, "gamma_constraint": null}, "name": "batch_normalization_16", "inbound_nodes": [[["conv2d_16", 0, 0, {}]]]}, {"class_name": "TFOpLambda", "config": {"name": "tf.math.softplus_16", "trainable": true, "dtype": "float32", "function": "math.softplus"}, "name": "tf.math.softplus_16", "inbound_nodes": [["batch_normalization_16", 0, 0, {}]]}, {"class_name": "TFOpLambda", "config": {"name": "tf.math.tanh_16", "trainable": true, "dtype": "float32", "function": "math.tanh"}, "name": "tf.math.tanh_16", "inbound_nodes": [["tf.math.softplus_16", 0, 0, {"name": null}]]}, {"class_name": "TFOpLambda", "config": {"name": "tf.math.multiply_16", "trainable": true, "dtype": "float32", "function": "math.multiply"}, "name": "tf.math.multiply_16", "inbound_nodes": [["batch_normalization_16", 0, 0, {"y": ["tf.math.tanh_16", 0, 0], "name": null}]]}, {"class_name": "ZeroPadding2D", "config": {"name": "zero_padding2d_2", "trainable": true, "dtype": "float32", "padding": [[1, 0], [1, 0]], "data_format": "channels_last"}, "name": "zero_padding2d_2", "inbound_nodes": [[["tf.math.multiply_16", 0, 0, {}]]]}, {"class_name": "Conv2D", "config": {"name": "conv2d_17", "trainable": true, "dtype": "float32", "filters": 256, "kernel_size": [3, 3], "strides": [2, 2], "padding": "valid", "data_format": "channels_last", "dilation_rate": [1, 1], "groups": 1, "activation": "linear", "use_bias": false, "kernel_initializer": {"class_name": "RandomNormal", "config": {"mean": 0.0, "stddev": 0.01, "seed": null}}, "bias_initializer": {"class_name": "Constant", "config": {"value": 0.0}}, "kernel_regularizer": {"class_name": "L2", "config": {"l2": 0.0005000000237487257}}, "bias_regularizer": null, "activity_regularizer": null, "kernel_constraint": null, "bias_constraint": null}, "name": "conv2d_17", "inbound_nodes": [[["zero_padding2d_2", 0, 0, {}]]]}, {"class_name": "BatchNormalization", "config": {"name": "batch_normalization_17", "trainable": true, "dtype": "float32", "axis": [3], "momentum": 0.99, "epsilon": 0.001, "center": true, "scale": true, "beta_initializer": {"class_name": "Zeros", "config": {}}, "gamma_initializer": {"class_name": "Ones", "config": {}}, "moving_mean_initializer": {"class_name": "Zeros", "config": {}}, "moving_variance_initializer": {"class_name": "Ones", "config": {}}, "beta_regularizer": null, "gamma_regularizer": null, "beta_constraint": null, "gamma_constraint": null}, "name": "batch_normalization_17", "inbound_nodes": [[["conv2d_17", 0, 0, {}]]]}, {"class_name": "TFOpLambda", "config": {"name": "tf.math.softplus_17", "trainable": true, "dtype": "float32", "function": "math.softplus"}, "name": "tf.math.softplus_17", "inbound_nodes": [["batch_normalization_17", 0, 0, {}]]}, {"class_name": "TFOpLambda", "config": {"name": "tf.math.tanh_17", "trainable": true, "dtype": "float32", "function": "math.tanh"}, "name": "tf.math.tanh_17", "inbound_nodes": [["tf.math.softplus_17", 0, 0, {"name": null}]]}, {"class_name": "TFOpLambda", "config": {"name": "tf.math.multiply_17", "trainable": true, "dtype": "float32", "function": "math.multiply"}, "name": "tf.math.multiply_17", "inbound_nodes": [["batch_normalization_17", 0, 0, {"y": ["tf.math.tanh_17", 0, 0], "name": null}]]}, {"class_name": "Conv2D", "config": {"name": "conv2d_19", "trainable": true, "dtype": "float32", "filters": 128, "kernel_size": [1, 1], "strides": [1, 1], "padding": "same", "data_format": "channels_last", "dilation_rate": [1, 1], "groups": 1, "activation": "linear", "use_bias": false, "kernel_initializer": {"class_name": "RandomNormal", "config": {"mean": 0.0, "stddev": 0.01, "seed": null}}, "bias_initializer": {"class_name": "Constant", "config": {"value": 0.0}}, "kernel_regularizer": {"class_name": "L2", "config": {"l2": 0.0005000000237487257}}, "bias_regularizer": null, "activity_regularizer": null, "kernel_constraint": null, "bias_constraint": null}, "name": "conv2d_19", "inbound_nodes": [[["tf.math.multiply_17", 0, 0, {}]]]}, {"class_name": "BatchNormalization", "config": {"name": "batch_normalization_19", "trainable": true, "dtype": "float32", "axis": [3], "momentum": 0.99, "epsilon": 0.001, "center": true, "scale": true, "beta_initializer": {"class_name": "Zeros", "config": {}}, "gamma_initializer": {"class_name": "Ones", "config": {}}, "moving_mean_initializer": {"class_name": "Zeros", "config": {}}, "moving_variance_initializer": {"class_name": "Ones", "config": {}}, "beta_regularizer": null, "gamma_regularizer": null, "beta_constraint": null, "gamma_constraint": null}, "name": "batch_normalization_19", "inbound_nodes": [[["conv2d_19", 0, 0, {}]]]}, {"class_name": "TFOpLambda", "config": {"name": "tf.math.softplus_19", "trainable": true, "dtype": "float32", "function": "math.softplus"}, "name": "tf.math.softplus_19", "inbound_nodes": [["batch_normalization_19", 0, 0, {}]]}, {"class_name": "TFOpLambda", "config": {"name": "tf.math.tanh_19", "trainable": true, "dtype": "float32", "function": "math.tanh"}, "name": "tf.math.tanh_19", "inbound_nodes": [["tf.math.softplus_19", 0, 0, {"name": null}]]}, {"class_name": "TFOpLambda", "config": {"name": "tf.math.multiply_19", "trainable": true, "dtype": "float32", "function": "math.multiply"}, "name": "tf.math.multiply_19", "inbound_nodes": [["batch_normalization_19", 0, 0, {"y": ["tf.math.tanh_19", 0, 0], "name": null}]]}, {"class_name": "Conv2D", "config": {"name": "conv2d_20", "trainable": true, "dtype": "float32", "filters": 128, "kernel_size": [1, 1], "strides": [1, 1], "padding": "same", "data_format": "channels_last", "dilation_rate": [1, 1], "groups": 1, "activation": "linear", "use_bias": false, "kernel_initializer": {"class_name": "RandomNormal", "config": {"mean": 0.0, "stddev": 0.01, "seed": null}}, "bias_initializer": {"class_name": "Constant", "config": {"value": 0.0}}, "kernel_regularizer": {"class_name": "L2", "config": {"l2": 0.0005000000237487257}}, "bias_regularizer": null, "activity_regularizer": null, "kernel_constraint": null, "bias_constraint": null}, "name": "conv2d_20", "inbound_nodes": [[["tf.math.multiply_19", 0, 0, {}]]]}, {"class_name": "BatchNormalization", "config": {"name": "batch_normalization_20", "trainable": true, "dtype": "float32", "axis": [3], "momentum": 0.99, "epsilon": 0.001, "center": true, "scale": true, "beta_initializer": {"class_name": "Zeros", "config": {}}, "gamma_initializer": {"class_name": "Ones", "config": {}}, "moving_mean_initializer": {"class_name": "Zeros", "config": {}}, "moving_variance_initializer": {"class_name": "Ones", "config": {}}, "beta_regularizer": null, "gamma_regularizer": null, "beta_constraint": null, "gamma_constraint": null}, "name": "batch_normalization_20", "inbound_nodes": [[["conv2d_20", 0, 0, {}]]]}, {"class_name": "TFOpLambda", "config": {"name": "tf.math.softplus_20", "trainable": true, "dtype": "float32", "function": "math.softplus"}, "name": "tf.math.softplus_20", "inbound_nodes": [["batch_normalization_20", 0, 0, {}]]}, {"class_name": "TFOpLambda", "config": {"name": "tf.math.tanh_20", "trainable": true, "dtype": "float32", "function": "math.tanh"}, "name": "tf.math.tanh_20", "inbound_nodes": [["tf.math.softplus_20", 0, 0, {"name": null}]]}, {"class_name": "TFOpLambda", "config": {"name": "tf.math.multiply_20", "trainable": true, "dtype": "float32", "function": "math.multiply"}, "name": "tf.math.multiply_20", "inbound_nodes": [["batch_normalization_20", 0, 0, {"y": ["tf.math.tanh_20", 0, 0], "name": null}]]}, {"class_name": "Conv2D", "config": {"name": "conv2d_21", "trainable": true, "dtype": "float32", "filters": 128, "kernel_size": [3, 3], "strides": [1, 1], "padding": "same", "data_format": "channels_last", "dilation_rate": [1, 1], "groups": 1, "activation": "linear", "use_bias": false, "kernel_initializer": {"class_name": "RandomNormal", "config": {"mean": 0.0, "stddev": 0.01, "seed": null}}, "bias_initializer": {"class_name": "Constant", "config": {"value": 0.0}}, "kernel_regularizer": {"class_name": "L2", "config": {"l2": 0.0005000000237487257}}, "bias_regularizer": null, "activity_regularizer": null, "kernel_constraint": null, "bias_constraint": null}, "name": "conv2d_21", "inbound_nodes": [[["tf.math.multiply_20", 0, 0, {}]]]}, {"class_name": "BatchNormalization", "config": {"name": "batch_normalization_21", "trainable": true, "dtype": "float32", "axis": [3], "momentum": 0.99, "epsilon": 0.001, "center": true, "scale": true, "beta_initializer": {"class_name": "Zeros", "config": {}}, "gamma_initializer": {"class_name": "Ones", "config": {}}, "moving_mean_initializer": {"class_name": "Zeros", "config": {}}, "moving_variance_initializer": {"class_name": "Ones", "config": {}}, "beta_regularizer": null, "gamma_regularizer": null, "beta_constraint": null, "gamma_constraint": null}, "name": "batch_normalization_21", "inbound_nodes": [[["conv2d_21", 0, 0, {}]]]}, {"class_name": "TFOpLambda", "config": {"name": "tf.math.softplus_21", "trainable": true, "dtype": "float32", "function": "math.softplus"}, "name": "tf.math.softplus_21", "inbound_nodes": [["batch_normalization_21", 0, 0, {}]]}, {"class_name": "TFOpLambda", "config": {"name": "tf.math.tanh_21", "trainable": true, "dtype": "float32", "function": "math.tanh"}, "name": "tf.math.tanh_21", "inbound_nodes": [["tf.math.softplus_21", 0, 0, {"name": null}]]}, {"class_name": "TFOpLambda", "config": {"name": "tf.math.multiply_21", "trainable": true, "dtype": "float32", "function": "math.multiply"}, "name": "tf.math.multiply_21", "inbound_nodes": [["batch_normalization_21", 0, 0, {"y": ["tf.math.tanh_21", 0, 0], "name": null}]]}, {"class_name": "TFOpLambda", "config": {"name": "tf.__operators__.add_3", "trainable": true, "dtype": "float32", "function": "__operators__.add"}, "name": "tf.__operators__.add_3", "inbound_nodes": [["tf.math.multiply_19", 0, 0, {"y": ["tf.math.multiply_21", 0, 0], "name": null}]]}, {"class_name": "Conv2D", "config": {"name": "conv2d_22", "trainable": true, "dtype": "float32", "filters": 128, "kernel_size": [1, 1], "strides": [1, 1], "padding": "same", "data_format": "channels_last", "dilation_rate": [1, 1], "groups": 1, "activation": "linear", "use_bias": false, "kernel_initializer": {"class_name": "RandomNormal", "config": {"mean": 0.0, "stddev": 0.01, "seed": null}}, "bias_initializer": {"class_name": "Constant", "config": {"value": 0.0}}, "kernel_regularizer": {"class_name": "L2", "config": {"l2": 0.0005000000237487257}}, "bias_regularizer": null, "activity_regularizer": null, "kernel_constraint": null, "bias_constraint": null}, "name": "conv2d_22", "inbound_nodes": [[["tf.__operators__.add_3", 0, 0, {}]]]}, {"class_name": "BatchNormalization", "config": {"name": "batch_normalization_22", "trainable": true, "dtype": "float32", "axis": [3], "momentum": 0.99, "epsilon": 0.001, "center": true, "scale": true, "beta_initializer": {"class_name": "Zeros", "config": {}}, "gamma_initializer": {"class_name": "Ones", "config": {}}, "moving_mean_initializer": {"class_name": "Zeros", "config": {}}, "moving_variance_initializer": {"class_name": "Ones", "config": {}}, "beta_regularizer": null, "gamma_regularizer": null, "beta_constraint": null, "gamma_constraint": null}, "name": "batch_normalization_22", "inbound_nodes": [[["conv2d_22", 0, 0, {}]]]}, {"class_name": "TFOpLambda", "config": {"name": "tf.math.softplus_22", "trainable": true, "dtype": "float32", "function": "math.softplus"}, "name": "tf.math.softplus_22", "inbound_nodes": [["batch_normalization_22", 0, 0, {}]]}, {"class_name": "TFOpLambda", "config": {"name": "tf.math.tanh_22", "trainable": true, "dtype": "float32", "function": "math.tanh"}, "name": "tf.math.tanh_22", "inbound_nodes": [["tf.math.softplus_22", 0, 0, {"name": null}]]}, {"class_name": "TFOpLambda", "config": {"name": "tf.math.multiply_22", "trainable": true, "dtype": "float32", "function": "math.multiply"}, "name": "tf.math.multiply_22", "inbound_nodes": [["batch_normalization_22", 0, 0, {"y": ["tf.math.tanh_22", 0, 0], "name": null}]]}, {"class_name": "Conv2D", "config": {"name": "conv2d_23", "trainable": true, "dtype": "float32", "filters": 128, "kernel_size": [3, 3], "strides": [1, 1], "padding": "same", "data_format": "channels_last", "dilation_rate": [1, 1], "groups": 1, "activation": "linear", "use_bias": false, "kernel_initializer": {"class_name": "RandomNormal", "config": {"mean": 0.0, "stddev": 0.01, "seed": null}}, "bias_initializer": {"class_name": "Constant", "config": {"value": 0.0}}, "kernel_regularizer": {"class_name": "L2", "config": {"l2": 0.0005000000237487257}}, "bias_regularizer": null, "activity_regularizer": null, "kernel_constraint": null, "bias_constraint": null}, "name": "conv2d_23", "inbound_nodes": [[["tf.math.multiply_22", 0, 0, {}]]]}, {"class_name": "BatchNormalization", "config": {"name": "batch_normalization_23", "trainable": true, "dtype": "float32", "axis": [3], "momentum": 0.99, "epsilon": 0.001, "center": true, "scale": true, "beta_initializer": {"class_name": "Zeros", "config": {}}, "gamma_initializer": {"class_name": "Ones", "config": {}}, "moving_mean_initializer": {"class_name": "Zeros", "config": {}}, "moving_variance_initializer": {"class_name": "Ones", "config": {}}, "beta_regularizer": null, "gamma_regularizer": null, "beta_constraint": null, "gamma_constraint": null}, "name": "batch_normalization_23", "inbound_nodes": [[["conv2d_23", 0, 0, {}]]]}, {"class_name": "TFOpLambda", "config": {"name": "tf.math.softplus_23", "trainable": true, "dtype": "float32", "function": "math.softplus"}, "name": "tf.math.softplus_23", "inbound_nodes": [["batch_normalization_23", 0, 0, {}]]}, {"class_name": "TFOpLambda", "config": {"name": "tf.math.tanh_23", "trainable": true, "dtype": "float32", "function": "math.tanh"}, "name": "tf.math.tanh_23", "inbound_nodes": [["tf.math.softplus_23", 0, 0, {"name": null}]]}, {"class_name": "TFOpLambda", "config": {"name": "tf.math.multiply_23", "trainable": true, "dtype": "float32", "function": "math.multiply"}, "name": "tf.math.multiply_23", "inbound_nodes": [["batch_normalization_23", 0, 0, {"y": ["tf.math.tanh_23", 0, 0], "name": null}]]}, {"class_name": "TFOpLambda", "config": {"name": "tf.__operators__.add_4", "trainable": true, "dtype": "float32", "function": "__operators__.add"}, "name": "tf.__operators__.add_4", "inbound_nodes": [["tf.__operators__.add_3", 0, 0, {"y": ["tf.math.multiply_23", 0, 0], "name": null}]]}, {"class_name": "Conv2D", "config": {"name": "conv2d_24", "trainable": true, "dtype": "float32", "filters": 128, "kernel_size": [1, 1], "strides": [1, 1], "padding": "same", "data_format": "channels_last", "dilation_rate": [1, 1], "groups": 1, "activation": "linear", "use_bias": false, "kernel_initializer": {"class_name": "RandomNormal", "config": {"mean": 0.0, "stddev": 0.01, "seed": null}}, "bias_initializer": {"class_name": "Constant", "config": {"value": 0.0}}, "kernel_regularizer": {"class_name": "L2", "config": {"l2": 0.0005000000237487257}}, "bias_regularizer": null, "activity_regularizer": null, "kernel_constraint": null, "bias_constraint": null}, "name": "conv2d_24", "inbound_nodes": [[["tf.__operators__.add_4", 0, 0, {}]]]}, {"class_name": "BatchNormalization", "config": {"name": "batch_normalization_24", "trainable": true, "dtype": "float32", "axis": [3], "momentum": 0.99, "epsilon": 0.001, "center": true, "scale": true, "beta_initializer": {"class_name": "Zeros", "config": {}}, "gamma_initializer": {"class_name": "Ones", "config": {}}, "moving_mean_initializer": {"class_name": "Zeros", "config": {}}, "moving_variance_initializer": {"class_name": "Ones", "config": {}}, "beta_regularizer": null, "gamma_regularizer": null, "beta_constraint": null, "gamma_constraint": null}, "name": "batch_normalization_24", "inbound_nodes": [[["conv2d_24", 0, 0, {}]]]}, {"class_name": "TFOpLambda", "config": {"name": "tf.math.softplus_24", "trainable": true, "dtype": "float32", "function": "math.softplus"}, "name": "tf.math.softplus_24", "inbound_nodes": [["batch_normalization_24", 0, 0, {}]]}, {"class_name": "TFOpLambda", "config": {"name": "tf.math.tanh_24", "trainable": true, "dtype": "float32", "function": "math.tanh"}, "name": "tf.math.tanh_24", "inbound_nodes": [["tf.math.softplus_24", 0, 0, {"name": null}]]}, {"class_name": "TFOpLambda", "config": {"name": "tf.math.multiply_24", "trainable": true, "dtype": "float32", "function": "math.multiply"}, "name": "tf.math.multiply_24", "inbound_nodes": [["batch_normalization_24", 0, 0, {"y": ["tf.math.tanh_24", 0, 0], "name": null}]]}, {"class_name": "Conv2D", "config": {"name": "conv2d_25", "trainable": true, "dtype": "float32", "filters": 128, "kernel_size": [3, 3], "strides": [1, 1], "padding": "same", "data_format": "channels_last", "dilation_rate": [1, 1], "groups": 1, "activation": "linear", "use_bias": false, "kernel_initializer": {"class_name": "RandomNormal", "config": {"mean": 0.0, "stddev": 0.01, "seed": null}}, "bias_initializer": {"class_name": "Constant", "config": {"value": 0.0}}, "kernel_regularizer": {"class_name": "L2", "config": {"l2": 0.0005000000237487257}}, "bias_regularizer": null, "activity_regularizer": null, "kernel_constraint": null, "bias_constraint": null}, "name": "conv2d_25", "inbound_nodes": [[["tf.math.multiply_24", 0, 0, {}]]]}, {"class_name": "BatchNormalization", "config": {"name": "batch_normalization_25", "trainable": true, "dtype": "float32", "axis": [3], "momentum": 0.99, "epsilon": 0.001, "center": true, "scale": true, "beta_initializer": {"class_name": "Zeros", "config": {}}, "gamma_initializer": {"class_name": "Ones", "config": {}}, "moving_mean_initializer": {"class_name": "Zeros", "config": {}}, "moving_variance_initializer": {"class_name": "Ones", "config": {}}, "beta_regularizer": null, "gamma_regularizer": null, "beta_constraint": null, "gamma_constraint": null}, "name": "batch_normalization_25", "inbound_nodes": [[["conv2d_25", 0, 0, {}]]]}, {"class_name": "TFOpLambda", "config": {"name": "tf.math.softplus_25", "trainable": true, "dtype": "float32", "function": "math.softplus"}, "name": "tf.math.softplus_25", "inbound_nodes": [["batch_normalization_25", 0, 0, {}]]}, {"class_name": "TFOpLambda", "config": {"name": "tf.math.tanh_25", "trainable": true, "dtype": "float32", "function": "math.tanh"}, "name": "tf.math.tanh_25", "inbound_nodes": [["tf.math.softplus_25", 0, 0, {"name": null}]]}, {"class_name": "TFOpLambda", "config": {"name": "tf.math.multiply_25", "trainable": true, "dtype": "float32", "function": "math.multiply"}, "name": "tf.math.multiply_25", "inbound_nodes": [["batch_normalization_25", 0, 0, {"y": ["tf.math.tanh_25", 0, 0], "name": null}]]}, {"class_name": "TFOpLambda", "config": {"name": "tf.__operators__.add_5", "trainable": true, "dtype": "float32", "function": "__operators__.add"}, "name": "tf.__operators__.add_5", "inbound_nodes": [["tf.__operators__.add_4", 0, 0, {"y": ["tf.math.multiply_25", 0, 0], "name": null}]]}, {"class_name": "Conv2D", "config": {"name": "conv2d_26", "trainable": true, "dtype": "float32", "filters": 128, "kernel_size": [1, 1], "strides": [1, 1], "padding": "same", "data_format": "channels_last", "dilation_rate": [1, 1], "groups": 1, "activation": "linear", "use_bias": false, "kernel_initializer": {"class_name": "RandomNormal", "config": {"mean": 0.0, "stddev": 0.01, "seed": null}}, "bias_initializer": {"class_name": "Constant", "config": {"value": 0.0}}, "kernel_regularizer": {"class_name": "L2", "config": {"l2": 0.0005000000237487257}}, "bias_regularizer": null, "activity_regularizer": null, "kernel_constraint": null, "bias_constraint": null}, "name": "conv2d_26", "inbound_nodes": [[["tf.__operators__.add_5", 0, 0, {}]]]}, {"class_name": "BatchNormalization", "config": {"name": "batch_normalization_26", "trainable": true, "dtype": "float32", "axis": [3], "momentum": 0.99, "epsilon": 0.001, "center": true, "scale": true, "beta_initializer": {"class_name": "Zeros", "config": {}}, "gamma_initializer": {"class_name": "Ones", "config": {}}, "moving_mean_initializer": {"class_name": "Zeros", "config": {}}, "moving_variance_initializer": {"class_name": "Ones", "config": {}}, "beta_regularizer": null, "gamma_regularizer": null, "beta_constraint": null, "gamma_constraint": null}, "name": "batch_normalization_26", "inbound_nodes": [[["conv2d_26", 0, 0, {}]]]}, {"class_name": "TFOpLambda", "config": {"name": "tf.math.softplus_26", "trainable": true, "dtype": "float32", "function": "math.softplus"}, "name": "tf.math.softplus_26", "inbound_nodes": [["batch_normalization_26", 0, 0, {}]]}, {"class_name": "TFOpLambda", "config": {"name": "tf.math.tanh_26", "trainable": true, "dtype": "float32", "function": "math.tanh"}, "name": "tf.math.tanh_26", "inbound_nodes": [["tf.math.softplus_26", 0, 0, {"name": null}]]}, {"class_name": "TFOpLambda", "config": {"name": "tf.math.multiply_26", "trainable": true, "dtype": "float32", "function": "math.multiply"}, "name": "tf.math.multiply_26", "inbound_nodes": [["batch_normalization_26", 0, 0, {"y": ["tf.math.tanh_26", 0, 0], "name": null}]]}, {"class_name": "Conv2D", "config": {"name": "conv2d_27", "trainable": true, "dtype": "float32", "filters": 128, "kernel_size": [3, 3], "strides": [1, 1], "padding": "same", "data_format": "channels_last", "dilation_rate": [1, 1], "groups": 1, "activation": "linear", "use_bias": false, "kernel_initializer": {"class_name": "RandomNormal", "config": {"mean": 0.0, "stddev": 0.01, "seed": null}}, "bias_initializer": {"class_name": "Constant", "config": {"value": 0.0}}, "kernel_regularizer": {"class_name": "L2", "config": {"l2": 0.0005000000237487257}}, "bias_regularizer": null, "activity_regularizer": null, "kernel_constraint": null, "bias_constraint": null}, "name": "conv2d_27", "inbound_nodes": [[["tf.math.multiply_26", 0, 0, {}]]]}, {"class_name": "BatchNormalization", "config": {"name": "batch_normalization_27", "trainable": true, "dtype": "float32", "axis": [3], "momentum": 0.99, "epsilon": 0.001, "center": true, "scale": true, "beta_initializer": {"class_name": "Zeros", "config": {}}, "gamma_initializer": {"class_name": "Ones", "config": {}}, "moving_mean_initializer": {"class_name": "Zeros", "config": {}}, "moving_variance_initializer": {"class_name": "Ones", "config": {}}, "beta_regularizer": null, "gamma_regularizer": null, "beta_constraint": null, "gamma_constraint": null}, "name": "batch_normalization_27", "inbound_nodes": [[["conv2d_27", 0, 0, {}]]]}, {"class_name": "TFOpLambda", "config": {"name": "tf.math.softplus_27", "trainable": true, "dtype": "float32", "function": "math.softplus"}, "name": "tf.math.softplus_27", "inbound_nodes": [["batch_normalization_27", 0, 0, {}]]}, {"class_name": "TFOpLambda", "config": {"name": "tf.math.tanh_27", "trainable": true, "dtype": "float32", "function": "math.tanh"}, "name": "tf.math.tanh_27", "inbound_nodes": [["tf.math.softplus_27", 0, 0, {"name": null}]]}, {"class_name": "TFOpLambda", "config": {"name": "tf.math.multiply_27", "trainable": true, "dtype": "float32", "function": "math.multiply"}, "name": "tf.math.multiply_27", "inbound_nodes": [["batch_normalization_27", 0, 0, {"y": ["tf.math.tanh_27", 0, 0], "name": null}]]}, {"class_name": "TFOpLambda", "config": {"name": "tf.__operators__.add_6", "trainable": true, "dtype": "float32", "function": "__operators__.add"}, "name": "tf.__operators__.add_6", "inbound_nodes": [["tf.__operators__.add_5", 0, 0, {"y": ["tf.math.multiply_27", 0, 0], "name": null}]]}, {"class_name": "Conv2D", "config": {"name": "conv2d_28", "trainable": true, "dtype": "float32", "filters": 128, "kernel_size": [1, 1], "strides": [1, 1], "padding": "same", "data_format": "channels_last", "dilation_rate": [1, 1], "groups": 1, "activation": "linear", "use_bias": false, "kernel_initializer": {"class_name": "RandomNormal", "config": {"mean": 0.0, "stddev": 0.01, "seed": null}}, "bias_initializer": {"class_name": "Constant", "config": {"value": 0.0}}, "kernel_regularizer": {"class_name": "L2", "config": {"l2": 0.0005000000237487257}}, "bias_regularizer": null, "activity_regularizer": null, "kernel_constraint": null, "bias_constraint": null}, "name": "conv2d_28", "inbound_nodes": [[["tf.__operators__.add_6", 0, 0, {}]]]}, {"class_name": "BatchNormalization", "config": {"name": "batch_normalization_28", "trainable": true, "dtype": "float32", "axis": [3], "momentum": 0.99, "epsilon": 0.001, "center": true, "scale": true, "beta_initializer": {"class_name": "Zeros", "config": {}}, "gamma_initializer": {"class_name": "Ones", "config": {}}, "moving_mean_initializer": {"class_name": "Zeros", "config": {}}, "moving_variance_initializer": {"class_name": "Ones", "config": {}}, "beta_regularizer": null, "gamma_regularizer": null, "beta_constraint": null, "gamma_constraint": null}, "name": "batch_normalization_28", "inbound_nodes": [[["conv2d_28", 0, 0, {}]]]}, {"class_name": "TFOpLambda", "config": {"name": "tf.math.softplus_28", "trainable": true, "dtype": "float32", "function": "math.softplus"}, "name": "tf.math.softplus_28", "inbound_nodes": [["batch_normalization_28", 0, 0, {}]]}, {"class_name": "TFOpLambda", "config": {"name": "tf.math.tanh_28", "trainable": true, "dtype": "float32", "function": "math.tanh"}, "name": "tf.math.tanh_28", "inbound_nodes": [["tf.math.softplus_28", 0, 0, {"name": null}]]}, {"class_name": "TFOpLambda", "config": {"name": "tf.math.multiply_28", "trainable": true, "dtype": "float32", "function": "math.multiply"}, "name": "tf.math.multiply_28", "inbound_nodes": [["batch_normalization_28", 0, 0, {"y": ["tf.math.tanh_28", 0, 0], "name": null}]]}, {"class_name": "Conv2D", "config": {"name": "conv2d_29", "trainable": true, "dtype": "float32", "filters": 128, "kernel_size": [3, 3], "strides": [1, 1], "padding": "same", "data_format": "channels_last", "dilation_rate": [1, 1], "groups": 1, "activation": "linear", "use_bias": false, "kernel_initializer": {"class_name": "RandomNormal", "config": {"mean": 0.0, "stddev": 0.01, "seed": null}}, "bias_initializer": {"class_name": "Constant", "config": {"value": 0.0}}, "kernel_regularizer": {"class_name": "L2", "config": {"l2": 0.0005000000237487257}}, "bias_regularizer": null, "activity_regularizer": null, "kernel_constraint": null, "bias_constraint": null}, "name": "conv2d_29", "inbound_nodes": [[["tf.math.multiply_28", 0, 0, {}]]]}, {"class_name": "BatchNormalization", "config": {"name": "batch_normalization_29", "trainable": true, "dtype": "float32", "axis": [3], "momentum": 0.99, "epsilon": 0.001, "center": true, "scale": true, "beta_initializer": {"class_name": "Zeros", "config": {}}, "gamma_initializer": {"class_name": "Ones", "config": {}}, "moving_mean_initializer": {"class_name": "Zeros", "config": {}}, "moving_variance_initializer": {"class_name": "Ones", "config": {}}, "beta_regularizer": null, "gamma_regularizer": null, "beta_constraint": null, "gamma_constraint": null}, "name": "batch_normalization_29", "inbound_nodes": [[["conv2d_29", 0, 0, {}]]]}, {"class_name": "TFOpLambda", "config": {"name": "tf.math.softplus_29", "trainable": true, "dtype": "float32", "function": "math.softplus"}, "name": "tf.math.softplus_29", "inbound_nodes": [["batch_normalization_29", 0, 0, {}]]}, {"class_name": "TFOpLambda", "config": {"name": "tf.math.tanh_29", "trainable": true, "dtype": "float32", "function": "math.tanh"}, "name": "tf.math.tanh_29", "inbound_nodes": [["tf.math.softplus_29", 0, 0, {"name": null}]]}, {"class_name": "TFOpLambda", "config": {"name": "tf.math.multiply_29", "trainable": true, "dtype": "float32", "function": "math.multiply"}, "name": "tf.math.multiply_29", "inbound_nodes": [["batch_normalization_29", 0, 0, {"y": ["tf.math.tanh_29", 0, 0], "name": null}]]}, {"class_name": "TFOpLambda", "config": {"name": "tf.__operators__.add_7", "trainable": true, "dtype": "float32", "function": "__operators__.add"}, "name": "tf.__operators__.add_7", "inbound_nodes": [["tf.__operators__.add_6", 0, 0, {"y": ["tf.math.multiply_29", 0, 0], "name": null}]]}, {"class_name": "Conv2D", "config": {"name": "conv2d_30", "trainable": true, "dtype": "float32", "filters": 128, "kernel_size": [1, 1], "strides": [1, 1], "padding": "same", "data_format": "channels_last", "dilation_rate": [1, 1], "groups": 1, "activation": "linear", "use_bias": false, "kernel_initializer": {"class_name": "RandomNormal", "config": {"mean": 0.0, "stddev": 0.01, "seed": null}}, "bias_initializer": {"class_name": "Constant", "config": {"value": 0.0}}, "kernel_regularizer": {"class_name": "L2", "config": {"l2": 0.0005000000237487257}}, "bias_regularizer": null, "activity_regularizer": null, "kernel_constraint": null, "bias_constraint": null}, "name": "conv2d_30", "inbound_nodes": [[["tf.__operators__.add_7", 0, 0, {}]]]}, {"class_name": "BatchNormalization", "config": {"name": "batch_normalization_30", "trainable": true, "dtype": "float32", "axis": [3], "momentum": 0.99, "epsilon": 0.001, "center": true, "scale": true, "beta_initializer": {"class_name": "Zeros", "config": {}}, "gamma_initializer": {"class_name": "Ones", "config": {}}, "moving_mean_initializer": {"class_name": "Zeros", "config": {}}, "moving_variance_initializer": {"class_name": "Ones", "config": {}}, "beta_regularizer": null, "gamma_regularizer": null, "beta_constraint": null, "gamma_constraint": null}, "name": "batch_normalization_30", "inbound_nodes": [[["conv2d_30", 0, 0, {}]]]}, {"class_name": "TFOpLambda", "config": {"name": "tf.math.softplus_30", "trainable": true, "dtype": "float32", "function": "math.softplus"}, "name": "tf.math.softplus_30", "inbound_nodes": [["batch_normalization_30", 0, 0, {}]]}, {"class_name": "TFOpLambda", "config": {"name": "tf.math.tanh_30", "trainable": true, "dtype": "float32", "function": "math.tanh"}, "name": "tf.math.tanh_30", "inbound_nodes": [["tf.math.softplus_30", 0, 0, {"name": null}]]}, {"class_name": "TFOpLambda", "config": {"name": "tf.math.multiply_30", "trainable": true, "dtype": "float32", "function": "math.multiply"}, "name": "tf.math.multiply_30", "inbound_nodes": [["batch_normalization_30", 0, 0, {"y": ["tf.math.tanh_30", 0, 0], "name": null}]]}, {"class_name": "Conv2D", "config": {"name": "conv2d_31", "trainable": true, "dtype": "float32", "filters": 128, "kernel_size": [3, 3], "strides": [1, 1], "padding": "same", "data_format": "channels_last", "dilation_rate": [1, 1], "groups": 1, "activation": "linear", "use_bias": false, "kernel_initializer": {"class_name": "RandomNormal", "config": {"mean": 0.0, "stddev": 0.01, "seed": null}}, "bias_initializer": {"class_name": "Constant", "config": {"value": 0.0}}, "kernel_regularizer": {"class_name": "L2", "config": {"l2": 0.0005000000237487257}}, "bias_regularizer": null, "activity_regularizer": null, "kernel_constraint": null, "bias_constraint": null}, "name": "conv2d_31", "inbound_nodes": [[["tf.math.multiply_30", 0, 0, {}]]]}, {"class_name": "BatchNormalization", "config": {"name": "batch_normalization_31", "trainable": true, "dtype": "float32", "axis": [3], "momentum": 0.99, "epsilon": 0.001, "center": true, "scale": true, "beta_initializer": {"class_name": "Zeros", "config": {}}, "gamma_initializer": {"class_name": "Ones", "config": {}}, "moving_mean_initializer": {"class_name": "Zeros", "config": {}}, "moving_variance_initializer": {"class_name": "Ones", "config": {}}, "beta_regularizer": null, "gamma_regularizer": null, "beta_constraint": null, "gamma_constraint": null}, "name": "batch_normalization_31", "inbound_nodes": [[["conv2d_31", 0, 0, {}]]]}, {"class_name": "TFOpLambda", "config": {"name": "tf.math.softplus_31", "trainable": true, "dtype": "float32", "function": "math.softplus"}, "name": "tf.math.softplus_31", "inbound_nodes": [["batch_normalization_31", 0, 0, {}]]}, {"class_name": "TFOpLambda", "config": {"name": "tf.math.tanh_31", "trainable": true, "dtype": "float32", "function": "math.tanh"}, "name": "tf.math.tanh_31", "inbound_nodes": [["tf.math.softplus_31", 0, 0, {"name": null}]]}, {"class_name": "TFOpLambda", "config": {"name": "tf.math.multiply_31", "trainable": true, "dtype": "float32", "function": "math.multiply"}, "name": "tf.math.multiply_31", "inbound_nodes": [["batch_normalization_31", 0, 0, {"y": ["tf.math.tanh_31", 0, 0], "name": null}]]}, {"class_name": "TFOpLambda", "config": {"name": "tf.__operators__.add_8", "trainable": true, "dtype": "float32", "function": "__operators__.add"}, "name": "tf.__operators__.add_8", "inbound_nodes": [["tf.__operators__.add_7", 0, 0, {"y": ["tf.math.multiply_31", 0, 0], "name": null}]]}, {"class_name": "Conv2D", "config": {"name": "conv2d_32", "trainable": true, "dtype": "float32", "filters": 128, "kernel_size": [1, 1], "strides": [1, 1], "padding": "same", "data_format": "channels_last", "dilation_rate": [1, 1], "groups": 1, "activation": "linear", "use_bias": false, "kernel_initializer": {"class_name": "RandomNormal", "config": {"mean": 0.0, "stddev": 0.01, "seed": null}}, "bias_initializer": {"class_name": "Constant", "config": {"value": 0.0}}, "kernel_regularizer": {"class_name": "L2", "config": {"l2": 0.0005000000237487257}}, "bias_regularizer": null, "activity_regularizer": null, "kernel_constraint": null, "bias_constraint": null}, "name": "conv2d_32", "inbound_nodes": [[["tf.__operators__.add_8", 0, 0, {}]]]}, {"class_name": "BatchNormalization", "config": {"name": "batch_normalization_32", "trainable": true, "dtype": "float32", "axis": [3], "momentum": 0.99, "epsilon": 0.001, "center": true, "scale": true, "beta_initializer": {"class_name": "Zeros", "config": {}}, "gamma_initializer": {"class_name": "Ones", "config": {}}, "moving_mean_initializer": {"class_name": "Zeros", "config": {}}, "moving_variance_initializer": {"class_name": "Ones", "config": {}}, "beta_regularizer": null, "gamma_regularizer": null, "beta_constraint": null, "gamma_constraint": null}, "name": "batch_normalization_32", "inbound_nodes": [[["conv2d_32", 0, 0, {}]]]}, {"class_name": "TFOpLambda", "config": {"name": "tf.math.softplus_32", "trainable": true, "dtype": "float32", "function": "math.softplus"}, "name": "tf.math.softplus_32", "inbound_nodes": [["batch_normalization_32", 0, 0, {}]]}, {"class_name": "TFOpLambda", "config": {"name": "tf.math.tanh_32", "trainable": true, "dtype": "float32", "function": "math.tanh"}, "name": "tf.math.tanh_32", "inbound_nodes": [["tf.math.softplus_32", 0, 0, {"name": null}]]}, {"class_name": "TFOpLambda", "config": {"name": "tf.math.multiply_32", "trainable": true, "dtype": "float32", "function": "math.multiply"}, "name": "tf.math.multiply_32", "inbound_nodes": [["batch_normalization_32", 0, 0, {"y": ["tf.math.tanh_32", 0, 0], "name": null}]]}, {"class_name": "Conv2D", "config": {"name": "conv2d_33", "trainable": true, "dtype": "float32", "filters": 128, "kernel_size": [3, 3], "strides": [1, 1], "padding": "same", "data_format": "channels_last", "dilation_rate": [1, 1], "groups": 1, "activation": "linear", "use_bias": false, "kernel_initializer": {"class_name": "RandomNormal", "config": {"mean": 0.0, "stddev": 0.01, "seed": null}}, "bias_initializer": {"class_name": "Constant", "config": {"value": 0.0}}, "kernel_regularizer": {"class_name": "L2", "config": {"l2": 0.0005000000237487257}}, "bias_regularizer": null, "activity_regularizer": null, "kernel_constraint": null, "bias_constraint": null}, "name": "conv2d_33", "inbound_nodes": [[["tf.math.multiply_32", 0, 0, {}]]]}, {"class_name": "BatchNormalization", "config": {"name": "batch_normalization_33", "trainable": true, "dtype": "float32", "axis": [3], "momentum": 0.99, "epsilon": 0.001, "center": true, "scale": true, "beta_initializer": {"class_name": "Zeros", "config": {}}, "gamma_initializer": {"class_name": "Ones", "config": {}}, "moving_mean_initializer": {"class_name": "Zeros", "config": {}}, "moving_variance_initializer": {"class_name": "Ones", "config": {}}, "beta_regularizer": null, "gamma_regularizer": null, "beta_constraint": null, "gamma_constraint": null}, "name": "batch_normalization_33", "inbound_nodes": [[["conv2d_33", 0, 0, {}]]]}, {"class_name": "TFOpLambda", "config": {"name": "tf.math.softplus_33", "trainable": true, "dtype": "float32", "function": "math.softplus"}, "name": "tf.math.softplus_33", "inbound_nodes": [["batch_normalization_33", 0, 0, {}]]}, {"class_name": "TFOpLambda", "config": {"name": "tf.math.tanh_33", "trainable": true, "dtype": "float32", "function": "math.tanh"}, "name": "tf.math.tanh_33", "inbound_nodes": [["tf.math.softplus_33", 0, 0, {"name": null}]]}, {"class_name": "TFOpLambda", "config": {"name": "tf.math.multiply_33", "trainable": true, "dtype": "float32", "function": "math.multiply"}, "name": "tf.math.multiply_33", "inbound_nodes": [["batch_normalization_33", 0, 0, {"y": ["tf.math.tanh_33", 0, 0], "name": null}]]}, {"class_name": "TFOpLambda", "config": {"name": "tf.__operators__.add_9", "trainable": true, "dtype": "float32", "function": "__operators__.add"}, "name": "tf.__operators__.add_9", "inbound_nodes": [["tf.__operators__.add_8", 0, 0, {"y": ["tf.math.multiply_33", 0, 0], "name": null}]]}, {"class_name": "Conv2D", "config": {"name": "conv2d_34", "trainable": true, "dtype": "float32", "filters": 128, "kernel_size": [1, 1], "strides": [1, 1], "padding": "same", "data_format": "channels_last", "dilation_rate": [1, 1], "groups": 1, "activation": "linear", "use_bias": false, "kernel_initializer": {"class_name": "RandomNormal", "config": {"mean": 0.0, "stddev": 0.01, "seed": null}}, "bias_initializer": {"class_name": "Constant", "config": {"value": 0.0}}, "kernel_regularizer": {"class_name": "L2", "config": {"l2": 0.0005000000237487257}}, "bias_regularizer": null, "activity_regularizer": null, "kernel_constraint": null, "bias_constraint": null}, "name": "conv2d_34", "inbound_nodes": [[["tf.__operators__.add_9", 0, 0, {}]]]}, {"class_name": "BatchNormalization", "config": {"name": "batch_normalization_34", "trainable": true, "dtype": "float32", "axis": [3], "momentum": 0.99, "epsilon": 0.001, "center": true, "scale": true, "beta_initializer": {"class_name": "Zeros", "config": {}}, "gamma_initializer": {"class_name": "Ones", "config": {}}, "moving_mean_initializer": {"class_name": "Zeros", "config": {}}, "moving_variance_initializer": {"class_name": "Ones", "config": {}}, "beta_regularizer": null, "gamma_regularizer": null, "beta_constraint": null, "gamma_constraint": null}, "name": "batch_normalization_34", "inbound_nodes": [[["conv2d_34", 0, 0, {}]]]}, {"class_name": "TFOpLambda", "config": {"name": "tf.math.softplus_34", "trainable": true, "dtype": "float32", "function": "math.softplus"}, "name": "tf.math.softplus_34", "inbound_nodes": [["batch_normalization_34", 0, 0, {}]]}, {"class_name": "TFOpLambda", "config": {"name": "tf.math.tanh_34", "trainable": true, "dtype": "float32", "function": "math.tanh"}, "name": "tf.math.tanh_34", "inbound_nodes": [["tf.math.softplus_34", 0, 0, {"name": null}]]}, {"class_name": "TFOpLambda", "config": {"name": "tf.math.multiply_34", "trainable": true, "dtype": "float32", "function": "math.multiply"}, "name": "tf.math.multiply_34", "inbound_nodes": [["batch_normalization_34", 0, 0, {"y": ["tf.math.tanh_34", 0, 0], "name": null}]]}, {"class_name": "Conv2D", "config": {"name": "conv2d_35", "trainable": true, "dtype": "float32", "filters": 128, "kernel_size": [3, 3], "strides": [1, 1], "padding": "same", "data_format": "channels_last", "dilation_rate": [1, 1], "groups": 1, "activation": "linear", "use_bias": false, "kernel_initializer": {"class_name": "RandomNormal", "config": {"mean": 0.0, "stddev": 0.01, "seed": null}}, "bias_initializer": {"class_name": "Constant", "config": {"value": 0.0}}, "kernel_regularizer": {"class_name": "L2", "config": {"l2": 0.0005000000237487257}}, "bias_regularizer": null, "activity_regularizer": null, "kernel_constraint": null, "bias_constraint": null}, "name": "conv2d_35", "inbound_nodes": [[["tf.math.multiply_34", 0, 0, {}]]]}, {"class_name": "BatchNormalization", "config": {"name": "batch_normalization_35", "trainable": true, "dtype": "float32", "axis": [3], "momentum": 0.99, "epsilon": 0.001, "center": true, "scale": true, "beta_initializer": {"class_name": "Zeros", "config": {}}, "gamma_initializer": {"class_name": "Ones", "config": {}}, "moving_mean_initializer": {"class_name": "Zeros", "config": {}}, "moving_variance_initializer": {"class_name": "Ones", "config": {}}, "beta_regularizer": null, "gamma_regularizer": null, "beta_constraint": null, "gamma_constraint": null}, "name": "batch_normalization_35", "inbound_nodes": [[["conv2d_35", 0, 0, {}]]]}, {"class_name": "TFOpLambda", "config": {"name": "tf.math.softplus_35", "trainable": true, "dtype": "float32", "function": "math.softplus"}, "name": "tf.math.softplus_35", "inbound_nodes": [["batch_normalization_35", 0, 0, {}]]}, {"class_name": "TFOpLambda", "config": {"name": "tf.math.tanh_35", "trainable": true, "dtype": "float32", "function": "math.tanh"}, "name": "tf.math.tanh_35", "inbound_nodes": [["tf.math.softplus_35", 0, 0, {"name": null}]]}, {"class_name": "TFOpLambda", "config": {"name": "tf.math.multiply_35", "trainable": true, "dtype": "float32", "function": "math.multiply"}, "name": "tf.math.multiply_35", "inbound_nodes": [["batch_normalization_35", 0, 0, {"y": ["tf.math.tanh_35", 0, 0], "name": null}]]}, {"class_name": "TFOpLambda", "config": {"name": "tf.__operators__.add_10", "trainable": true, "dtype": "float32", "function": "__operators__.add"}, "name": "tf.__operators__.add_10", "inbound_nodes": [["tf.__operators__.add_9", 0, 0, {"y": ["tf.math.multiply_35", 0, 0], "name": null}]]}, {"class_name": "Conv2D", "config": {"name": "conv2d_36", "trainable": true, "dtype": "float32", "filters": 128, "kernel_size": [1, 1], "strides": [1, 1], "padding": "same", "data_format": "channels_last", "dilation_rate": [1, 1], "groups": 1, "activation": "linear", "use_bias": false, "kernel_initializer": {"class_name": "RandomNormal", "config": {"mean": 0.0, "stddev": 0.01, "seed": null}}, "bias_initializer": {"class_name": "Constant", "config": {"value": 0.0}}, "kernel_regularizer": {"class_name": "L2", "config": {"l2": 0.0005000000237487257}}, "bias_regularizer": null, "activity_regularizer": null, "kernel_constraint": null, "bias_constraint": null}, "name": "conv2d_36", "inbound_nodes": [[["tf.__operators__.add_10", 0, 0, {}]]]}, {"class_name": "Conv2D", "config": {"name": "conv2d_18", "trainable": true, "dtype": "float32", "filters": 128, "kernel_size": [1, 1], "strides": [1, 1], "padding": "same", "data_format": "channels_last", "dilation_rate": [1, 1], "groups": 1, "activation": "linear", "use_bias": false, "kernel_initializer": {"class_name": "RandomNormal", "config": {"mean": 0.0, "stddev": 0.01, "seed": null}}, "bias_initializer": {"class_name": "Constant", "config": {"value": 0.0}}, "kernel_regularizer": {"class_name": "L2", "config": {"l2": 0.0005000000237487257}}, "bias_regularizer": null, "activity_regularizer": null, "kernel_constraint": null, "bias_constraint": null}, "name": "conv2d_18", "inbound_nodes": [[["tf.math.multiply_17", 0, 0, {}]]]}, {"class_name": "BatchNormalization", "config": {"name": "batch_normalization_36", "trainable": true, "dtype": "float32", "axis": [3], "momentum": 0.99, "epsilon": 0.001, "center": true, "scale": true, "beta_initializer": {"class_name": "Zeros", "config": {}}, "gamma_initializer": {"class_name": "Ones", "config": {}}, "moving_mean_initializer": {"class_name": "Zeros", "config": {}}, "moving_variance_initializer": {"class_name": "Ones", "config": {}}, "beta_regularizer": null, "gamma_regularizer": null, "beta_constraint": null, "gamma_constraint": null}, "name": "batch_normalization_36", "inbound_nodes": [[["conv2d_36", 0, 0, {}]]]}, {"class_name": "BatchNormalization", "config": {"name": "batch_normalization_18", "trainable": true, "dtype": "float32", "axis": [3], "momentum": 0.99, "epsilon": 0.001, "center": true, "scale": true, "beta_initializer": {"class_name": "Zeros", "config": {}}, "gamma_initializer": {"class_name": "Ones", "config": {}}, "moving_mean_initializer": {"class_name": "Zeros", "config": {}}, "moving_variance_initializer": {"class_name": "Ones", "config": {}}, "beta_regularizer": null, "gamma_regularizer": null, "beta_constraint": null, "gamma_constraint": null}, "name": "batch_normalization_18", "inbound_nodes": [[["conv2d_18", 0, 0, {}]]]}, {"class_name": "TFOpLambda", "config": {"name": "tf.math.softplus_36", "trainable": true, "dtype": "float32", "function": "math.softplus"}, "name": "tf.math.softplus_36", "inbound_nodes": [["batch_normalization_36", 0, 0, {}]]}, {"class_name": "TFOpLambda", "config": {"name": "tf.math.softplus_18", "trainable": true, "dtype": "float32", "function": "math.softplus"}, "name": "tf.math.softplus_18", "inbound_nodes": [["batch_normalization_18", 0, 0, {}]]}, {"class_name": "TFOpLambda", "config": {"name": "tf.math.tanh_36", "trainable": true, "dtype": "float32", "function": "math.tanh"}, "name": "tf.math.tanh_36", "inbound_nodes": [["tf.math.softplus_36", 0, 0, {"name": null}]]}, {"class_name": "TFOpLambda", "config": {"name": "tf.math.tanh_18", "trainable": true, "dtype": "float32", "function": "math.tanh"}, "name": "tf.math.tanh_18", "inbound_nodes": [["tf.math.softplus_18", 0, 0, {"name": null}]]}, {"class_name": "TFOpLambda", "config": {"name": "tf.math.multiply_36", "trainable": true, "dtype": "float32", "function": "math.multiply"}, "name": "tf.math.multiply_36", "inbound_nodes": [["batch_normalization_36", 0, 0, {"y": ["tf.math.tanh_36", 0, 0], "name": null}]]}, {"class_name": "TFOpLambda", "config": {"name": "tf.math.multiply_18", "trainable": true, "dtype": "float32", "function": "math.multiply"}, "name": "tf.math.multiply_18", "inbound_nodes": [["batch_normalization_18", 0, 0, {"y": ["tf.math.tanh_18", 0, 0], "name": null}]]}, {"class_name": "TFOpLambda", "config": {"name": "tf.concat_2", "trainable": true, "dtype": "float32", "function": "concat"}, "name": "tf.concat_2", "inbound_nodes": [[["tf.math.multiply_36", 0, 0, {"axis": -1}], ["tf.math.multiply_18", 0, 0, {"axis": -1}]]]}, {"class_name": "Conv2D", "config": {"name": "conv2d_37", "trainable": true, "dtype": "float32", "filters": 256, "kernel_size": [1, 1], "strides": [1, 1], "padding": "same", "data_format": "channels_last", "dilation_rate": [1, 1], "groups": 1, "activation": "linear", "use_bias": false, "kernel_initializer": {"class_name": "RandomNormal", "config": {"mean": 0.0, "stddev": 0.01, "seed": null}}, "bias_initializer": {"class_name": "Constant", "config": {"value": 0.0}}, "kernel_regularizer": {"class_name": "L2", "config": {"l2": 0.0005000000237487257}}, "bias_regularizer": null, "activity_regularizer": null, "kernel_constraint": null, "bias_constraint": null}, "name": "conv2d_37", "inbound_nodes": [[["tf.concat_2", 0, 0, {}]]]}, {"class_name": "BatchNormalization", "config": {"name": "batch_normalization_37", "trainable": true, "dtype": "float32", "axis": [3], "momentum": 0.99, "epsilon": 0.001, "center": true, "scale": true, "beta_initializer": {"class_name": "Zeros", "config": {}}, "gamma_initializer": {"class_name": "Ones", "config": {}}, "moving_mean_initializer": {"class_name": "Zeros", "config": {}}, "moving_variance_initializer": {"class_name": "Ones", "config": {}}, "beta_regularizer": null, "gamma_regularizer": null, "beta_constraint": null, "gamma_constraint": null}, "name": "batch_normalization_37", "inbound_nodes": [[["conv2d_37", 0, 0, {}]]]}, {"class_name": "TFOpLambda", "config": {"name": "tf.math.softplus_37", "trainable": true, "dtype": "float32", "function": "math.softplus"}, "name": "tf.math.softplus_37", "inbound_nodes": [["batch_normalization_37", 0, 0, {}]]}, {"class_name": "TFOpLambda", "config": {"name": "tf.math.tanh_37", "trainable": true, "dtype": "float32", "function": "math.tanh"}, "name": "tf.math.tanh_37", "inbound_nodes": [["tf.math.softplus_37", 0, 0, {"name": null}]]}, {"class_name": "TFOpLambda", "config": {"name": "tf.math.multiply_37", "trainable": true, "dtype": "float32", "function": "math.multiply"}, "name": "tf.math.multiply_37", "inbound_nodes": [["batch_normalization_37", 0, 0, {"y": ["tf.math.tanh_37", 0, 0], "name": null}]]}, {"class_name": "ZeroPadding2D", "config": {"name": "zero_padding2d_3", "trainable": true, "dtype": "float32", "padding": [[1, 0], [1, 0]], "data_format": "channels_last"}, "name": "zero_padding2d_3", "inbound_nodes": [[["tf.math.multiply_37", 0, 0, {}]]]}, {"class_name": "Conv2D", "config": {"name": "conv2d_38", "trainable": true, "dtype": "float32", "filters": 512, "kernel_size": [3, 3], "strides": [2, 2], "padding": "valid", "data_format": "channels_last", "dilation_rate": [1, 1], "groups": 1, "activation": "linear", "use_bias": false, "kernel_initializer": {"class_name": "RandomNormal", "config": {"mean": 0.0, "stddev": 0.01, "seed": null}}, "bias_initializer": {"class_name": "Constant", "config": {"value": 0.0}}, "kernel_regularizer": {"class_name": "L2", "config": {"l2": 0.0005000000237487257}}, "bias_regularizer": null, "activity_regularizer": null, "kernel_constraint": null, "bias_constraint": null}, "name": "conv2d_38", "inbound_nodes": [[["zero_padding2d_3", 0, 0, {}]]]}, {"class_name": "BatchNormalization", "config": {"name": "batch_normalization_38", "trainable": true, "dtype": "float32", "axis": [3], "momentum": 0.99, "epsilon": 0.001, "center": true, "scale": true, "beta_initializer": {"class_name": "Zeros", "config": {}}, "gamma_initializer": {"class_name": "Ones", "config": {}}, "moving_mean_initializer": {"class_name": "Zeros", "config": {}}, "moving_variance_initializer": {"class_name": "Ones", "config": {}}, "beta_regularizer": null, "gamma_regularizer": null, "beta_constraint": null, "gamma_constraint": null}, "name": "batch_normalization_38", "inbound_nodes": [[["conv2d_38", 0, 0, {}]]]}, {"class_name": "TFOpLambda", "config": {"name": "tf.math.softplus_38", "trainable": true, "dtype": "float32", "function": "math.softplus"}, "name": "tf.math.softplus_38", "inbound_nodes": [["batch_normalization_38", 0, 0, {}]]}, {"class_name": "TFOpLambda", "config": {"name": "tf.math.tanh_38", "trainable": true, "dtype": "float32", "function": "math.tanh"}, "name": "tf.math.tanh_38", "inbound_nodes": [["tf.math.softplus_38", 0, 0, {"name": null}]]}, {"class_name": "TFOpLambda", "config": {"name": "tf.math.multiply_38", "trainable": true, "dtype": "float32", "function": "math.multiply"}, "name": "tf.math.multiply_38", "inbound_nodes": [["batch_normalization_38", 0, 0, {"y": ["tf.math.tanh_38", 0, 0], "name": null}]]}, {"class_name": "Conv2D", "config": {"name": "conv2d_40", "trainable": true, "dtype": "float32", "filters": 256, "kernel_size": [1, 1], "strides": [1, 1], "padding": "same", "data_format": "channels_last", "dilation_rate": [1, 1], "groups": 1, "activation": "linear", "use_bias": false, "kernel_initializer": {"class_name": "RandomNormal", "config": {"mean": 0.0, "stddev": 0.01, "seed": null}}, "bias_initializer": {"class_name": "Constant", "config": {"value": 0.0}}, "kernel_regularizer": {"class_name": "L2", "config": {"l2": 0.0005000000237487257}}, "bias_regularizer": null, "activity_regularizer": null, "kernel_constraint": null, "bias_constraint": null}, "name": "conv2d_40", "inbound_nodes": [[["tf.math.multiply_38", 0, 0, {}]]]}, {"class_name": "BatchNormalization", "config": {"name": "batch_normalization_40", "trainable": true, "dtype": "float32", "axis": [3], "momentum": 0.99, "epsilon": 0.001, "center": true, "scale": true, "beta_initializer": {"class_name": "Zeros", "config": {}}, "gamma_initializer": {"class_name": "Ones", "config": {}}, "moving_mean_initializer": {"class_name": "Zeros", "config": {}}, "moving_variance_initializer": {"class_name": "Ones", "config": {}}, "beta_regularizer": null, "gamma_regularizer": null, "beta_constraint": null, "gamma_constraint": null}, "name": "batch_normalization_40", "inbound_nodes": [[["conv2d_40", 0, 0, {}]]]}, {"class_name": "TFOpLambda", "config": {"name": "tf.math.softplus_40", "trainable": true, "dtype": "float32", "function": "math.softplus"}, "name": "tf.math.softplus_40", "inbound_nodes": [["batch_normalization_40", 0, 0, {}]]}, {"class_name": "TFOpLambda", "config": {"name": "tf.math.tanh_40", "trainable": true, "dtype": "float32", "function": "math.tanh"}, "name": "tf.math.tanh_40", "inbound_nodes": [["tf.math.softplus_40", 0, 0, {"name": null}]]}, {"class_name": "TFOpLambda", "config": {"name": "tf.math.multiply_40", "trainable": true, "dtype": "float32", "function": "math.multiply"}, "name": "tf.math.multiply_40", "inbound_nodes": [["batch_normalization_40", 0, 0, {"y": ["tf.math.tanh_40", 0, 0], "name": null}]]}, {"class_name": "Conv2D", "config": {"name": "conv2d_41", "trainable": true, "dtype": "float32", "filters": 256, "kernel_size": [1, 1], "strides": [1, 1], "padding": "same", "data_format": "channels_last", "dilation_rate": [1, 1], "groups": 1, "activation": "linear", "use_bias": false, "kernel_initializer": {"class_name": "RandomNormal", "config": {"mean": 0.0, "stddev": 0.01, "seed": null}}, "bias_initializer": {"class_name": "Constant", "config": {"value": 0.0}}, "kernel_regularizer": {"class_name": "L2", "config": {"l2": 0.0005000000237487257}}, "bias_regularizer": null, "activity_regularizer": null, "kernel_constraint": null, "bias_constraint": null}, "name": "conv2d_41", "inbound_nodes": [[["tf.math.multiply_40", 0, 0, {}]]]}, {"class_name": "BatchNormalization", "config": {"name": "batch_normalization_41", "trainable": true, "dtype": "float32", "axis": [3], "momentum": 0.99, "epsilon": 0.001, "center": true, "scale": true, "beta_initializer": {"class_name": "Zeros", "config": {}}, "gamma_initializer": {"class_name": "Ones", "config": {}}, "moving_mean_initializer": {"class_name": "Zeros", "config": {}}, "moving_variance_initializer": {"class_name": "Ones", "config": {}}, "beta_regularizer": null, "gamma_regularizer": null, "beta_constraint": null, "gamma_constraint": null}, "name": "batch_normalization_41", "inbound_nodes": [[["conv2d_41", 0, 0, {}]]]}, {"class_name": "TFOpLambda", "config": {"name": "tf.math.softplus_41", "trainable": true, "dtype": "float32", "function": "math.softplus"}, "name": "tf.math.softplus_41", "inbound_nodes": [["batch_normalization_41", 0, 0, {}]]}, {"class_name": "TFOpLambda", "config": {"name": "tf.math.tanh_41", "trainable": true, "dtype": "float32", "function": "math.tanh"}, "name": "tf.math.tanh_41", "inbound_nodes": [["tf.math.softplus_41", 0, 0, {"name": null}]]}, {"class_name": "TFOpLambda", "config": {"name": "tf.math.multiply_41", "trainable": true, "dtype": "float32", "function": "math.multiply"}, "name": "tf.math.multiply_41", "inbound_nodes": [["batch_normalization_41", 0, 0, {"y": ["tf.math.tanh_41", 0, 0], "name": null}]]}, {"class_name": "Conv2D", "config": {"name": "conv2d_42", "trainable": true, "dtype": "float32", "filters": 256, "kernel_size": [3, 3], "strides": [1, 1], "padding": "same", "data_format": "channels_last", "dilation_rate": [1, 1], "groups": 1, "activation": "linear", "use_bias": false, "kernel_initializer": {"class_name": "RandomNormal", "config": {"mean": 0.0, "stddev": 0.01, "seed": null}}, "bias_initializer": {"class_name": "Constant", "config": {"value": 0.0}}, "kernel_regularizer": {"class_name": "L2", "config": {"l2": 0.0005000000237487257}}, "bias_regularizer": null, "activity_regularizer": null, "kernel_constraint": null, "bias_constraint": null}, "name": "conv2d_42", "inbound_nodes": [[["tf.math.multiply_41", 0, 0, {}]]]}, {"class_name": "BatchNormalization", "config": {"name": "batch_normalization_42", "trainable": true, "dtype": "float32", "axis": [3], "momentum": 0.99, "epsilon": 0.001, "center": true, "scale": true, "beta_initializer": {"class_name": "Zeros", "config": {}}, "gamma_initializer": {"class_name": "Ones", "config": {}}, "moving_mean_initializer": {"class_name": "Zeros", "config": {}}, "moving_variance_initializer": {"class_name": "Ones", "config": {}}, "beta_regularizer": null, "gamma_regularizer": null, "beta_constraint": null, "gamma_constraint": null}, "name": "batch_normalization_42", "inbound_nodes": [[["conv2d_42", 0, 0, {}]]]}, {"class_name": "TFOpLambda", "config": {"name": "tf.math.softplus_42", "trainable": true, "dtype": "float32", "function": "math.softplus"}, "name": "tf.math.softplus_42", "inbound_nodes": [["batch_normalization_42", 0, 0, {}]]}, {"class_name": "TFOpLambda", "config": {"name": "tf.math.tanh_42", "trainable": true, "dtype": "float32", "function": "math.tanh"}, "name": "tf.math.tanh_42", "inbound_nodes": [["tf.math.softplus_42", 0, 0, {"name": null}]]}, {"class_name": "TFOpLambda", "config": {"name": "tf.math.multiply_42", "trainable": true, "dtype": "float32", "function": "math.multiply"}, "name": "tf.math.multiply_42", "inbound_nodes": [["batch_normalization_42", 0, 0, {"y": ["tf.math.tanh_42", 0, 0], "name": null}]]}, {"class_name": "TFOpLambda", "config": {"name": "tf.__operators__.add_11", "trainable": true, "dtype": "float32", "function": "__operators__.add"}, "name": "tf.__operators__.add_11", "inbound_nodes": [["tf.math.multiply_40", 0, 0, {"y": ["tf.math.multiply_42", 0, 0], "name": null}]]}, {"class_name": "Conv2D", "config": {"name": "conv2d_43", "trainable": true, "dtype": "float32", "filters": 256, "kernel_size": [1, 1], "strides": [1, 1], "padding": "same", "data_format": "channels_last", "dilation_rate": [1, 1], "groups": 1, "activation": "linear", "use_bias": false, "kernel_initializer": {"class_name": "RandomNormal", "config": {"mean": 0.0, "stddev": 0.01, "seed": null}}, "bias_initializer": {"class_name": "Constant", "config": {"value": 0.0}}, "kernel_regularizer": {"class_name": "L2", "config": {"l2": 0.0005000000237487257}}, "bias_regularizer": null, "activity_regularizer": null, "kernel_constraint": null, "bias_constraint": null}, "name": "conv2d_43", "inbound_nodes": [[["tf.__operators__.add_11", 0, 0, {}]]]}, {"class_name": "BatchNormalization", "config": {"name": "batch_normalization_43", "trainable": true, "dtype": "float32", "axis": [3], "momentum": 0.99, "epsilon": 0.001, "center": true, "scale": true, "beta_initializer": {"class_name": "Zeros", "config": {}}, "gamma_initializer": {"class_name": "Ones", "config": {}}, "moving_mean_initializer": {"class_name": "Zeros", "config": {}}, "moving_variance_initializer": {"class_name": "Ones", "config": {}}, "beta_regularizer": null, "gamma_regularizer": null, "beta_constraint": null, "gamma_constraint": null}, "name": "batch_normalization_43", "inbound_nodes": [[["conv2d_43", 0, 0, {}]]]}, {"class_name": "TFOpLambda", "config": {"name": "tf.math.softplus_43", "trainable": true, "dtype": "float32", "function": "math.softplus"}, "name": "tf.math.softplus_43", "inbound_nodes": [["batch_normalization_43", 0, 0, {}]]}, {"class_name": "TFOpLambda", "config": {"name": "tf.math.tanh_43", "trainable": true, "dtype": "float32", "function": "math.tanh"}, "name": "tf.math.tanh_43", "inbound_nodes": [["tf.math.softplus_43", 0, 0, {"name": null}]]}, {"class_name": "TFOpLambda", "config": {"name": "tf.math.multiply_43", "trainable": true, "dtype": "float32", "function": "math.multiply"}, "name": "tf.math.multiply_43", "inbound_nodes": [["batch_normalization_43", 0, 0, {"y": ["tf.math.tanh_43", 0, 0], "name": null}]]}, {"class_name": "Conv2D", "config": {"name": "conv2d_44", "trainable": true, "dtype": "float32", "filters": 256, "kernel_size": [3, 3], "strides": [1, 1], "padding": "same", "data_format": "channels_last", "dilation_rate": [1, 1], "groups": 1, "activation": "linear", "use_bias": false, "kernel_initializer": {"class_name": "RandomNormal", "config": {"mean": 0.0, "stddev": 0.01, "seed": null}}, "bias_initializer": {"class_name": "Constant", "config": {"value": 0.0}}, "kernel_regularizer": {"class_name": "L2", "config": {"l2": 0.0005000000237487257}}, "bias_regularizer": null, "activity_regularizer": null, "kernel_constraint": null, "bias_constraint": null}, "name": "conv2d_44", "inbound_nodes": [[["tf.math.multiply_43", 0, 0, {}]]]}, {"class_name": "BatchNormalization", "config": {"name": "batch_normalization_44", "trainable": true, "dtype": "float32", "axis": [3], "momentum": 0.99, "epsilon": 0.001, "center": true, "scale": true, "beta_initializer": {"class_name": "Zeros", "config": {}}, "gamma_initializer": {"class_name": "Ones", "config": {}}, "moving_mean_initializer": {"class_name": "Zeros", "config": {}}, "moving_variance_initializer": {"class_name": "Ones", "config": {}}, "beta_regularizer": null, "gamma_regularizer": null, "beta_constraint": null, "gamma_constraint": null}, "name": "batch_normalization_44", "inbound_nodes": [[["conv2d_44", 0, 0, {}]]]}, {"class_name": "TFOpLambda", "config": {"name": "tf.math.softplus_44", "trainable": true, "dtype": "float32", "function": "math.softplus"}, "name": "tf.math.softplus_44", "inbound_nodes": [["batch_normalization_44", 0, 0, {}]]}, {"class_name": "TFOpLambda", "config": {"name": "tf.math.tanh_44", "trainable": true, "dtype": "float32", "function": "math.tanh"}, "name": "tf.math.tanh_44", "inbound_nodes": [["tf.math.softplus_44", 0, 0, {"name": null}]]}, {"class_name": "TFOpLambda", "config": {"name": "tf.math.multiply_44", "trainable": true, "dtype": "float32", "function": "math.multiply"}, "name": "tf.math.multiply_44", "inbound_nodes": [["batch_normalization_44", 0, 0, {"y": ["tf.math.tanh_44", 0, 0], "name": null}]]}, {"class_name": "TFOpLambda", "config": {"name": "tf.__operators__.add_12", "trainable": true, "dtype": "float32", "function": "__operators__.add"}, "name": "tf.__operators__.add_12", "inbound_nodes": [["tf.__operators__.add_11", 0, 0, {"y": ["tf.math.multiply_44", 0, 0], "name": null}]]}, {"class_name": "Conv2D", "config": {"name": "conv2d_45", "trainable": true, "dtype": "float32", "filters": 256, "kernel_size": [1, 1], "strides": [1, 1], "padding": "same", "data_format": "channels_last", "dilation_rate": [1, 1], "groups": 1, "activation": "linear", "use_bias": false, "kernel_initializer": {"class_name": "RandomNormal", "config": {"mean": 0.0, "stddev": 0.01, "seed": null}}, "bias_initializer": {"class_name": "Constant", "config": {"value": 0.0}}, "kernel_regularizer": {"class_name": "L2", "config": {"l2": 0.0005000000237487257}}, "bias_regularizer": null, "activity_regularizer": null, "kernel_constraint": null, "bias_constraint": null}, "name": "conv2d_45", "inbound_nodes": [[["tf.__operators__.add_12", 0, 0, {}]]]}, {"class_name": "BatchNormalization", "config": {"name": "batch_normalization_45", "trainable": true, "dtype": "float32", "axis": [3], "momentum": 0.99, "epsilon": 0.001, "center": true, "scale": true, "beta_initializer": {"class_name": "Zeros", "config": {}}, "gamma_initializer": {"class_name": "Ones", "config": {}}, "moving_mean_initializer": {"class_name": "Zeros", "config": {}}, "moving_variance_initializer": {"class_name": "Ones", "config": {}}, "beta_regularizer": null, "gamma_regularizer": null, "beta_constraint": null, "gamma_constraint": null}, "name": "batch_normalization_45", "inbound_nodes": [[["conv2d_45", 0, 0, {}]]]}, {"class_name": "TFOpLambda", "config": {"name": "tf.math.softplus_45", "trainable": true, "dtype": "float32", "function": "math.softplus"}, "name": "tf.math.softplus_45", "inbound_nodes": [["batch_normalization_45", 0, 0, {}]]}, {"class_name": "TFOpLambda", "config": {"name": "tf.math.tanh_45", "trainable": true, "dtype": "float32", "function": "math.tanh"}, "name": "tf.math.tanh_45", "inbound_nodes": [["tf.math.softplus_45", 0, 0, {"name": null}]]}, {"class_name": "TFOpLambda", "config": {"name": "tf.math.multiply_45", "trainable": true, "dtype": "float32", "function": "math.multiply"}, "name": "tf.math.multiply_45", "inbound_nodes": [["batch_normalization_45", 0, 0, {"y": ["tf.math.tanh_45", 0, 0], "name": null}]]}, {"class_name": "Conv2D", "config": {"name": "conv2d_46", "trainable": true, "dtype": "float32", "filters": 256, "kernel_size": [3, 3], "strides": [1, 1], "padding": "same", "data_format": "channels_last", "dilation_rate": [1, 1], "groups": 1, "activation": "linear", "use_bias": false, "kernel_initializer": {"class_name": "RandomNormal", "config": {"mean": 0.0, "stddev": 0.01, "seed": null}}, "bias_initializer": {"class_name": "Constant", "config": {"value": 0.0}}, "kernel_regularizer": {"class_name": "L2", "config": {"l2": 0.0005000000237487257}}, "bias_regularizer": null, "activity_regularizer": null, "kernel_constraint": null, "bias_constraint": null}, "name": "conv2d_46", "inbound_nodes": [[["tf.math.multiply_45", 0, 0, {}]]]}, {"class_name": "BatchNormalization", "config": {"name": "batch_normalization_46", "trainable": true, "dtype": "float32", "axis": [3], "momentum": 0.99, "epsilon": 0.001, "center": true, "scale": true, "beta_initializer": {"class_name": "Zeros", "config": {}}, "gamma_initializer": {"class_name": "Ones", "config": {}}, "moving_mean_initializer": {"class_name": "Zeros", "config": {}}, "moving_variance_initializer": {"class_name": "Ones", "config": {}}, "beta_regularizer": null, "gamma_regularizer": null, "beta_constraint": null, "gamma_constraint": null}, "name": "batch_normalization_46", "inbound_nodes": [[["conv2d_46", 0, 0, {}]]]}, {"class_name": "TFOpLambda", "config": {"name": "tf.math.softplus_46", "trainable": true, "dtype": "float32", "function": "math.softplus"}, "name": "tf.math.softplus_46", "inbound_nodes": [["batch_normalization_46", 0, 0, {}]]}, {"class_name": "TFOpLambda", "config": {"name": "tf.math.tanh_46", "trainable": true, "dtype": "float32", "function": "math.tanh"}, "name": "tf.math.tanh_46", "inbound_nodes": [["tf.math.softplus_46", 0, 0, {"name": null}]]}, {"class_name": "TFOpLambda", "config": {"name": "tf.math.multiply_46", "trainable": true, "dtype": "float32", "function": "math.multiply"}, "name": "tf.math.multiply_46", "inbound_nodes": [["batch_normalization_46", 0, 0, {"y": ["tf.math.tanh_46", 0, 0], "name": null}]]}, {"class_name": "TFOpLambda", "config": {"name": "tf.__operators__.add_13", "trainable": true, "dtype": "float32", "function": "__operators__.add"}, "name": "tf.__operators__.add_13", "inbound_nodes": [["tf.__operators__.add_12", 0, 0, {"y": ["tf.math.multiply_46", 0, 0], "name": null}]]}, {"class_name": "Conv2D", "config": {"name": "conv2d_47", "trainable": true, "dtype": "float32", "filters": 256, "kernel_size": [1, 1], "strides": [1, 1], "padding": "same", "data_format": "channels_last", "dilation_rate": [1, 1], "groups": 1, "activation": "linear", "use_bias": false, "kernel_initializer": {"class_name": "RandomNormal", "config": {"mean": 0.0, "stddev": 0.01, "seed": null}}, "bias_initializer": {"class_name": "Constant", "config": {"value": 0.0}}, "kernel_regularizer": {"class_name": "L2", "config": {"l2": 0.0005000000237487257}}, "bias_regularizer": null, "activity_regularizer": null, "kernel_constraint": null, "bias_constraint": null}, "name": "conv2d_47", "inbound_nodes": [[["tf.__operators__.add_13", 0, 0, {}]]]}, {"class_name": "BatchNormalization", "config": {"name": "batch_normalization_47", "trainable": true, "dtype": "float32", "axis": [3], "momentum": 0.99, "epsilon": 0.001, "center": true, "scale": true, "beta_initializer": {"class_name": "Zeros", "config": {}}, "gamma_initializer": {"class_name": "Ones", "config": {}}, "moving_mean_initializer": {"class_name": "Zeros", "config": {}}, "moving_variance_initializer": {"class_name": "Ones", "config": {}}, "beta_regularizer": null, "gamma_regularizer": null, "beta_constraint": null, "gamma_constraint": null}, "name": "batch_normalization_47", "inbound_nodes": [[["conv2d_47", 0, 0, {}]]]}, {"class_name": "TFOpLambda", "config": {"name": "tf.math.softplus_47", "trainable": true, "dtype": "float32", "function": "math.softplus"}, "name": "tf.math.softplus_47", "inbound_nodes": [["batch_normalization_47", 0, 0, {}]]}, {"class_name": "TFOpLambda", "config": {"name": "tf.math.tanh_47", "trainable": true, "dtype": "float32", "function": "math.tanh"}, "name": "tf.math.tanh_47", "inbound_nodes": [["tf.math.softplus_47", 0, 0, {"name": null}]]}, {"class_name": "TFOpLambda", "config": {"name": "tf.math.multiply_47", "trainable": true, "dtype": "float32", "function": "math.multiply"}, "name": "tf.math.multiply_47", "inbound_nodes": [["batch_normalization_47", 0, 0, {"y": ["tf.math.tanh_47", 0, 0], "name": null}]]}, {"class_name": "Conv2D", "config": {"name": "conv2d_48", "trainable": true, "dtype": "float32", "filters": 256, "kernel_size": [3, 3], "strides": [1, 1], "padding": "same", "data_format": "channels_last", "dilation_rate": [1, 1], "groups": 1, "activation": "linear", "use_bias": false, "kernel_initializer": {"class_name": "RandomNormal", "config": {"mean": 0.0, "stddev": 0.01, "seed": null}}, "bias_initializer": {"class_name": "Constant", "config": {"value": 0.0}}, "kernel_regularizer": {"class_name": "L2", "config": {"l2": 0.0005000000237487257}}, "bias_regularizer": null, "activity_regularizer": null, "kernel_constraint": null, "bias_constraint": null}, "name": "conv2d_48", "inbound_nodes": [[["tf.math.multiply_47", 0, 0, {}]]]}, {"class_name": "BatchNormalization", "config": {"name": "batch_normalization_48", "trainable": true, "dtype": "float32", "axis": [3], "momentum": 0.99, "epsilon": 0.001, "center": true, "scale": true, "beta_initializer": {"class_name": "Zeros", "config": {}}, "gamma_initializer": {"class_name": "Ones", "config": {}}, "moving_mean_initializer": {"class_name": "Zeros", "config": {}}, "moving_variance_initializer": {"class_name": "Ones", "config": {}}, "beta_regularizer": null, "gamma_regularizer": null, "beta_constraint": null, "gamma_constraint": null}, "name": "batch_normalization_48", "inbound_nodes": [[["conv2d_48", 0, 0, {}]]]}, {"class_name": "TFOpLambda", "config": {"name": "tf.math.softplus_48", "trainable": true, "dtype": "float32", "function": "math.softplus"}, "name": "tf.math.softplus_48", "inbound_nodes": [["batch_normalization_48", 0, 0, {}]]}, {"class_name": "TFOpLambda", "config": {"name": "tf.math.tanh_48", "trainable": true, "dtype": "float32", "function": "math.tanh"}, "name": "tf.math.tanh_48", "inbound_nodes": [["tf.math.softplus_48", 0, 0, {"name": null}]]}, {"class_name": "TFOpLambda", "config": {"name": "tf.math.multiply_48", "trainable": true, "dtype": "float32", "function": "math.multiply"}, "name": "tf.math.multiply_48", "inbound_nodes": [["batch_normalization_48", 0, 0, {"y": ["tf.math.tanh_48", 0, 0], "name": null}]]}, {"class_name": "TFOpLambda", "config": {"name": "tf.__operators__.add_14", "trainable": true, "dtype": "float32", "function": "__operators__.add"}, "name": "tf.__operators__.add_14", "inbound_nodes": [["tf.__operators__.add_13", 0, 0, {"y": ["tf.math.multiply_48", 0, 0], "name": null}]]}, {"class_name": "Conv2D", "config": {"name": "conv2d_49", "trainable": true, "dtype": "float32", "filters": 256, "kernel_size": [1, 1], "strides": [1, 1], "padding": "same", "data_format": "channels_last", "dilation_rate": [1, 1], "groups": 1, "activation": "linear", "use_bias": false, "kernel_initializer": {"class_name": "RandomNormal", "config": {"mean": 0.0, "stddev": 0.01, "seed": null}}, "bias_initializer": {"class_name": "Constant", "config": {"value": 0.0}}, "kernel_regularizer": {"class_name": "L2", "config": {"l2": 0.0005000000237487257}}, "bias_regularizer": null, "activity_regularizer": null, "kernel_constraint": null, "bias_constraint": null}, "name": "conv2d_49", "inbound_nodes": [[["tf.__operators__.add_14", 0, 0, {}]]]}, {"class_name": "BatchNormalization", "config": {"name": "batch_normalization_49", "trainable": true, "dtype": "float32", "axis": [3], "momentum": 0.99, "epsilon": 0.001, "center": true, "scale": true, "beta_initializer": {"class_name": "Zeros", "config": {}}, "gamma_initializer": {"class_name": "Ones", "config": {}}, "moving_mean_initializer": {"class_name": "Zeros", "config": {}}, "moving_variance_initializer": {"class_name": "Ones", "config": {}}, "beta_regularizer": null, "gamma_regularizer": null, "beta_constraint": null, "gamma_constraint": null}, "name": "batch_normalization_49", "inbound_nodes": [[["conv2d_49", 0, 0, {}]]]}, {"class_name": "TFOpLambda", "config": {"name": "tf.math.softplus_49", "trainable": true, "dtype": "float32", "function": "math.softplus"}, "name": "tf.math.softplus_49", "inbound_nodes": [["batch_normalization_49", 0, 0, {}]]}, {"class_name": "TFOpLambda", "config": {"name": "tf.math.tanh_49", "trainable": true, "dtype": "float32", "function": "math.tanh"}, "name": "tf.math.tanh_49", "inbound_nodes": [["tf.math.softplus_49", 0, 0, {"name": null}]]}, {"class_name": "TFOpLambda", "config": {"name": "tf.math.multiply_49", "trainable": true, "dtype": "float32", "function": "math.multiply"}, "name": "tf.math.multiply_49", "inbound_nodes": [["batch_normalization_49", 0, 0, {"y": ["tf.math.tanh_49", 0, 0], "name": null}]]}, {"class_name": "Conv2D", "config": {"name": "conv2d_50", "trainable": true, "dtype": "float32", "filters": 256, "kernel_size": [3, 3], "strides": [1, 1], "padding": "same", "data_format": "channels_last", "dilation_rate": [1, 1], "groups": 1, "activation": "linear", "use_bias": false, "kernel_initializer": {"class_name": "RandomNormal", "config": {"mean": 0.0, "stddev": 0.01, "seed": null}}, "bias_initializer": {"class_name": "Constant", "config": {"value": 0.0}}, "kernel_regularizer": {"class_name": "L2", "config": {"l2": 0.0005000000237487257}}, "bias_regularizer": null, "activity_regularizer": null, "kernel_constraint": null, "bias_constraint": null}, "name": "conv2d_50", "inbound_nodes": [[["tf.math.multiply_49", 0, 0, {}]]]}, {"class_name": "BatchNormalization", "config": {"name": "batch_normalization_50", "trainable": true, "dtype": "float32", "axis": [3], "momentum": 0.99, "epsilon": 0.001, "center": true, "scale": true, "beta_initializer": {"class_name": "Zeros", "config": {}}, "gamma_initializer": {"class_name": "Ones", "config": {}}, "moving_mean_initializer": {"class_name": "Zeros", "config": {}}, "moving_variance_initializer": {"class_name": "Ones", "config": {}}, "beta_regularizer": null, "gamma_regularizer": null, "beta_constraint": null, "gamma_constraint": null}, "name": "batch_normalization_50", "inbound_nodes": [[["conv2d_50", 0, 0, {}]]]}, {"class_name": "TFOpLambda", "config": {"name": "tf.math.softplus_50", "trainable": true, "dtype": "float32", "function": "math.softplus"}, "name": "tf.math.softplus_50", "inbound_nodes": [["batch_normalization_50", 0, 0, {}]]}, {"class_name": "TFOpLambda", "config": {"name": "tf.math.tanh_50", "trainable": true, "dtype": "float32", "function": "math.tanh"}, "name": "tf.math.tanh_50", "inbound_nodes": [["tf.math.softplus_50", 0, 0, {"name": null}]]}, {"class_name": "TFOpLambda", "config": {"name": "tf.math.multiply_50", "trainable": true, "dtype": "float32", "function": "math.multiply"}, "name": "tf.math.multiply_50", "inbound_nodes": [["batch_normalization_50", 0, 0, {"y": ["tf.math.tanh_50", 0, 0], "name": null}]]}, {"class_name": "TFOpLambda", "config": {"name": "tf.__operators__.add_15", "trainable": true, "dtype": "float32", "function": "__operators__.add"}, "name": "tf.__operators__.add_15", "inbound_nodes": [["tf.__operators__.add_14", 0, 0, {"y": ["tf.math.multiply_50", 0, 0], "name": null}]]}, {"class_name": "Conv2D", "config": {"name": "conv2d_51", "trainable": true, "dtype": "float32", "filters": 256, "kernel_size": [1, 1], "strides": [1, 1], "padding": "same", "data_format": "channels_last", "dilation_rate": [1, 1], "groups": 1, "activation": "linear", "use_bias": false, "kernel_initializer": {"class_name": "RandomNormal", "config": {"mean": 0.0, "stddev": 0.01, "seed": null}}, "bias_initializer": {"class_name": "Constant", "config": {"value": 0.0}}, "kernel_regularizer": {"class_name": "L2", "config": {"l2": 0.0005000000237487257}}, "bias_regularizer": null, "activity_regularizer": null, "kernel_constraint": null, "bias_constraint": null}, "name": "conv2d_51", "inbound_nodes": [[["tf.__operators__.add_15", 0, 0, {}]]]}, {"class_name": "BatchNormalization", "config": {"name": "batch_normalization_51", "trainable": true, "dtype": "float32", "axis": [3], "momentum": 0.99, "epsilon": 0.001, "center": true, "scale": true, "beta_initializer": {"class_name": "Zeros", "config": {}}, "gamma_initializer": {"class_name": "Ones", "config": {}}, "moving_mean_initializer": {"class_name": "Zeros", "config": {}}, "moving_variance_initializer": {"class_name": "Ones", "config": {}}, "beta_regularizer": null, "gamma_regularizer": null, "beta_constraint": null, "gamma_constraint": null}, "name": "batch_normalization_51", "inbound_nodes": [[["conv2d_51", 0, 0, {}]]]}, {"class_name": "TFOpLambda", "config": {"name": "tf.math.softplus_51", "trainable": true, "dtype": "float32", "function": "math.softplus"}, "name": "tf.math.softplus_51", "inbound_nodes": [["batch_normalization_51", 0, 0, {}]]}, {"class_name": "TFOpLambda", "config": {"name": "tf.math.tanh_51", "trainable": true, "dtype": "float32", "function": "math.tanh"}, "name": "tf.math.tanh_51", "inbound_nodes": [["tf.math.softplus_51", 0, 0, {"name": null}]]}, {"class_name": "TFOpLambda", "config": {"name": "tf.math.multiply_51", "trainable": true, "dtype": "float32", "function": "math.multiply"}, "name": "tf.math.multiply_51", "inbound_nodes": [["batch_normalization_51", 0, 0, {"y": ["tf.math.tanh_51", 0, 0], "name": null}]]}, {"class_name": "Conv2D", "config": {"name": "conv2d_52", "trainable": true, "dtype": "float32", "filters": 256, "kernel_size": [3, 3], "strides": [1, 1], "padding": "same", "data_format": "channels_last", "dilation_rate": [1, 1], "groups": 1, "activation": "linear", "use_bias": false, "kernel_initializer": {"class_name": "RandomNormal", "config": {"mean": 0.0, "stddev": 0.01, "seed": null}}, "bias_initializer": {"class_name": "Constant", "config": {"value": 0.0}}, "kernel_regularizer": {"class_name": "L2", "config": {"l2": 0.0005000000237487257}}, "bias_regularizer": null, "activity_regularizer": null, "kernel_constraint": null, "bias_constraint": null}, "name": "conv2d_52", "inbound_nodes": [[["tf.math.multiply_51", 0, 0, {}]]]}, {"class_name": "BatchNormalization", "config": {"name": "batch_normalization_52", "trainable": true, "dtype": "float32", "axis": [3], "momentum": 0.99, "epsilon": 0.001, "center": true, "scale": true, "beta_initializer": {"class_name": "Zeros", "config": {}}, "gamma_initializer": {"class_name": "Ones", "config": {}}, "moving_mean_initializer": {"class_name": "Zeros", "config": {}}, "moving_variance_initializer": {"class_name": "Ones", "config": {}}, "beta_regularizer": null, "gamma_regularizer": null, "beta_constraint": null, "gamma_constraint": null}, "name": "batch_normalization_52", "inbound_nodes": [[["conv2d_52", 0, 0, {}]]]}, {"class_name": "TFOpLambda", "config": {"name": "tf.math.softplus_52", "trainable": true, "dtype": "float32", "function": "math.softplus"}, "name": "tf.math.softplus_52", "inbound_nodes": [["batch_normalization_52", 0, 0, {}]]}, {"class_name": "TFOpLambda", "config": {"name": "tf.math.tanh_52", "trainable": true, "dtype": "float32", "function": "math.tanh"}, "name": "tf.math.tanh_52", "inbound_nodes": [["tf.math.softplus_52", 0, 0, {"name": null}]]}, {"class_name": "TFOpLambda", "config": {"name": "tf.math.multiply_52", "trainable": true, "dtype": "float32", "function": "math.multiply"}, "name": "tf.math.multiply_52", "inbound_nodes": [["batch_normalization_52", 0, 0, {"y": ["tf.math.tanh_52", 0, 0], "name": null}]]}, {"class_name": "TFOpLambda", "config": {"name": "tf.__operators__.add_16", "trainable": true, "dtype": "float32", "function": "__operators__.add"}, "name": "tf.__operators__.add_16", "inbound_nodes": [["tf.__operators__.add_15", 0, 0, {"y": ["tf.math.multiply_52", 0, 0], "name": null}]]}, {"class_name": "Conv2D", "config": {"name": "conv2d_53", "trainable": true, "dtype": "float32", "filters": 256, "kernel_size": [1, 1], "strides": [1, 1], "padding": "same", "data_format": "channels_last", "dilation_rate": [1, 1], "groups": 1, "activation": "linear", "use_bias": false, "kernel_initializer": {"class_name": "RandomNormal", "config": {"mean": 0.0, "stddev": 0.01, "seed": null}}, "bias_initializer": {"class_name": "Constant", "config": {"value": 0.0}}, "kernel_regularizer": {"class_name": "L2", "config": {"l2": 0.0005000000237487257}}, "bias_regularizer": null, "activity_regularizer": null, "kernel_constraint": null, "bias_constraint": null}, "name": "conv2d_53", "inbound_nodes": [[["tf.__operators__.add_16", 0, 0, {}]]]}, {"class_name": "BatchNormalization", "config": {"name": "batch_normalization_53", "trainable": true, "dtype": "float32", "axis": [3], "momentum": 0.99, "epsilon": 0.001, "center": true, "scale": true, "beta_initializer": {"class_name": "Zeros", "config": {}}, "gamma_initializer": {"class_name": "Ones", "config": {}}, "moving_mean_initializer": {"class_name": "Zeros", "config": {}}, "moving_variance_initializer": {"class_name": "Ones", "config": {}}, "beta_regularizer": null, "gamma_regularizer": null, "beta_constraint": null, "gamma_constraint": null}, "name": "batch_normalization_53", "inbound_nodes": [[["conv2d_53", 0, 0, {}]]]}, {"class_name": "TFOpLambda", "config": {"name": "tf.math.softplus_53", "trainable": true, "dtype": "float32", "function": "math.softplus"}, "name": "tf.math.softplus_53", "inbound_nodes": [["batch_normalization_53", 0, 0, {}]]}, {"class_name": "TFOpLambda", "config": {"name": "tf.math.tanh_53", "trainable": true, "dtype": "float32", "function": "math.tanh"}, "name": "tf.math.tanh_53", "inbound_nodes": [["tf.math.softplus_53", 0, 0, {"name": null}]]}, {"class_name": "TFOpLambda", "config": {"name": "tf.math.multiply_53", "trainable": true, "dtype": "float32", "function": "math.multiply"}, "name": "tf.math.multiply_53", "inbound_nodes": [["batch_normalization_53", 0, 0, {"y": ["tf.math.tanh_53", 0, 0], "name": null}]]}, {"class_name": "Conv2D", "config": {"name": "conv2d_54", "trainable": true, "dtype": "float32", "filters": 256, "kernel_size": [3, 3], "strides": [1, 1], "padding": "same", "data_format": "channels_last", "dilation_rate": [1, 1], "groups": 1, "activation": "linear", "use_bias": false, "kernel_initializer": {"class_name": "RandomNormal", "config": {"mean": 0.0, "stddev": 0.01, "seed": null}}, "bias_initializer": {"class_name": "Constant", "config": {"value": 0.0}}, "kernel_regularizer": {"class_name": "L2", "config": {"l2": 0.0005000000237487257}}, "bias_regularizer": null, "activity_regularizer": null, "kernel_constraint": null, "bias_constraint": null}, "name": "conv2d_54", "inbound_nodes": [[["tf.math.multiply_53", 0, 0, {}]]]}, {"class_name": "BatchNormalization", "config": {"name": "batch_normalization_54", "trainable": true, "dtype": "float32", "axis": [3], "momentum": 0.99, "epsilon": 0.001, "center": true, "scale": true, "beta_initializer": {"class_name": "Zeros", "config": {}}, "gamma_initializer": {"class_name": "Ones", "config": {}}, "moving_mean_initializer": {"class_name": "Zeros", "config": {}}, "moving_variance_initializer": {"class_name": "Ones", "config": {}}, "beta_regularizer": null, "gamma_regularizer": null, "beta_constraint": null, "gamma_constraint": null}, "name": "batch_normalization_54", "inbound_nodes": [[["conv2d_54", 0, 0, {}]]]}, {"class_name": "TFOpLambda", "config": {"name": "tf.math.softplus_54", "trainable": true, "dtype": "float32", "function": "math.softplus"}, "name": "tf.math.softplus_54", "inbound_nodes": [["batch_normalization_54", 0, 0, {}]]}, {"class_name": "TFOpLambda", "config": {"name": "tf.math.tanh_54", "trainable": true, "dtype": "float32", "function": "math.tanh"}, "name": "tf.math.tanh_54", "inbound_nodes": [["tf.math.softplus_54", 0, 0, {"name": null}]]}, {"class_name": "TFOpLambda", "config": {"name": "tf.math.multiply_54", "trainable": true, "dtype": "float32", "function": "math.multiply"}, "name": "tf.math.multiply_54", "inbound_nodes": [["batch_normalization_54", 0, 0, {"y": ["tf.math.tanh_54", 0, 0], "name": null}]]}, {"class_name": "TFOpLambda", "config": {"name": "tf.__operators__.add_17", "trainable": true, "dtype": "float32", "function": "__operators__.add"}, "name": "tf.__operators__.add_17", "inbound_nodes": [["tf.__operators__.add_16", 0, 0, {"y": ["tf.math.multiply_54", 0, 0], "name": null}]]}, {"class_name": "Conv2D", "config": {"name": "conv2d_55", "trainable": true, "dtype": "float32", "filters": 256, "kernel_size": [1, 1], "strides": [1, 1], "padding": "same", "data_format": "channels_last", "dilation_rate": [1, 1], "groups": 1, "activation": "linear", "use_bias": false, "kernel_initializer": {"class_name": "RandomNormal", "config": {"mean": 0.0, "stddev": 0.01, "seed": null}}, "bias_initializer": {"class_name": "Constant", "config": {"value": 0.0}}, "kernel_regularizer": {"class_name": "L2", "config": {"l2": 0.0005000000237487257}}, "bias_regularizer": null, "activity_regularizer": null, "kernel_constraint": null, "bias_constraint": null}, "name": "conv2d_55", "inbound_nodes": [[["tf.__operators__.add_17", 0, 0, {}]]]}, {"class_name": "BatchNormalization", "config": {"name": "batch_normalization_55", "trainable": true, "dtype": "float32", "axis": [3], "momentum": 0.99, "epsilon": 0.001, "center": true, "scale": true, "beta_initializer": {"class_name": "Zeros", "config": {}}, "gamma_initializer": {"class_name": "Ones", "config": {}}, "moving_mean_initializer": {"class_name": "Zeros", "config": {}}, "moving_variance_initializer": {"class_name": "Ones", "config": {}}, "beta_regularizer": null, "gamma_regularizer": null, "beta_constraint": null, "gamma_constraint": null}, "name": "batch_normalization_55", "inbound_nodes": [[["conv2d_55", 0, 0, {}]]]}, {"class_name": "TFOpLambda", "config": {"name": "tf.math.softplus_55", "trainable": true, "dtype": "float32", "function": "math.softplus"}, "name": "tf.math.softplus_55", "inbound_nodes": [["batch_normalization_55", 0, 0, {}]]}, {"class_name": "TFOpLambda", "config": {"name": "tf.math.tanh_55", "trainable": true, "dtype": "float32", "function": "math.tanh"}, "name": "tf.math.tanh_55", "inbound_nodes": [["tf.math.softplus_55", 0, 0, {"name": null}]]}, {"class_name": "TFOpLambda", "config": {"name": "tf.math.multiply_55", "trainable": true, "dtype": "float32", "function": "math.multiply"}, "name": "tf.math.multiply_55", "inbound_nodes": [["batch_normalization_55", 0, 0, {"y": ["tf.math.tanh_55", 0, 0], "name": null}]]}, {"class_name": "Conv2D", "config": {"name": "conv2d_56", "trainable": true, "dtype": "float32", "filters": 256, "kernel_size": [3, 3], "strides": [1, 1], "padding": "same", "data_format": "channels_last", "dilation_rate": [1, 1], "groups": 1, "activation": "linear", "use_bias": false, "kernel_initializer": {"class_name": "RandomNormal", "config": {"mean": 0.0, "stddev": 0.01, "seed": null}}, "bias_initializer": {"class_name": "Constant", "config": {"value": 0.0}}, "kernel_regularizer": {"class_name": "L2", "config": {"l2": 0.0005000000237487257}}, "bias_regularizer": null, "activity_regularizer": null, "kernel_constraint": null, "bias_constraint": null}, "name": "conv2d_56", "inbound_nodes": [[["tf.math.multiply_55", 0, 0, {}]]]}, {"class_name": "BatchNormalization", "config": {"name": "batch_normalization_56", "trainable": true, "dtype": "float32", "axis": [3], "momentum": 0.99, "epsilon": 0.001, "center": true, "scale": true, "beta_initializer": {"class_name": "Zeros", "config": {}}, "gamma_initializer": {"class_name": "Ones", "config": {}}, "moving_mean_initializer": {"class_name": "Zeros", "config": {}}, "moving_variance_initializer": {"class_name": "Ones", "config": {}}, "beta_regularizer": null, "gamma_regularizer": null, "beta_constraint": null, "gamma_constraint": null}, "name": "batch_normalization_56", "inbound_nodes": [[["conv2d_56", 0, 0, {}]]]}, {"class_name": "TFOpLambda", "config": {"name": "tf.math.softplus_56", "trainable": true, "dtype": "float32", "function": "math.softplus"}, "name": "tf.math.softplus_56", "inbound_nodes": [["batch_normalization_56", 0, 0, {}]]}, {"class_name": "TFOpLambda", "config": {"name": "tf.math.tanh_56", "trainable": true, "dtype": "float32", "function": "math.tanh"}, "name": "tf.math.tanh_56", "inbound_nodes": [["tf.math.softplus_56", 0, 0, {"name": null}]]}, {"class_name": "TFOpLambda", "config": {"name": "tf.math.multiply_56", "trainable": true, "dtype": "float32", "function": "math.multiply"}, "name": "tf.math.multiply_56", "inbound_nodes": [["batch_normalization_56", 0, 0, {"y": ["tf.math.tanh_56", 0, 0], "name": null}]]}, {"class_name": "TFOpLambda", "config": {"name": "tf.__operators__.add_18", "trainable": true, "dtype": "float32", "function": "__operators__.add"}, "name": "tf.__operators__.add_18", "inbound_nodes": [["tf.__operators__.add_17", 0, 0, {"y": ["tf.math.multiply_56", 0, 0], "name": null}]]}, {"class_name": "Conv2D", "config": {"name": "conv2d_57", "trainable": true, "dtype": "float32", "filters": 256, "kernel_size": [1, 1], "strides": [1, 1], "padding": "same", "data_format": "channels_last", "dilation_rate": [1, 1], "groups": 1, "activation": "linear", "use_bias": false, "kernel_initializer": {"class_name": "RandomNormal", "config": {"mean": 0.0, "stddev": 0.01, "seed": null}}, "bias_initializer": {"class_name": "Constant", "config": {"value": 0.0}}, "kernel_regularizer": {"class_name": "L2", "config": {"l2": 0.0005000000237487257}}, "bias_regularizer": null, "activity_regularizer": null, "kernel_constraint": null, "bias_constraint": null}, "name": "conv2d_57", "inbound_nodes": [[["tf.__operators__.add_18", 0, 0, {}]]]}, {"class_name": "Conv2D", "config": {"name": "conv2d_39", "trainable": true, "dtype": "float32", "filters": 256, "kernel_size": [1, 1], "strides": [1, 1], "padding": "same", "data_format": "channels_last", "dilation_rate": [1, 1], "groups": 1, "activation": "linear", "use_bias": false, "kernel_initializer": {"class_name": "RandomNormal", "config": {"mean": 0.0, "stddev": 0.01, "seed": null}}, "bias_initializer": {"class_name": "Constant", "config": {"value": 0.0}}, "kernel_regularizer": {"class_name": "L2", "config": {"l2": 0.0005000000237487257}}, "bias_regularizer": null, "activity_regularizer": null, "kernel_constraint": null, "bias_constraint": null}, "name": "conv2d_39", "inbound_nodes": [[["tf.math.multiply_38", 0, 0, {}]]]}, {"class_name": "BatchNormalization", "config": {"name": "batch_normalization_57", "trainable": true, "dtype": "float32", "axis": [3], "momentum": 0.99, "epsilon": 0.001, "center": true, "scale": true, "beta_initializer": {"class_name": "Zeros", "config": {}}, "gamma_initializer": {"class_name": "Ones", "config": {}}, "moving_mean_initializer": {"class_name": "Zeros", "config": {}}, "moving_variance_initializer": {"class_name": "Ones", "config": {}}, "beta_regularizer": null, "gamma_regularizer": null, "beta_constraint": null, "gamma_constraint": null}, "name": "batch_normalization_57", "inbound_nodes": [[["conv2d_57", 0, 0, {}]]]}, {"class_name": "BatchNormalization", "config": {"name": "batch_normalization_39", "trainable": true, "dtype": "float32", "axis": [3], "momentum": 0.99, "epsilon": 0.001, "center": true, "scale": true, "beta_initializer": {"class_name": "Zeros", "config": {}}, "gamma_initializer": {"class_name": "Ones", "config": {}}, "moving_mean_initializer": {"class_name": "Zeros", "config": {}}, "moving_variance_initializer": {"class_name": "Ones", "config": {}}, "beta_regularizer": null, "gamma_regularizer": null, "beta_constraint": null, "gamma_constraint": null}, "name": "batch_normalization_39", "inbound_nodes": [[["conv2d_39", 0, 0, {}]]]}, {"class_name": "TFOpLambda", "config": {"name": "tf.math.softplus_57", "trainable": true, "dtype": "float32", "function": "math.softplus"}, "name": "tf.math.softplus_57", "inbound_nodes": [["batch_normalization_57", 0, 0, {}]]}, {"class_name": "TFOpLambda", "config": {"name": "tf.math.softplus_39", "trainable": true, "dtype": "float32", "function": "math.softplus"}, "name": "tf.math.softplus_39", "inbound_nodes": [["batch_normalization_39", 0, 0, {}]]}, {"class_name": "TFOpLambda", "config": {"name": "tf.math.tanh_57", "trainable": true, "dtype": "float32", "function": "math.tanh"}, "name": "tf.math.tanh_57", "inbound_nodes": [["tf.math.softplus_57", 0, 0, {"name": null}]]}, {"class_name": "TFOpLambda", "config": {"name": "tf.math.tanh_39", "trainable": true, "dtype": "float32", "function": "math.tanh"}, "name": "tf.math.tanh_39", "inbound_nodes": [["tf.math.softplus_39", 0, 0, {"name": null}]]}, {"class_name": "TFOpLambda", "config": {"name": "tf.math.multiply_57", "trainable": true, "dtype": "float32", "function": "math.multiply"}, "name": "tf.math.multiply_57", "inbound_nodes": [["batch_normalization_57", 0, 0, {"y": ["tf.math.tanh_57", 0, 0], "name": null}]]}, {"class_name": "TFOpLambda", "config": {"name": "tf.math.multiply_39", "trainable": true, "dtype": "float32", "function": "math.multiply"}, "name": "tf.math.multiply_39", "inbound_nodes": [["batch_normalization_39", 0, 0, {"y": ["tf.math.tanh_39", 0, 0], "name": null}]]}, {"class_name": "TFOpLambda", "config": {"name": "tf.concat_3", "trainable": true, "dtype": "float32", "function": "concat"}, "name": "tf.concat_3", "inbound_nodes": [[["tf.math.multiply_57", 0, 0, {"axis": -1}], ["tf.math.multiply_39", 0, 0, {"axis": -1}]]]}, {"class_name": "Conv2D", "config": {"name": "conv2d_58", "trainable": true, "dtype": "float32", "filters": 512, "kernel_size": [1, 1], "strides": [1, 1], "padding": "same", "data_format": "channels_last", "dilation_rate": [1, 1], "groups": 1, "activation": "linear", "use_bias": false, "kernel_initializer": {"class_name": "RandomNormal", "config": {"mean": 0.0, "stddev": 0.01, "seed": null}}, "bias_initializer": {"class_name": "Constant", "config": {"value": 0.0}}, "kernel_regularizer": {"class_name": "L2", "config": {"l2": 0.0005000000237487257}}, "bias_regularizer": null, "activity_regularizer": null, "kernel_constraint": null, "bias_constraint": null}, "name": "conv2d_58", "inbound_nodes": [[["tf.concat_3", 0, 0, {}]]]}, {"class_name": "BatchNormalization", "config": {"name": "batch_normalization_58", "trainable": true, "dtype": "float32", "axis": [3], "momentum": 0.99, "epsilon": 0.001, "center": true, "scale": true, "beta_initializer": {"class_name": "Zeros", "config": {}}, "gamma_initializer": {"class_name": "Ones", "config": {}}, "moving_mean_initializer": {"class_name": "Zeros", "config": {}}, "moving_variance_initializer": {"class_name": "Ones", "config": {}}, "beta_regularizer": null, "gamma_regularizer": null, "beta_constraint": null, "gamma_constraint": null}, "name": "batch_normalization_58", "inbound_nodes": [[["conv2d_58", 0, 0, {}]]]}, {"class_name": "TFOpLambda", "config": {"name": "tf.math.softplus_58", "trainable": true, "dtype": "float32", "function": "math.softplus"}, "name": "tf.math.softplus_58", "inbound_nodes": [["batch_normalization_58", 0, 0, {}]]}, {"class_name": "TFOpLambda", "config": {"name": "tf.math.tanh_58", "trainable": true, "dtype": "float32", "function": "math.tanh"}, "name": "tf.math.tanh_58", "inbound_nodes": [["tf.math.softplus_58", 0, 0, {"name": null}]]}, {"class_name": "TFOpLambda", "config": {"name": "tf.math.multiply_58", "trainable": true, "dtype": "float32", "function": "math.multiply"}, "name": "tf.math.multiply_58", "inbound_nodes": [["batch_normalization_58", 0, 0, {"y": ["tf.math.tanh_58", 0, 0], "name": null}]]}, {"class_name": "ZeroPadding2D", "config": {"name": "zero_padding2d_4", "trainable": true, "dtype": "float32", "padding": [[1, 0], [1, 0]], "data_format": "channels_last"}, "name": "zero_padding2d_4", "inbound_nodes": [[["tf.math.multiply_58", 0, 0, {}]]]}, {"class_name": "Conv2D", "config": {"name": "conv2d_59", "trainable": true, "dtype": "float32", "filters": 1024, "kernel_size": [3, 3], "strides": [2, 2], "padding": "valid", "data_format": "channels_last", "dilation_rate": [1, 1], "groups": 1, "activation": "linear", "use_bias": false, "kernel_initializer": {"class_name": "RandomNormal", "config": {"mean": 0.0, "stddev": 0.01, "seed": null}}, "bias_initializer": {"class_name": "Constant", "config": {"value": 0.0}}, "kernel_regularizer": {"class_name": "L2", "config": {"l2": 0.0005000000237487257}}, "bias_regularizer": null, "activity_regularizer": null, "kernel_constraint": null, "bias_constraint": null}, "name": "conv2d_59", "inbound_nodes": [[["zero_padding2d_4", 0, 0, {}]]]}, {"class_name": "BatchNormalization", "config": {"name": "batch_normalization_59", "trainable": true, "dtype": "float32", "axis": [3], "momentum": 0.99, "epsilon": 0.001, "center": true, "scale": true, "beta_initializer": {"class_name": "Zeros", "config": {}}, "gamma_initializer": {"class_name": "Ones", "config": {}}, "moving_mean_initializer": {"class_name": "Zeros", "config": {}}, "moving_variance_initializer": {"class_name": "Ones", "config": {}}, "beta_regularizer": null, "gamma_regularizer": null, "beta_constraint": null, "gamma_constraint": null}, "name": "batch_normalization_59", "inbound_nodes": [[["conv2d_59", 0, 0, {}]]]}, {"class_name": "TFOpLambda", "config": {"name": "tf.math.softplus_59", "trainable": true, "dtype": "float32", "function": "math.softplus"}, "name": "tf.math.softplus_59", "inbound_nodes": [["batch_normalization_59", 0, 0, {}]]}, {"class_name": "TFOpLambda", "config": {"name": "tf.math.tanh_59", "trainable": true, "dtype": "float32", "function": "math.tanh"}, "name": "tf.math.tanh_59", "inbound_nodes": [["tf.math.softplus_59", 0, 0, {"name": null}]]}, {"class_name": "TFOpLambda", "config": {"name": "tf.math.multiply_59", "trainable": true, "dtype": "float32", "function": "math.multiply"}, "name": "tf.math.multiply_59", "inbound_nodes": [["batch_normalization_59", 0, 0, {"y": ["tf.math.tanh_59", 0, 0], "name": null}]]}, {"class_name": "Conv2D", "config": {"name": "conv2d_61", "trainable": true, "dtype": "float32", "filters": 512, "kernel_size": [1, 1], "strides": [1, 1], "padding": "same", "data_format": "channels_last", "dilation_rate": [1, 1], "groups": 1, "activation": "linear", "use_bias": false, "kernel_initializer": {"class_name": "RandomNormal", "config": {"mean": 0.0, "stddev": 0.01, "seed": null}}, "bias_initializer": {"class_name": "Constant", "config": {"value": 0.0}}, "kernel_regularizer": {"class_name": "L2", "config": {"l2": 0.0005000000237487257}}, "bias_regularizer": null, "activity_regularizer": null, "kernel_constraint": null, "bias_constraint": null}, "name": "conv2d_61", "inbound_nodes": [[["tf.math.multiply_59", 0, 0, {}]]]}, {"class_name": "BatchNormalization", "config": {"name": "batch_normalization_61", "trainable": true, "dtype": "float32", "axis": [3], "momentum": 0.99, "epsilon": 0.001, "center": true, "scale": true, "beta_initializer": {"class_name": "Zeros", "config": {}}, "gamma_initializer": {"class_name": "Ones", "config": {}}, "moving_mean_initializer": {"class_name": "Zeros", "config": {}}, "moving_variance_initializer": {"class_name": "Ones", "config": {}}, "beta_regularizer": null, "gamma_regularizer": null, "beta_constraint": null, "gamma_constraint": null}, "name": "batch_normalization_61", "inbound_nodes": [[["conv2d_61", 0, 0, {}]]]}, {"class_name": "TFOpLambda", "config": {"name": "tf.math.softplus_61", "trainable": true, "dtype": "float32", "function": "math.softplus"}, "name": "tf.math.softplus_61", "inbound_nodes": [["batch_normalization_61", 0, 0, {}]]}, {"class_name": "TFOpLambda", "config": {"name": "tf.math.tanh_61", "trainable": true, "dtype": "float32", "function": "math.tanh"}, "name": "tf.math.tanh_61", "inbound_nodes": [["tf.math.softplus_61", 0, 0, {"name": null}]]}, {"class_name": "TFOpLambda", "config": {"name": "tf.math.multiply_61", "trainable": true, "dtype": "float32", "function": "math.multiply"}, "name": "tf.math.multiply_61", "inbound_nodes": [["batch_normalization_61", 0, 0, {"y": ["tf.math.tanh_61", 0, 0], "name": null}]]}, {"class_name": "Conv2D", "config": {"name": "conv2d_62", "trainable": true, "dtype": "float32", "filters": 512, "kernel_size": [1, 1], "strides": [1, 1], "padding": "same", "data_format": "channels_last", "dilation_rate": [1, 1], "groups": 1, "activation": "linear", "use_bias": false, "kernel_initializer": {"class_name": "RandomNormal", "config": {"mean": 0.0, "stddev": 0.01, "seed": null}}, "bias_initializer": {"class_name": "Constant", "config": {"value": 0.0}}, "kernel_regularizer": {"class_name": "L2", "config": {"l2": 0.0005000000237487257}}, "bias_regularizer": null, "activity_regularizer": null, "kernel_constraint": null, "bias_constraint": null}, "name": "conv2d_62", "inbound_nodes": [[["tf.math.multiply_61", 0, 0, {}]]]}, {"class_name": "BatchNormalization", "config": {"name": "batch_normalization_62", "trainable": true, "dtype": "float32", "axis": [3], "momentum": 0.99, "epsilon": 0.001, "center": true, "scale": true, "beta_initializer": {"class_name": "Zeros", "config": {}}, "gamma_initializer": {"class_name": "Ones", "config": {}}, "moving_mean_initializer": {"class_name": "Zeros", "config": {}}, "moving_variance_initializer": {"class_name": "Ones", "config": {}}, "beta_regularizer": null, "gamma_regularizer": null, "beta_constraint": null, "gamma_constraint": null}, "name": "batch_normalization_62", "inbound_nodes": [[["conv2d_62", 0, 0, {}]]]}, {"class_name": "TFOpLambda", "config": {"name": "tf.math.softplus_62", "trainable": true, "dtype": "float32", "function": "math.softplus"}, "name": "tf.math.softplus_62", "inbound_nodes": [["batch_normalization_62", 0, 0, {}]]}, {"class_name": "TFOpLambda", "config": {"name": "tf.math.tanh_62", "trainable": true, "dtype": "float32", "function": "math.tanh"}, "name": "tf.math.tanh_62", "inbound_nodes": [["tf.math.softplus_62", 0, 0, {"name": null}]]}, {"class_name": "TFOpLambda", "config": {"name": "tf.math.multiply_62", "trainable": true, "dtype": "float32", "function": "math.multiply"}, "name": "tf.math.multiply_62", "inbound_nodes": [["batch_normalization_62", 0, 0, {"y": ["tf.math.tanh_62", 0, 0], "name": null}]]}, {"class_name": "Conv2D", "config": {"name": "conv2d_63", "trainable": true, "dtype": "float32", "filters": 512, "kernel_size": [3, 3], "strides": [1, 1], "padding": "same", "data_format": "channels_last", "dilation_rate": [1, 1], "groups": 1, "activation": "linear", "use_bias": false, "kernel_initializer": {"class_name": "RandomNormal", "config": {"mean": 0.0, "stddev": 0.01, "seed": null}}, "bias_initializer": {"class_name": "Constant", "config": {"value": 0.0}}, "kernel_regularizer": {"class_name": "L2", "config": {"l2": 0.0005000000237487257}}, "bias_regularizer": null, "activity_regularizer": null, "kernel_constraint": null, "bias_constraint": null}, "name": "conv2d_63", "inbound_nodes": [[["tf.math.multiply_62", 0, 0, {}]]]}, {"class_name": "BatchNormalization", "config": {"name": "batch_normalization_63", "trainable": true, "dtype": "float32", "axis": [3], "momentum": 0.99, "epsilon": 0.001, "center": true, "scale": true, "beta_initializer": {"class_name": "Zeros", "config": {}}, "gamma_initializer": {"class_name": "Ones", "config": {}}, "moving_mean_initializer": {"class_name": "Zeros", "config": {}}, "moving_variance_initializer": {"class_name": "Ones", "config": {}}, "beta_regularizer": null, "gamma_regularizer": null, "beta_constraint": null, "gamma_constraint": null}, "name": "batch_normalization_63", "inbound_nodes": [[["conv2d_63", 0, 0, {}]]]}, {"class_name": "TFOpLambda", "config": {"name": "tf.math.softplus_63", "trainable": true, "dtype": "float32", "function": "math.softplus"}, "name": "tf.math.softplus_63", "inbound_nodes": [["batch_normalization_63", 0, 0, {}]]}, {"class_name": "TFOpLambda", "config": {"name": "tf.math.tanh_63", "trainable": true, "dtype": "float32", "function": "math.tanh"}, "name": "tf.math.tanh_63", "inbound_nodes": [["tf.math.softplus_63", 0, 0, {"name": null}]]}, {"class_name": "TFOpLambda", "config": {"name": "tf.math.multiply_63", "trainable": true, "dtype": "float32", "function": "math.multiply"}, "name": "tf.math.multiply_63", "inbound_nodes": [["batch_normalization_63", 0, 0, {"y": ["tf.math.tanh_63", 0, 0], "name": null}]]}, {"class_name": "TFOpLambda", "config": {"name": "tf.__operators__.add_19", "trainable": true, "dtype": "float32", "function": "__operators__.add"}, "name": "tf.__operators__.add_19", "inbound_nodes": [["tf.math.multiply_61", 0, 0, {"y": ["tf.math.multiply_63", 0, 0], "name": null}]]}, {"class_name": "Conv2D", "config": {"name": "conv2d_64", "trainable": true, "dtype": "float32", "filters": 512, "kernel_size": [1, 1], "strides": [1, 1], "padding": "same", "data_format": "channels_last", "dilation_rate": [1, 1], "groups": 1, "activation": "linear", "use_bias": false, "kernel_initializer": {"class_name": "RandomNormal", "config": {"mean": 0.0, "stddev": 0.01, "seed": null}}, "bias_initializer": {"class_name": "Constant", "config": {"value": 0.0}}, "kernel_regularizer": {"class_name": "L2", "config": {"l2": 0.0005000000237487257}}, "bias_regularizer": null, "activity_regularizer": null, "kernel_constraint": null, "bias_constraint": null}, "name": "conv2d_64", "inbound_nodes": [[["tf.__operators__.add_19", 0, 0, {}]]]}, {"class_name": "BatchNormalization", "config": {"name": "batch_normalization_64", "trainable": true, "dtype": "float32", "axis": [3], "momentum": 0.99, "epsilon": 0.001, "center": true, "scale": true, "beta_initializer": {"class_name": "Zeros", "config": {}}, "gamma_initializer": {"class_name": "Ones", "config": {}}, "moving_mean_initializer": {"class_name": "Zeros", "config": {}}, "moving_variance_initializer": {"class_name": "Ones", "config": {}}, "beta_regularizer": null, "gamma_regularizer": null, "beta_constraint": null, "gamma_constraint": null}, "name": "batch_normalization_64", "inbound_nodes": [[["conv2d_64", 0, 0, {}]]]}, {"class_name": "TFOpLambda", "config": {"name": "tf.math.softplus_64", "trainable": true, "dtype": "float32", "function": "math.softplus"}, "name": "tf.math.softplus_64", "inbound_nodes": [["batch_normalization_64", 0, 0, {}]]}, {"class_name": "TFOpLambda", "config": {"name": "tf.math.tanh_64", "trainable": true, "dtype": "float32", "function": "math.tanh"}, "name": "tf.math.tanh_64", "inbound_nodes": [["tf.math.softplus_64", 0, 0, {"name": null}]]}, {"class_name": "TFOpLambda", "config": {"name": "tf.math.multiply_64", "trainable": true, "dtype": "float32", "function": "math.multiply"}, "name": "tf.math.multiply_64", "inbound_nodes": [["batch_normalization_64", 0, 0, {"y": ["tf.math.tanh_64", 0, 0], "name": null}]]}, {"class_name": "Conv2D", "config": {"name": "conv2d_65", "trainable": true, "dtype": "float32", "filters": 512, "kernel_size": [3, 3], "strides": [1, 1], "padding": "same", "data_format": "channels_last", "dilation_rate": [1, 1], "groups": 1, "activation": "linear", "use_bias": false, "kernel_initializer": {"class_name": "RandomNormal", "config": {"mean": 0.0, "stddev": 0.01, "seed": null}}, "bias_initializer": {"class_name": "Constant", "config": {"value": 0.0}}, "kernel_regularizer": {"class_name": "L2", "config": {"l2": 0.0005000000237487257}}, "bias_regularizer": null, "activity_regularizer": null, "kernel_constraint": null, "bias_constraint": null}, "name": "conv2d_65", "inbound_nodes": [[["tf.math.multiply_64", 0, 0, {}]]]}, {"class_name": "BatchNormalization", "config": {"name": "batch_normalization_65", "trainable": true, "dtype": "float32", "axis": [3], "momentum": 0.99, "epsilon": 0.001, "center": true, "scale": true, "beta_initializer": {"class_name": "Zeros", "config": {}}, "gamma_initializer": {"class_name": "Ones", "config": {}}, "moving_mean_initializer": {"class_name": "Zeros", "config": {}}, "moving_variance_initializer": {"class_name": "Ones", "config": {}}, "beta_regularizer": null, "gamma_regularizer": null, "beta_constraint": null, "gamma_constraint": null}, "name": "batch_normalization_65", "inbound_nodes": [[["conv2d_65", 0, 0, {}]]]}, {"class_name": "TFOpLambda", "config": {"name": "tf.math.softplus_65", "trainable": true, "dtype": "float32", "function": "math.softplus"}, "name": "tf.math.softplus_65", "inbound_nodes": [["batch_normalization_65", 0, 0, {}]]}, {"class_name": "TFOpLambda", "config": {"name": "tf.math.tanh_65", "trainable": true, "dtype": "float32", "function": "math.tanh"}, "name": "tf.math.tanh_65", "inbound_nodes": [["tf.math.softplus_65", 0, 0, {"name": null}]]}, {"class_name": "TFOpLambda", "config": {"name": "tf.math.multiply_65", "trainable": true, "dtype": "float32", "function": "math.multiply"}, "name": "tf.math.multiply_65", "inbound_nodes": [["batch_normalization_65", 0, 0, {"y": ["tf.math.tanh_65", 0, 0], "name": null}]]}, {"class_name": "TFOpLambda", "config": {"name": "tf.__operators__.add_20", "trainable": true, "dtype": "float32", "function": "__operators__.add"}, "name": "tf.__operators__.add_20", "inbound_nodes": [["tf.__operators__.add_19", 0, 0, {"y": ["tf.math.multiply_65", 0, 0], "name": null}]]}, {"class_name": "Conv2D", "config": {"name": "conv2d_66", "trainable": true, "dtype": "float32", "filters": 512, "kernel_size": [1, 1], "strides": [1, 1], "padding": "same", "data_format": "channels_last", "dilation_rate": [1, 1], "groups": 1, "activation": "linear", "use_bias": false, "kernel_initializer": {"class_name": "RandomNormal", "config": {"mean": 0.0, "stddev": 0.01, "seed": null}}, "bias_initializer": {"class_name": "Constant", "config": {"value": 0.0}}, "kernel_regularizer": {"class_name": "L2", "config": {"l2": 0.0005000000237487257}}, "bias_regularizer": null, "activity_regularizer": null, "kernel_constraint": null, "bias_constraint": null}, "name": "conv2d_66", "inbound_nodes": [[["tf.__operators__.add_20", 0, 0, {}]]]}, {"class_name": "BatchNormalization", "config": {"name": "batch_normalization_66", "trainable": true, "dtype": "float32", "axis": [3], "momentum": 0.99, "epsilon": 0.001, "center": true, "scale": true, "beta_initializer": {"class_name": "Zeros", "config": {}}, "gamma_initializer": {"class_name": "Ones", "config": {}}, "moving_mean_initializer": {"class_name": "Zeros", "config": {}}, "moving_variance_initializer": {"class_name": "Ones", "config": {}}, "beta_regularizer": null, "gamma_regularizer": null, "beta_constraint": null, "gamma_constraint": null}, "name": "batch_normalization_66", "inbound_nodes": [[["conv2d_66", 0, 0, {}]]]}, {"class_name": "TFOpLambda", "config": {"name": "tf.math.softplus_66", "trainable": true, "dtype": "float32", "function": "math.softplus"}, "name": "tf.math.softplus_66", "inbound_nodes": [["batch_normalization_66", 0, 0, {}]]}, {"class_name": "TFOpLambda", "config": {"name": "tf.math.tanh_66", "trainable": true, "dtype": "float32", "function": "math.tanh"}, "name": "tf.math.tanh_66", "inbound_nodes": [["tf.math.softplus_66", 0, 0, {"name": null}]]}, {"class_name": "TFOpLambda", "config": {"name": "tf.math.multiply_66", "trainable": true, "dtype": "float32", "function": "math.multiply"}, "name": "tf.math.multiply_66", "inbound_nodes": [["batch_normalization_66", 0, 0, {"y": ["tf.math.tanh_66", 0, 0], "name": null}]]}, {"class_name": "Conv2D", "config": {"name": "conv2d_67", "trainable": true, "dtype": "float32", "filters": 512, "kernel_size": [3, 3], "strides": [1, 1], "padding": "same", "data_format": "channels_last", "dilation_rate": [1, 1], "groups": 1, "activation": "linear", "use_bias": false, "kernel_initializer": {"class_name": "RandomNormal", "config": {"mean": 0.0, "stddev": 0.01, "seed": null}}, "bias_initializer": {"class_name": "Constant", "config": {"value": 0.0}}, "kernel_regularizer": {"class_name": "L2", "config": {"l2": 0.0005000000237487257}}, "bias_regularizer": null, "activity_regularizer": null, "kernel_constraint": null, "bias_constraint": null}, "name": "conv2d_67", "inbound_nodes": [[["tf.math.multiply_66", 0, 0, {}]]]}, {"class_name": "BatchNormalization", "config": {"name": "batch_normalization_67", "trainable": true, "dtype": "float32", "axis": [3], "momentum": 0.99, "epsilon": 0.001, "center": true, "scale": true, "beta_initializer": {"class_name": "Zeros", "config": {}}, "gamma_initializer": {"class_name": "Ones", "config": {}}, "moving_mean_initializer": {"class_name": "Zeros", "config": {}}, "moving_variance_initializer": {"class_name": "Ones", "config": {}}, "beta_regularizer": null, "gamma_regularizer": null, "beta_constraint": null, "gamma_constraint": null}, "name": "batch_normalization_67", "inbound_nodes": [[["conv2d_67", 0, 0, {}]]]}, {"class_name": "TFOpLambda", "config": {"name": "tf.math.softplus_67", "trainable": true, "dtype": "float32", "function": "math.softplus"}, "name": "tf.math.softplus_67", "inbound_nodes": [["batch_normalization_67", 0, 0, {}]]}, {"class_name": "TFOpLambda", "config": {"name": "tf.math.tanh_67", "trainable": true, "dtype": "float32", "function": "math.tanh"}, "name": "tf.math.tanh_67", "inbound_nodes": [["tf.math.softplus_67", 0, 0, {"name": null}]]}, {"class_name": "TFOpLambda", "config": {"name": "tf.math.multiply_67", "trainable": true, "dtype": "float32", "function": "math.multiply"}, "name": "tf.math.multiply_67", "inbound_nodes": [["batch_normalization_67", 0, 0, {"y": ["tf.math.tanh_67", 0, 0], "name": null}]]}, {"class_name": "TFOpLambda", "config": {"name": "tf.__operators__.add_21", "tra…
 "float32", "function": "math.multiply"}, "name": "tf.math.multiply_79", "inbound_nodes": [["tf.math.exp_2", 0, 0, {"y": [[4.4375, 3.4375], [6.0, 7.59375], [14.34375, 12.53125]], "name": null}]]}, {"class_name": "TFOpLambda", "config": {"name": "tf.math.multiply_72", "trainable": true, "dtype": "float32", "function": "math.multiply"}, "name": "tf.math.multiply_72", "inbound_nodes": [["tf.__operators__.add_23", 0, 0, {"y": 8, "name": null}]]}, {"class_name": "TFOpLambda", "config": {"name": "tf.math.multiply_74", "trainable": true, "dtype": "float32", "function": "math.multiply"}, "name": "tf.math.multiply_74", "inbound_nodes": [["tf.math.multiply_73", 0, 0, {"y": 8, "name": null}]]}, {"class_name": "TFOpLambda", "config": {"name": "tf.math.multiply_75", "trainable": true, "dtype": "float32", "function": "math.multiply"}, "name": "tf.math.multiply_75", "inbound_nodes": [["tf.__operators__.add_24", 0, 0, {"y": 16, "name": null}]]}, {"class_name": "TFOpLambda", "config": {"name": "tf.math.multiply_77", "trainable": true, "dtype": "float32", "function": "math.multiply"}, "name": "tf.math.multiply_77", "inbound_nodes": [["tf.math.multiply_76", 0, 0, {"y": 16, "name": null}]]}, {"class_name": "TFOpLambda", "config": {"name": "tf.math.multiply_78", "trainable": true, "dtype": "float32", "function": "math.multiply"}, "name": "tf.math.multiply_78", "inbound_nodes": [["tf.__operators__.add_25", 0, 0, {"y": 32, "name": null}]]}, {"class_name": "TFOpLambda", "config": {"name": "tf.math.multiply_80", "trainable": true, "dtype": "float32", "function": "math.multiply"}, "name": "tf.math.multiply_80", "inbound_nodes": [["tf.math.multiply_79", 0, 0, {"y": 32, "name": null}]]}, {"class_name": "TFOpLambda", "config": {"name": "tf.concat_10", "trainable": true, "dtype": "float32", "function": "concat"}, "name": "tf.concat_10", "inbound_nodes": [[["tf.math.multiply_72", 0, 0, {"axis": -1}], ["tf.math.multiply_74", 0, 0, {"axis": -1}]]]}, {"class_name": "TFOpLambda", "config": {"name": "tf.math.sigmoid_1", "trainable": true, "dtype": "float32", "function": "math.sigmoid"}, "name": "tf.math.sigmoid_1", "inbound_nodes": [["tf.split", 0, 2, {}]]}, {"class_name": "TFOpLambda", "config": {"name": "tf.math.sigmoid_2", "trainable": true, "dtype": "float32", "function": "math.sigmoid"}, "name": "tf.math.sigmoid_2", "inbound_nodes": [["tf.split", 0, 3, {}]]}, {"class_name": "TFOpLambda", "config": {"name": "tf.concat_12", "trainable": true, "dtype": "float32", "function": "concat"}, "name": "tf.concat_12", "inbound_nodes": [[["tf.math.multiply_75", 0, 0, {"axis": -1}], ["tf.math.multiply_77", 0, 0, {"axis": -1}]]]}, {"class_name": "TFOpLambda", "config": {"name": "tf.math.sigmoid_4", "trainable": true, "dtype": "float32", "function": "math.sigmoid"}, "name": "tf.math.sigmoid_4", "inbound_nodes": [["tf.split_1", 0, 2, {}]]}, {"class_name": "TFOpLambda", "config": {"name": "tf.math.sigmoid_5", "trainable": true, "dtype": "float32", "function": "math.sigmoid"}, "name": "tf.math.sigmoid_5", "inbound_nodes": [["tf.split_1", 0, 3, {}]]}, {"class_name": "TFOpLambda", "config": {"name": "tf.concat_14", "trainable": true, "dtype": "float32", "function": "concat"}, "name": "tf.concat_14", "inbound_nodes": [[["tf.math.multiply_78", 0, 0, {"axis": -1}], ["tf.math.multiply_80", 0, 0, {"axis": -1}]]]}, {"class_name": "TFOpLambda", "config": {"name": "tf.math.sigmoid_7", "trainable": true, "dtype": "float32", "function": "math.sigmoid"}, "name": "tf.math.sigmoid_7", "inbound_nodes": [["tf.split_2", 0, 2, {}]]}, {"class_name": "TFOpLambda", "config": {"name": "tf.math.sigmoid_8", "trainable": true, "dtype": "float32", "function": "math.sigmoid"}, "name": "tf.math.sigmoid_8", "inbound_nodes": [["tf.split_2", 0, 3, {}]]}, {"class_name": "TFOpLambda", "config": {"name": "tf.concat_11", "trainable": true, "dtype": "float32", "function": "concat"}, "name": "tf.concat_11", "inbound_nodes": [[["tf.concat_10", 0, 0, {"axis": -1}], ["tf.math.sigmoid_1", 0, 0, {"axis": -1}], ["tf.math.sigmoid_2", 0, 0, {"axis": -1}]]]}, {"class_name": "TFOpLambda", "config": {"name": "tf.concat_13", "trainable": true, "dtype": "float32", "function": "concat"}, "name": "tf.concat_13", "inbound_nodes": [[["tf.concat_12", 0, 0, {"axis": -1}], ["tf.math.sigmoid_4", 0, 0, {"axis": -1}], ["tf.math.sigmoid_5", 0, 0, {"axis": -1}]]]}, {"class_name": "TFOpLambda", "config": {"name": "tf.concat_15", "trainable": true, "dtype": "float32", "function": "concat"}, "name": "tf.concat_15", "inbound_nodes": [[["tf.concat_14", 0, 0, {"axis": -1}], ["tf.math.sigmoid_7", 0, 0, {"axis": -1}], ["tf.math.sigmoid_8", 0, 0, {"axis": -1}]]]}], "input_layers": [["input_1", 0, 0]], "output_layers": [["tf.concat_11", 0, 0], ["tf.concat_13", 0, 0], ["tf.concat_15", 0, 0]]}}}, "weightsManifest": [{"paths": ["group1-shard1of62.bin", "group1-shard2of62.bin", "group1-shard3of62.bin", "group1-shard4of62.bin", "group1-shard5of62.bin", "group1-shard6of62.bin", "group1-shard7of62.bin", "group1-shard8of62.bin", "group1-shard9of62.bin", "group1-shard10of62.bin", "group1-shard11of62.bin", "group1-shard12of62.bin", "group1-shard13of62.bin", "group1-shard14of62.bin", "group1-shard15of62.bin", "group1-shard16of62.bin", "group1-shard17of62.bin", "group1-shard18of62.bin", "group1-shard19of62.bin", "group1-shard20of62.bin", "group1-shard21of62.bin", "group1-shard22of62.bin", "group1-shard23of62.bin", "group1-shard24of62.bin", "group1-shard25of62.bin", "group1-shard26of62.bin", "group1-shard27of62.bin", "group1-shard28of62.bin", "group1-shard29of62.bin", "group1-shard30of62.bin", "group1-shard31of62.bin", "group1-shard32of62.bin", "group1-shard33of62.bin", "group1-shard34of62.bin", "group1-shard35of62.bin", "group1-shard36of62.bin", "group1-shard37of62.bin", "group1-shard38of62.bin", "group1-shard39of62.bin", "group1-shard40of62.bin", "group1-shard41of62.bin", "group1-shard42of62.bin", "group1-shard43of62.bin", "group1-shard44of62.bin", "group1-shard45of62.bin", "group1-shard46of62.bin", "group1-shard47of62.bin", "group1-shard48of62.bin", "group1-shard49of62.bin", "group1-shard50of62.bin", "group1-shard51of62.bin", "group1-shard52of62.bin", "group1-shard53of62.bin", "group1-shard54of62.bin", "group1-shard55of62.bin", "group1-shard56of62.bin", "group1-shard57of62.bin", "group1-shard58of62.bin", "group1-shard59of62.bin", "group1-shard60of62.bin", "group1-shard61of62.bin", "group1-shard62of62.bin"], "weights": [{"name": "batch_normalization/gamma", "shape": [32], "dtype": "float32"}, {"name": "batch_normalization/beta", "shape": [32], "dtype": "float32"}, {"name": "batch_normalization/moving_mean", "shape": [32], "dtype": "float32"}, {"name": "batch_normalization/moving_variance", "shape": [32], "dtype": "float32"}, {"name": "batch_normalization_1/gamma", "shape": [64], "dtype": "float32"}, {"name": "batch_normalization_1/beta", "shape": [64], "dtype": "float32"}, {"name": "batch_normalization_1/moving_mean", "shape": [64], "dtype": "float32"}, {"name": "batch_normalization_1/moving_variance", "shape": [64], "dtype": "float32"}, {"name": "batch_normalization_10/gamma", "shape": [64], "dtype": "float32"}, {"name": "batch_normalization_10/beta", "shape": [64], "dtype": "float32"}, {"name": "batch_normalization_10/moving_mean", "shape": [64], "dtype": "float32"}, {"name": "batch_normalization_10/moving_variance", "shape": [64], "dtype": "float32"}, {"name": "batch_normalization_100/gamma", "shape": [512], "dtype": "float32"}, {"name": "batch_normalization_100/beta", "shape": [512], "dtype": "float32"}, {"name": "batch_normalization_100/moving_mean", "shape": [512], "dtype": "float32"}, {"name": "batch_normalization_100/moving_variance", "shape": [512], "dtype": "float32"}, {"name": "batch_normalization_101/gamma", "shape": [512], "dtype": "float32"}, {"name": "batch_normalization_101/beta", "shape": [512], "dtype": "float32"}, {"name": "batch_normalization_101/moving_mean", "shape": [512], "dtype": "float32"}, {"name": "batch_normalization_101/moving_variance", "shape": [512], "dtype": "float32"}, {"name": "batch_normalization_102/gamma", "shape": [1024], "dtype": "float32"}, {"name": "batch_normalization_102/beta", "shape": [1024], "dtype": "float32"}, {"name": "batch_normalization_102/moving_mean", "shape": [1024], "dtype": "float32"}, {"name": "batch_normalization_102/moving_variance", "shape": [1024], "dtype": "float32"}, {"name": "batch_normalization_103/gamma", "shape": [512], "dtype": "float32"}, {"name": "batch_normalization_103/beta", "shape": [512], "dtype": "float32"}, {"name": "batch_normalization_103/moving_mean", "shape": [512], "dtype": "float32"}, {"name": "batch_normalization_103/moving_variance", "shape": [512], "dtype": "float32"}, {"name": "batch_normalization_104/gamma", "shape": [1024], "dtype": "float32"}, {"name": "batch_normalization_104/beta", "shape": [1024], "dtype": "float32"}, {"name": "batch_normalization_104/moving_mean", "shape": [1024], "dtype": "float32"}, {"name": "batch_normalization_104/moving_variance", "shape": [1024], "dtype": "float32"}, {"name": "batch_normalization_105/gamma", "shape": [512], "dtype": "float32"}, {"name": "batch_normalization_105/beta", "shape": [512], "dtype": "float32"}, {"name": "batch_normalization_105/moving_mean", "shape": [512], "dtype": "float32"}, {"name": "batch_normalization_105/moving_variance", "shape": [512], "dtype": "float32"}, {"name": "batch_normalization_106/gamma", "shape": [1024], "dtype": "float32"}, {"name": "batch_normalization_106/beta", "shape": [1024], "dtype": "float32"}, {"name": "batch_normalization_106/moving_mean", "shape": [1024], "dtype": "float32"}, {"name": "batch_normalization_106/moving_variance", "shape": [1024], "dtype": "float32"}, {"name": "batch_normalization_11/gamma", "shape": [64], "dtype": "float32"}, {"name": "batch_normalization_11/beta", "shape": [64], "dtype": "float32"}, {"name": "batch_normalization_11/moving_mean", "shape": [64], "dtype": "float32"}, {"name": "batch_normalization_11/moving_variance", "shape": [64], "dtype": "float32"}, {"name": "batch_normalization_12/gamma", "shape": [64], "dtype": "float32"}, {"name": "batch_normalization_12/beta", "shape": [64], "dtype": "float32"}, {"name": "batch_normalization_12/moving_mean", "shape": [64], "dtype": "float32"}, {"name": "batch_normalization_12/moving_variance", "shape": [64], "dtype": "float32"}, {"name": "batch_normalization_13/gamma", "shape": [64], "dtype": "float32"}, {"name": "batch_normalization_13/beta", "shape": [64], "dtype": "float32"}, {"name": "batch_normalization_13/moving_mean", "shape": [64], "dtype": "float32"}, {"name": "batch_normalization_13/moving_variance", "shape": [64], "dtype": "float32"}, {"name": "batch_normalization_14/gamma", "shape": [64], "dtype": "float32"}, {"name": "batch_normalization_14/beta", "shape": [64], "dtype": "float32"}, {"name": "batch_normalization_14/moving_mean", "shape": [64], "dtype": "float32"}, {"name": "batch_normalization_14/moving_variance", "shape": [64], "dtype": "float32"}, {"name": "batch_normalization_15/gamma", "shape": [64], "dtype": "float32"}, {"name": "batch_normalization_15/beta", "shape": [64], "dtype": "float32"}, {"name": "batch_normalization_15/moving_mean", "shape": [64], "dtype": "float32"}, {"name": "batch_normalization_15/moving_variance", "shape": [64], "dtype": "float32"}, {"name": "batch_normalization_16/gamma", "shape": [128], "dtype": "float32"}, {"name": "batch_normalization_16/beta", "shape": [128], "dtype": "float32"}, {"name": "batch_normalization_16/moving_mean", "shape": [128], "dtype": "float32"}, {"name": "batch_normalization_16/moving_variance", "shape": [128], "dtype": "float32"}, {"name": "batch_normalization_17/gamma", "shape": [256], "dtype": "float32"}, {"name": "batch_normalization_17/beta", "shape": [256], "dtype": "float32"}, {"name": "batch_normalization_17/moving_mean", "shape": [256], "dtype": "float32"}, {"name": "batch_normalization_17/moving_variance", "shape": [256], "dtype": "float32"}, {"name": "batch_normalization_18/gamma", "shape": [128], "dtype": "float32"}, {"name": "batch_normalization_18/beta", "shape": [128], "dtype": "float32"}, {"name": "batch_normalization_18/moving_mean", "shape": [128], "dtype": "float32"}, {"name": "batch_normalization_18/moving_variance", "shape": [128], "dtype": "float32"}, {"name": "batch_normalization_19/gamma", "shape": [128], "dtype": "float32"}, {"name": "batch_normalization_19/beta", "shape": [128], "dtype": "float32"}, {"name": "batch_normalization_19/moving_mean", "shape": [128], "dtype": "float32"}, {"name": "batch_normalization_19/moving_variance", "shape": [128], "dtype": "float32"}, {"name": "batch_normalization_2/gamma", "shape": [64], "dtype": "float32"}, {"name": "batch_normalization_2/beta", "shape": [64], "dtype": "float32"}, {"name": "batch_normalization_2/moving_mean", "shape": [64], "dtype": "float32"}, {"name": "batch_normalization_2/moving_variance", "shape": [64], "dtype": "float32"}, {"name": "batch_normalization_20/gamma", "shape": [128], "dtype": "float32"}, {"name": "batch_normalization_20/beta", "shape": [128], "dtype": "float32"}, {"name": "batch_normalization_20/moving_mean", "shape": [128], "dtype": "float32"}, {"name": "batch_normalization_20/moving_variance", "shape": [128], "dtype": "float32"}, {"name": "batch_normalization_21/gamma", "shape": [128], "dtype": "float32"}, {"name": "batch_normalization_21/beta", "shape": [128], "dtype": "float32"}, {"name": "batch_normalization_21/moving_mean", "shape": [128], "dtype": "float32"}, {"name": "batch_normalization_21/moving_variance", "shape": [128], "dtype": "float32"}, {"name": "batch_normalization_22/gamma", "shape": [128], "dtype": "float32"}, {"name": "batch_normalization_22/beta", "shape": [128], "dtype": "float32"}, {"name": "batch_normalization_22/moving_mean", "shape": [128], "dtype": "float32"}, {"name": "batch_normalization_22/moving_variance", "shape": [128], "dtype": "float32"}, {"name": "batch_normalization_23/gamma", "shape": [128], "dtype": "float32"}, {"name": "batch_normalization_23/beta", "shape": [128], "dtype": "float32"}, {"name": "batch_normalization_23/moving_mean", "shape": [128], "dtype": "float32"}, {"name": "batch_normalization_23/moving_variance", "shape": [128], "dtype": "float32"}, {"name": "batch_normalization_24/gamma", "shape": [128], "dtype": "float32"}, {"name": "batch_normalization_24/beta", "shape": [128], "dtype": "float32"}, {"name": "batch_normalization_24/moving_mean", "shape": [128], "dtype": "float32"}, {"name": "batch_normalization_24/moving_variance", "shape": [128], "dtype": "float32"}, {"name": "batch_normalization_25/gamma", "shape": [128], "dtype": "float32"}, {"name": "batch_normalization_25/beta", "shape": [128], "dtype": "float32"}, {"name": "batch_normalization_25/moving_mean", "shape": [128], "dtype": "float32"}, {"name": "batch_normalization_25/moving_variance", "shape": [128], "dtype": "float32"}, {"name": "batch_normalization_26/gamma", "shape": [128], "dtype": "float32"}, {"name": "batch_normalization_26/beta", "shape": [128], "dtype": "float32"}, {"name": "batch_normalization_26/moving_mean", "shape": [128], "dtype": "float32"}, {"name": "batch_normalization_26/moving_variance", "shape": [128], "dtype": "float32"}, {"name": "batch_normalization_27/gamma", "shape": [128], "dtype": "float32"}, {"name": "batch_normalization_27/beta", "shape": [128], "dtype": "float32"}, {"name": "batch_normalization_27/moving_mean", "shape": [128], "dtype": "float32"}, {"name": "batch_normalization_27/moving_variance", "shape": [128], "dtype": "float32"}, {"name": "batch_normalization_28/gamma", "shape": [128], "dtype": "float32"}, {"name": "batch_normalization_28/beta", "shape": [128], "dtype": "float32"}, {"name": "batch_normalization_28/moving_mean", "shape": [128], "dtype": "float32"}, {"name": "batch_normalization_28/moving_variance", "shape": [128], "dtype": "float32"}, {"name": "batch_normalization_29/gamma", "shape": [128], "dtype": "float32"}, {"name": "batch_normalization_29/beta", "shape": [128], "dtype": "float32"}, {"name": "batch_normalization_29/moving_mean", "shape": [128], "dtype": "float32"}, {"name": "batch_normalization_29/moving_variance", "shape": [128], "dtype": "float32"}, {"name": "batch_normalization_3/gamma", "shape": [64], "dtype": "float32"}, {"name": "batch_normalization_3/beta", "shape": [64], "dtype": "float32"}, {"name": "batch_normalization_3/moving_mean", "shape": [64], "dtype": "float32"}, {"name": "batch_normalization_3/moving_variance", "shape": [64], "dtype": "float32"}, {"name": "batch_normalization_30/gamma", "shape": [128], "dtype": "float32"}, {"name": "batch_normalization_30/beta", "shape": [128], "dtype": "float32"}, {"name": "batch_normalization_30/moving_mean", "shape": [128], "dtype": "float32"}, {"name": "batch_normalization_30/moving_variance", "shape": [128], "dtype": "float32"}, {"name": "batch_normalization_31/gamma", "shape": [128], "dtype": "float32"}, {"name": "batch_normalization_31/beta", "shape": [128], "dtype": "float32"}, {"name": "batch_normalization_31/moving_mean", "shape": [128], "dtype": "float32"}, {"name": "batch_normalization_31/moving_variance", "shape": [128], "dtype": "float32"}, {"name": "batch_normalization_32/gamma", "shape": [128], "dtype": "float32"}, {"name": "batch_normalization_32/beta", "shape": [128], "dtype": "float32"}, {"name": "batch_normalization_32/moving_mean", "shape": [128], "dtype": "float32"}, {"name": "batch_normalization_32/moving_variance", "shape": [128], "dtype": "float32"}, {"name": "batch_normalization_33/gamma", "shape": [128], "dtype": "float32"}, {"name": "batch_normalization_33/beta", "shape": [128], "dtype": "float32"}, {"name": "batch_normalization_33/moving_mean", "shape": [128], "dtype": "float32"}, {"name": "batch_normalization_33/moving_variance", "shape": [128], "dtype": "float32"}, {"name": "batch_normalization_34/gamma", "shape": [128], "dtype": "float32"}, {"name": "batch_normalization_34/beta", "shape": [128], "dtype": "float32"}, {"name": "batch_normalization_34/moving_mean", "shape": [128], "dtype": "float32"}, {"name": "batch_normalization_34/moving_variance", "shape": [128], "dtype": "float32"}, {"name": "batch_normalization_35/gamma", "shape": [128], "dtype": "float32"}, {"name": "batch_normalization_35/beta", "shape": [128], "dtype": "float32"}, {"name": "batch_normalization_35/moving_mean", "shape": [128], "dtype": "float32"}, {"name": "batch_normalization_35/moving_variance", "shape": [128], "dtype": "float32"}, {"name": "batch_normalization_36/gamma", "shape": [128], "dtype": "float32"}, {"name": "batch_normalization_36/beta", "shape": [128], "dtype": "float32"}, {"name": "batch_normalization_36/moving_mean", "shape": [128], "dtype": "float32"}, {"name": "batch_normalization_36/moving_variance", "shape": [128], "dtype": "float32"}, {"name": "batch_normalization_37/gamma", "shape": [256], "dtype": "float32"}, {"name": "batch_normalization_37/beta", "shape": [256], "dtype": "float32"}, {"name": "batch_normalization_37/moving_mean", "shape": [256], "dtype": "float32"}, {"name": "batch_normalization_37/moving_variance", "shape": [256], "dtype": "float32"}, {"name": "batch_normalization_38/gamma", "shape": [512], "dtype": "float32"}, {"name": "batch_normalization_38/beta", "shape": [512], "dtype": "float32"}, {"name": "batch_normalization_38/moving_mean", "shape": [512], "dtype": "float32"}, {"name": "batch_normalization_38/moving_variance", "shape": [512], "dtype": "float32"}, {"name": "batch_normalization_39/gamma", "shape": [256], "dtype": "float32"}, {"name": "batch_normalization_39/beta", "shape": [256], "dtype": "float32"}, {"name": "batch_normalization_39/moving_mean", "shape": [256], "dtype": "float32"}, {"name": "batch_normalization_39/moving_variance", "shape": [256], "dtype": "float32"}, {"name": "batch_normalization_4/gamma", "shape": [32], "dtype": "float32"}, {"name": "batch_normalization_4/beta", "shape": [32], "dtype": "float32"}, {"name": "batch_normalization_4/moving_mean", "shape": [32], "dtype": "float32"}, {"name": "batch_normalization_4/moving_variance", "shape": [32], "dtype": "float32"}, {"name": "batch_normalization_40/gamma", "shape": [256], "dtype": "float32"}, {"name": "batch_normalization_40/beta", "shape": [256], "dtype": "float32"}, {"name": "batch_normalization_40/moving_mean", "shape": [256], "dtype": "float32"}, {"name": "batch_normalization_40/moving_variance", "shape": [256], "dtype": "float32"}, {"name": "batch_normalization_41/gamma", "shape": [256], "dtype": "float32"}, {"name": "batch_normalization_41/beta", "shape": [256], "dtype": "float32"}, {"name": "batch_normalization_41/moving_mean", "shape": [256], "dtype": "float32"}, {"name": "batch_normalization_41/moving_variance", "shape": [256], "dtype": "float32"}, {"name": "batch_normalization_42/gamma", "shape": [256], "dtype": "float32"}, {"name": "batch_normalization_42/beta", "shape": [256], "dtype": "float32"}, {"name": "batch_normalization_42/moving_mean", "shape": [256], "dtype": "float32"}, {"name": "batch_normalization_42/moving_variance", "shape": [256], "dtype": "float32"}, {"name": "batch_normalization_43/gamma", "shape": [256], "dtype": "float32"}, {"name": "batch_normalization_43/beta", "shape": [256], "dtype": "float32"}, {"name": "batch_normalization_43/moving_mean", "shape": [256], "dtype": "float32"}, {"name": "batch_normalization_43/moving_variance", "shape": [256], "dtype": "float32"}, {"name": "batch_normalization_44/gamma", "shape": [256], "dtype": "float32"}, {"name": "batch_normalization_44/beta", "shape": [256], "dtype": "float32"}, {"name": "batch_normalization_44/moving_mean", "shape": [256], "dtype": "float32"}, {"name": "batch_normalization_44/moving_variance", "shape": [256], "dtype": "float32"}, {"name": "batch_normalization_45/gamma", "shape": [256], "dtype": "float32"}, {"name": "batch_normalization_45/beta", "shape": [256], "dtype": "float32"}, {"name": "batch_normalization_45/moving_mean", "shape": [256], "dtype": "float32"}, {"name": "batch_normalization_45/moving_variance", "shape": [256], "dtype": "float32"}, {"name": "batch_normalization_46/gamma", "shape": [256], "dtype": "float32"}, {"name": "batch_normalization_46/beta", "shape": [256], "dtype": "float32"}, {"name": "batch_normalization_46/moving_mean", "shape": [256], "dtype": "float32"}, {"name": "batch_normalization_46/moving_variance", "shape": [256], "dtype": "float32"}, {"name": "batch_normalization_47/gamma", "shape": [256], "dtype": "float32"}, {"name": "batch_normalization_47/beta", "shape": [256], "dtype": "float32"}, {"name": "batch_normalization_47/moving_mean", "shape": [256], "dtype": "float32"}, {"name": "batch_normalization_47/moving_variance", "shape": [256], "dtype": "float32"}, {"name": "batch_normalization_48/gamma", "shape": [256], "dtype": "float32"}, {"name": "batch_normalization_48/beta", "shape": [256], "dtype": "float32"}, {"name": "batch_normalization_48/moving_mean", "shape": [256], "dtype": "float32"}, {"name": "batch_normalization_48/moving_variance", "shape": [256], "dtype": "float32"}, {"name": "batch_normalization_49/gamma", "shape": [256], "dtype": "float32"}, {"name": "batch_normalization_49/beta", "shape": [256], "dtype": "float32"}, {"name": "batch_normalization_49/moving_mean", "shape": [256], "dtype": "float32"}, {"name": "batch_normalization_49/moving_variance", "shape": [256], "dtype": "float32"}, {"name": "batch_normalization_5/gamma", "shape": [64], "dtype": "float32"}, {"name": "batch_normalization_5/beta", "shape": [64], "dtype": "float32"}, {"name": "batch_normalization_5/moving_mean", "shape": [64], "dtype": "float32"}, {"name": "batch_normalization_5/moving_variance", "shape": [64], "dtype": "float32"}, {"name": "batch_normalization_50/gamma", "shape": [256], "dtype": "float32"}, {"name": "batch_normalization_50/beta", "shape": [256], "dtype": "float32"}, {"name": "batch_normalization_50/moving_mean", "shape": [256], "dtype": "float32"}, {"name": "batch_normalization_50/moving_variance", "shape": [256], "dtype": "float32"}, {"name": "batch_normalization_51/gamma", "shape": [256], "dtype": "float32"}, {"name": "batch_normalization_51/beta", "shape": [256], "dtype": "float32"}, {"name": "batch_normalization_51/moving_mean", "shape": [256], "dtype": "float32"}, {"name": "batch_normalization_51/moving_variance", "shape": [256], "dtype": "float32"}, {"name": "batch_normalization_52/gamma", "shape": [256], "dtype": "float32"}, {"name": "batch_normalization_52/beta", "shape": [256], "dtype": "float32"}, {"name": "batch_normalization_52/moving_mean", "shape": [256], "dtype": "float32"}, {"name": "batch_normalization_52/moving_variance", "shape": [256], "dtype": "float32"}, {"name": "batch_normalization_53/gamma", "shape": [256], "dtype": "float32"}, {"name": "batch_normalization_53/beta", "shape": [256], "dtype": "float32"}, {"name": "batch_normalization_53/moving_mean", "shape": [256], "dtype": "float32"}, {"name": "batch_normalization_53/moving_variance", "shape": [256], "dtype": "float32"}, {"name": "batch_normalization_54/gamma", "shape": [256], "dtype": "float32"}, {"name": "batch_normalization_54/beta", "shape": [256], "dtype": "float32"}, {"name": "batch_normalization_54/moving_mean", "shape": [256], "dtype": "float32"}, {"name": "batch_normalization_54/moving_variance", "shape": [256], "dtype": "float32"}, {"name": "batch_normalization_55/gamma", "shape": [256], "dtype": "float32"}, {"name": "batch_normalization_55/beta", "shape": [256], "dtype": "float32"}, {"name": "batch_normalization_55/moving_mean", "shape": [256], "dtype": "float32"}, {"name": "batch_normalization_55/moving_variance", "shape": [256], "dtype": "float32"}, {"name": "batch_normalization_56/gamma", "shape": [256], "dtype": "float32"}, {"name": "batch_normalization_56/beta", "shape": [256], "dtype": "float32"}, {"name": "batch_normalization_56/moving_mean", "shape": [256], "dtype": "float32"}, {"name": "batch_normalization_56/moving_variance", "shape": [256], "dtype": "float32"}, {"name": "batch_normalization_57/gamma", "shape": [256], "dtype": "float32"}, {"name": "batch_normalization_57/beta", "shape": [256], "dtype": "float32"}, {"name": "batch_normalization_57/moving_mean", "shape": [256], "dtype": "float32"}, {"name": "batch_normalization_57/moving_variance", "shape": [256], "dtype": "float32"}, {"name": "batch_normalization_58/gamma", "shape": [512], "dtype": "float32"}, {"name": "batch_normalization_58/beta", "shape": [512], "dtype": "float32"}, {"name": "batch_normalization_58/moving_mean", "shape": [512], "dtype": "float32"}, {"name": "batch_normalization_58/moving_variance", "shape": [512], "dtype": "float32"}, {"name": "batch_normalization_59/gamma", "shape": [1024], "dtype": "float32"}, {"name": "batch_normalization_59/beta", "shape": [1024], "dtype": "float32"}, {"name": "batch_normalization_59/moving_mean", "shape": [1024], "dtype": "float32"}, {"name": "batch_normalization_59/moving_variance", "shape": [1024], "dtype": "float32"}, {"name": "batch_normalization_6/gamma", "shape": [64], "dtype": "float32"}, {"name": "batch_normalization_6/beta", "shape": [64], "dtype": "float32"}, {"name": "batch_normalization_6/moving_mean", "shape": [64], "dtype": "float32"}, {"name": "batch_normalization_6/moving_variance", "shape": [64], "dtype": "float32"}, {"name": "batch_normalization_60/gamma", "shape": [512], "dtype": "float32"}, {"name": "batch_normalization_60/beta", "shape": [512], "dtype": "float32"}, {"name": "batch_normalization_60/moving_mean", "shape": [512], "dtype": "float32"}, {"name": "batch_normalization_60/moving_variance", "shape": [512], "dtype": "float32"}, {"name": "batch_normalization_61/gamma", "shape": [512], "dtype": "float32"}, {"name": "batch_normalization_61/beta", "shape": [512], "dtype": "float32"}, {"name": "batch_normalization_61/moving_mean", "shape": [512], "dtype": "float32"}, {"name": "batch_normalization_61/moving_variance", "shape": [512], "dtype": "float32"}, {"name": "batch_normalization_62/gamma", "shape": [512], "dtype": "float32"}, {"name": "batch_normalization_62/beta", "shape": [512], "dtype": "float32"}, {"name": "batch_normalization_62/moving_mean", "shape": [512], "dtype": "float32"}, {"name": "batch_normalization_62/moving_variance", "shape": [512], "dtype": "float32"}, {"name": "batch_normalization_63/gamma", "shape": [512], "dtype": "float32"}, {"name": "batch_normalization_63/beta", "shape": [512], "dtype": "float32"}, {"name": "batch_normalization_63/moving_mean", "shape": [512], "dtype": "float32"}, {"name": "batch_normalization_63/moving_variance", "shape": [512], "dtype": "float32"}, {"name": "batch_normalization_64/gamma", "shape": [512], "dtype": "float32"}, {"name": "batch_normalization_64/beta", "shape": [512], "dtype": "float32"}, {"name": "batch_normalization_64/moving_mean", "shape": [512], "dtype": "float32"}, {"name": "batch_normalization_64/moving_variance", "shape": [512], "dtype": "float32"}, {"name": "batch_normalization_65/gamma", "shape": [512], "dtype": "float32"}, {"name": "batch_normalization_65/beta", "shape": [512], "dtype": "float32"}, {"name": "batch_normalization_65/moving_mean", "shape": [512], "dtype": "float32"}, {"name": "batch_normalization_65/moving_variance", "shape": [512], "dtype": "float32"}, {"name": "batch_normalization_66/gamma", "shape": [512], "dtype": "float32"}, {"name": "batch_normalization_66/beta", "shape": [512], "dtype": "float32"}, {"name": "batch_normalization_66/moving_mean", "shape": [512], "dtype": "float32"}, {"name": "batch_normalization_66/moving_variance", "shape": [512], "dtype": "float32"}, {"name": "batch_normalization_67/gamma", "shape": [512], "dtype": "float32"}, {"name": "batch_normalization_67/beta", "shape": [512], "dtype": "float32"}, {"name": "batch_normalization_67/moving_mean", "shape": [512], "dtype": "float32"}, {"name": "batch_normalization_67/moving_variance", "shape": [512], "dtype": "float32"}, {"name": "batch_normalization_68/gamma", "shape": [512], "dtype": "float32"}, {"name": "batch_normalization_68/beta", "shape": [512], "dtype": "float32"}, {"name": "batch_normalization_68/moving_mean", "shape": [512], "dtype": "float32"}, {"name": "batch_normalization_68/moving_variance", "shape": [512], "dtype": "float32"}, {"name": "batch_normalization_69/gamma", "shape": [512], "dtype": "float32"}, {"name": "batch_normalization_69/beta", "shape": [512], "dtype": "float32"}, {"name": "batch_normalization_69/moving_mean", "shape": [512], "dtype": "float32"}, {"name": "batch_normalization_69/moving_variance", "shape": [512], "dtype": "float32"}, {"name": "batch_normalization_7/gamma", "shape": [64], "dtype": "float32"}, {"name": "batch_normalization_7/beta", "shape": [64], "dtype": "float32"}, {"name": "batch_normalization_7/moving_mean", "shape": [64], "dtype": "float32"}, {"name": "batch_normalization_7/moving_variance", "shape": [64], "dtype": "float32"}, {"name": "batch_normalization_70/gamma", "shape": [512], "dtype": "float32"}, {"name": "batch_normalization_70/beta", "shape": [512], "dtype": "float32"}, {"name": "batch_normalization_70/moving_mean", "shape": [512], "dtype": "float32"}, {"name": "batch_normalization_70/moving_variance", "shape": [512], "dtype": "float32"}, {"name": "batch_normalization_71/gamma", "shape": [1024], "dtype": "float32"}, {"name": "batch_normalization_71/beta", "shape": [1024], "dtype": "float32"}, {"name": "batch_normalization_71/moving_mean", "shape": [1024], "dtype": "float32"}, {"name": "batch_normalization_71/moving_variance", "shape": [1024], "dtype": "float32"}, {"name": "batch_normalization_72/gamma", "shape": [512], "dtype": "float32"}, {"name": "batch_normalization_72/beta", "shape": [512], "dtype": "float32"}, {"name": "batch_normalization_72/moving_mean", "shape": [512], "dtype": "float32"}, {"name": "batch_normalization_72/moving_variance", "shape": [512], "dtype": "float32"}, {"name": "batch_normalization_73/gamma", "shape": [1024], "dtype": "float32"}, {"name": "batch_normalization_73/beta", "shape": [1024], "dtype": "float32"}, {"name": "batch_normalization_73/moving_mean", "shape": [1024], "dtype": "float32"}, {"name": "batch_normalization_73/moving_variance", "shape": [1024], "dtype": "float32"}, {"name": "batch_normalization_74/gamma", "shape": [512], "dtype": "float32"}, {"name": "batch_normalization_74/beta", "shape": [512], "dtype": "float32"}, {"name": "batch_normalization_74/moving_mean", "shape": [512], "dtype": "float32"}, {"name": "batch_normalization_74/moving_variance", "shape": [512], "dtype": "float32"}, {"name": "batch_normalization_75/gamma", "shape": [512], "dtype": "float32"}, {"name": "batch_normalization_75/beta", "shape": [512], "dtype": "float32"}, {"name": "batch_normalization_75/moving_mean", "shape": [512], "dtype": "float32"}, {"name": "batch_normalization_75/moving_variance", "shape": [512], "dtype": "float32"}, {"name": "batch_normalization_76/gamma", "shape": [1024], "dtype": "float32"}, {"name": "batch_normalization_76/beta", "shape": [1024], "dtype": "float32"}, {"name": "batch_normalization_76/moving_mean", "shape": [1024], "dtype": "float32"}, {"name": "batch_normalization_76/moving_variance", "shape": [1024], "dtype": "float32"}, {"name": "batch_normalization_77/gamma", "shape": [512], "dtype": "float32"}, {"name": "batch_normalization_77/beta", "shape": [512], "dtype": "float32"}, {"name": "batch_normalization_77/moving_mean", "shape": [512], "dtype": "float32"}, {"name": "batch_normalization_77/moving_variance", "shape": [512], "dtype": "float32"}, {"name": "batch_normalization_78/gamma", "shape": [256], "dtype": "float32"}, {"name": "batch_normalization_78/beta", "shape": [256], "dtype": "float32"}, {"name": "batch_normalization_78/moving_mean", "shape": [256], "dtype": "float32"}, {"name": "batch_normalization_78/moving_variance", "shape": [256], "dtype": "float32"}, {"name": "batch_normalization_79/gamma", "shape": [256], "dtype": "float32"}, {"name": "batch_normalization_79/beta", "shape": [256], "dtype": "float32"}, {"name": "batch_normalization_79/moving_mean", "shape": [256], "dtype": "float32"}, {"name": "batch_normalization_79/moving_variance", "shape": [256], "dtype": "float32"}, {"name": "batch_normalization_8/gamma", "shape": [128], "dtype": "float32"}, {"name": "batch_normalization_8/beta", "shape": [128], "dtype": "float32"}, {"name": "batch_normalization_8/moving_mean", "shape": [128], "dtype": "float32"}, {"name": "batch_normalization_8/moving_variance", "shape": [128], "dtype": "float32"}, {"name": "batch_normalization_80/gamma", "shape": [256], "dtype": "float32"}, {"name": "batch_normalization_80/beta", "shape": [256], "dtype": "float32"}, {"name": "batch_normalization_80/moving_mean", "shape": [256], "dtype": "float32"}, {"name": "batch_normalization_80/moving_variance", "shape": [256], "dtype": "float32"}, {"name": "batch_normalization_81/gamma", "shape": [512], "dtype": "float32"}, {"name": "batch_normalization_81/beta", "shape": [512], "dtype": "float32"}, {"name": "batch_normalization_81/moving_mean", "shape": [512], "dtype": "float32"}, {"name": "batch_normalization_81/moving_variance", "shape": [512], "dtype": "float32"}, {"name": "batch_normalization_82/gamma", "shape": [256], "dtype": "float32"}, {"name": "batch_normalization_82/beta", "shape": [256], "dtype": "float32"}, {"name": "batch_normalization_82/moving_mean", "shape": [256], "dtype": "float32"}, {"name": "batch_normalization_82/moving_variance", "shape": [256], "dtype": "float32"}, {"name": "batch_normalization_83/gamma", "shape": [512], "dtype": "float32"}, {"name": "batch_normalization_83/beta", "shape": [512], "dtype": "float32"}, {"name": "batch_normalization_83/moving_mean", "shape": [512], "dtype": "float32"}, {"name": "batch_normalization_83/moving_variance", "shape": [512], "dtype": "float32"}, {"name": "batch_normalization_84/gamma", "shape": [256], "dtype": "float32"}, {"name": "batch_normalization_84/beta", "shape": [256], "dtype": "float32"}, {"name": "batch_normalization_84/moving_mean", "shape": [256], "dtype": "float32"}, {"name": "batch_normalization_84/moving_variance", "shape": [256], "dtype": "float32"}, {"name": "batch_normalization_85/gamma", "shape": [128], "dtype": "float32"}, {"name": "batch_normalization_85/beta", "shape": [128], "dtype": "float32"}, {"name": "batch_normalization_85/moving_mean", "shape": [128], "dtype": "float32"}, {"name": "batch_normalization_85/moving_variance", "shape": [128], "dtype": "float32"}, {"name": "batch_normalization_86/gamma", "shape": [128], "dtype": "float32"}, {"name": "batch_normalization_86/beta", "shape": [128], "dtype": "float32"}, {"name": "batch_normalization_86/moving_mean", "shape": [128], "dtype": "float32"}, {"name": "batch_normalization_86/moving_variance", "shape": [128], "dtype": "float32"}, {"name": "batch_normalization_87/gamma", "shape": [128], "dtype": "float32"}, {"name": "batch_normalization_87/beta", "shape": [128], "dtype": "float32"}, {"name": "batch_normalization_87/moving_mean", "shape": [128], "dtype": "float32"}, {"name": "batch_normalization_87/moving_variance", "shape": [128], "dtype": "float32"}, {"name": "batch_normalization_88/gamma", "shape": [256], "dtype": "float32"}, {"name": "batch_normalization_88/beta", "shape": [256], "dtype": "float32"}, {"name": "batch_normalization_88/moving_mean", "shape": [256], "dtype": "float32"}, {"name": "batch_normalization_88/moving_variance", "shape": [256], "dtype": "float32"}, {"name": "batch_normalization_89/gamma", "shape": [128], "dtype": "float32"}, {"name": "batch_normalization_89/beta", "shape": [128], "dtype": "float32"}, {"name": "batch_normalization_89/moving_mean", "shape": [128], "dtype": "float32"}, {"name": "batch_normalization_89/moving_variance", "shape": [128], "dtype": "float32"}, {"name": "batch_normalization_9/gamma", "shape": [64], "dtype": "float32"}, {"name": "batch_normalization_9/beta", "shape": [64], "dtype": "float32"}, {"name": "batch_normalization_9/moving_mean", "shape": [64], "dtype": "float32"}, {"name": "batch_normalization_9/moving_variance", "shape": [64], "dtype": "float32"}, {"name": "batch_normalization_90/gamma", "shape": [256], "dtype": "float32"}, {"name": "batch_normalization_90/beta", "shape": [256], "dtype": "float32"}, {"name": "batch_normalization_90/moving_mean", "shape": [256], "dtype": "float32"}, {"name": "batch_normalization_90/moving_variance", "shape": [256], "dtype": "float32"}, {"name": "batch_normalization_91/gamma", "shape": [128], "dtype": "float32"}, {"name": "batch_normalization_91/beta", "shape": [128], "dtype": "float32"}, {"name": "batch_normalization_91/moving_mean", "shape": [128], "dtype": "float32"}, {"name": "batch_normalization_91/moving_variance", "shape": [128], "dtype": "float32"}, {"name": "batch_normalization_92/gamma", "shape": [256], "dtype": "float32"}, {"name": "batch_normalization_92/beta", "shape": [256], "dtype": "float32"}, {"name": "batch_normalization_92/moving_mean", "shape": [256], "dtype": "float32"}, {"name": "batch_normalization_92/moving_variance", "shape": [256], "dtype": "float32"}, {"name": "batch_normalization_93/gamma", "shape": [256], "dtype": "float32"}, {"name": "batch_normalization_93/beta", "shape": [256], "dtype": "float32"}, {"name": "batch_normalization_93/moving_mean", "shape": [256], "dtype": "float32"}, {"name": "batch_normalization_93/moving_variance", "shape": [256], "dtype": "float32"}, {"name": "batch_normalization_94/gamma", "shape": [256], "dtype": "float32"}, {"name": "batch_normalization_94/beta", "shape": [256], "dtype": "float32"}, {"name": "batch_normalization_94/moving_mean", "shape": [256], "dtype": "float32"}, {"name": "batch_normalization_94/moving_variance", "shape": [256], "dtype": "float32"}, {"name": "batch_normalization_95/gamma", "shape": [512], "dtype": "float32"}, {"name": "batch_normalization_95/beta", "shape": [512], "dtype": "float32"}, {"name": "batch_normalization_95/moving_mean", "shape": [512], "dtype": "float32"}, {"name": "batch_normalization_95/moving_variance", "shape": [512], "dtype": "float32"}, {"name": "batch_normalization_96/gamma", "shape": [256], "dtype": "float32"}, {"name": "batch_normalization_96/beta", "shape": [256], "dtype": "float32"}, {"name": "batch_normalization_96/moving_mean", "shape": [256], "dtype": "float32"}, {"name": "batch_normalization_96/moving_variance", "shape": [256], "dtype": "float32"}, {"name": "batch_normalization_97/gamma", "shape": [512], "dtype": "float32"}, {"name": "batch_normalization_97/beta", "shape": [512], "dtype": "float32"}, {"name": "batch_normalization_97/moving_mean", "shape": [512], "dtype": "float32"}, {"name": "batch_normalization_97/moving_variance", "shape": [512], "dtype": "float32"}, {"name": "batch_normalization_98/gamma", "shape": [256], "dtype": "float32"}, {"name": "batch_normalization_98/beta", "shape": [256], "dtype": "float32"}, {"name": "batch_normalization_98/moving_mean", "shape": [256], "dtype": "float32"}, {"name": "batch_normalization_98/moving_variance", "shape": [256], "dtype": "float32"}, {"name": "batch_normalization_99/gamma", "shape": [512], "dtype": "float32"}, {"name": "batch_normalization_99/beta", "shape": [512], "dtype": "float32"}, {"name": "batch_normalization_99/moving_mean", "shape": [512], "dtype": "float32"}, {"name": "batch_normalization_99/moving_variance", "shape": [512], "dtype": "float32"}, {"name": "conv2d/kernel", "shape": [3, 3, 3, 32], "dtype": "float32"}, {"name": "conv2d_1/kernel", "shape": [3, 3, 32, 64], "dtype": "float32"}, {"name": "conv2d_10/kernel", "shape": [1, 1, 128, 64], "dtype": "float32"}, {"name": "conv2d_100/kernel", "shape": [3, 3, 256, 512], "dtype": "float32"}, {"name": "conv2d_101/kernel", "shape": [1, 1, 512, 255], "dtype": "float32"}, {"name": "conv2d_101/bias", "shape": [255], "dtype": "float32"}, {"name": "conv2d_102/kernel", "shape": [3, 3, 256, 512], "dtype": "float32"}, {"name": "conv2d_103/kernel", "shape": [1, 1, 1024, 512], "dtype": "float32"}, {"name": "conv2d_104/kernel", "shape": [3, 3, 512, 1024], "dtype": "float32"}, {"name": "conv2d_105/kernel", "shape": [1, 1, 1024, 512], "dtype": "float32"}, {"name": "conv2d_106/kernel", "shape": [3, 3, 512, 1024], "dtype": "float32"}, {"name": "conv2d_107/kernel", "shape": [1, 1, 1024, 512], "dtype": "float32"}, {"name": "conv2d_108/kernel", "shape": [3, 3, 512, 1024], "dtype": "float32"}, {"name": "conv2d_109/kernel", "shape": [1, 1, 1024, 255], "dtype": "float32"}, {"name": "conv2d_109/bias", "shape": [255], "dtype": "float32"}, {"name": "conv2d_11/kernel", "shape": [1, 1, 64, 64], "dtype": "float32"}, {"name": "conv2d_12/kernel", "shape": [3, 3, 64, 64], "dtype": "float32"}, {"name": "conv2d_13/kernel", "shape": [1, 1, 64, 64], "dtype": "float32"}, {"name": "conv2d_14/kernel", "shape": [3, 3, 64, 64], "dtype": "float32"}, {"name": "conv2d_15/kernel", "shape": [1, 1, 64, 64], "dtype": "float32"}, {"name": "conv2d_16/kernel", "shape": [1, 1, 128, 128], "dtype": "float32"}, {"name": "conv2d_17/kernel", "shape": [3, 3, 128, 256], "dtype": "float32"}, {"name": "conv2d_18/kernel", "shape": [1, 1, 256, 128], "dtype": "float32"}, {"name": "conv2d_19/kernel", "shape": [1, 1, 256, 128], "dtype": "float32"}, {"name": "conv2d_2/kernel", "shape": [1, 1, 64, 64], "dtype": "float32"}, {"name": "conv2d_20/kernel", "shape": [1, 1, 128, 128], "dtype": "float32"}, {"name": "conv2d_21/kernel", "shape": [3, 3, 128, 128], "dtype": "float32"}, {"name": "conv2d_22/kernel", "shape": [1, 1, 128, 128], "dtype": "float32"}, {"name": "conv2d_23/kernel", "shape": [3, 3, 128, 128], "dtype": "float32"}, {"name": "conv2d_24/kernel", "shape": [1, 1, 128, 128], "dtype": "float32"}, {"name": "conv2d_25/kernel", "shape": [3, 3, 128, 128], "dtype": "float32"}, {"name": "conv2d_26/kernel", "shape": [1, 1, 128, 128], "dtype": "float32"}, {"name": "conv2d_27/kernel", "shape": [3, 3, 128, 128], "dtype": "float32"}, {"name": "conv2d_28/kernel", "shape": [1, 1, 128, 128], "dtype": "float32"}, {"name": "conv2d_29/kernel", "shape": [3, 3, 128, 128], "dtype": "float32"}, {"name": "conv2d_3/kernel", "shape": [1, 1, 64, 64], "dtype": "float32"}, {"name": "conv2d_30/kernel", "shape": [1, 1, 128, 128], "dtype": "float32"}, {"name": "conv2d_31/kernel", "shape": [3, 3, 128, 128], "dtype": "float32"}, {"name": "conv2d_32/kernel", "shape": [1, 1, 128, 128], "dtype": "float32"}, {"name": "conv2d_33/kernel", "shape": [3, 3, 128, 128], "dtype": "float32"}, {"name": "conv2d_34/kernel", "shape": [1, 1, 128, 128], "dtype": "float32"}, {"name": "conv2d_35/kernel", "shape": [3, 3, 128, 128], "dtype": "float32"}, {"name": "conv2d_36/kernel", "shape": [1, 1, 128, 128], "dtype": "float32"}, {"name": "conv2d_37/kernel", "shape": [1, 1, 256, 256], "dtype": "float32"}, {"name": "conv2d_38/kernel", "shape": [3, 3, 256, 512], "dtype": "float32"}, {"name": "conv2d_39/kernel", "shape": [1, 1, 512, 256], "dtype": "float32"}, {"name": "conv2d_4/kernel", "shape": [1, 1, 64, 32], "dtype": "float32"}, {"name": "conv2d_40/kernel", "shape": [1, 1, 512, 256], "dtype": "float32"}, {"name": "conv2d_41/kernel", "shape": [1, 1, 256, 256], "dtype": "float32"}, {"name": "conv2d_42/kernel", "shape": [3, 3, 256, 256], "dtype": "float32"}, {"name": "conv2d_43/kernel", "shape": [1, 1, 256, 256], "dtype": "float32"}, {"name": "conv2d_44/kernel", "shape": [3, 3, 256, 256], "dtype": "float32"}, {"name": "conv2d_45/kernel", "shape": [1, 1, 256, 256], "dtype": "float32"}, {"name": "conv2d_46/kernel", "shape": [3, 3, 256, 256], "dtype": "float32"}, {"name": "conv2d_47/kernel", "shape": [1, 1, 256, 256], "dtype": "float32"}, {"name": "conv2d_48/kernel", "shape": [3, 3, 256, 256], "dtype": "float32"}, {"name": "conv2d_49/kernel", "shape": [1, 1, 256, 256], "dtype": "float32"}, {"name": "conv2d_5/kernel", "shape": [3, 3, 32, 64], "dtype": "float32"}, {"name": "conv2d_50/kernel", "shape": [3, 3, 256, 256], "dtype": "float32"}, {"name": "conv2d_51/kernel", "shape": [1, 1, 256, 256], "dtype": "float32"}, {"name": "conv2d_52/kernel", "shape": [3, 3, 256, 256], "dtype": "float32"}, {"name": "conv2d_53/kernel", "shape": [1, 1, 256, 256], "dtype": "float32"}, {"name": "conv2d_54/kernel", "shape": [3, 3, 256, 256], "dtype": "float32"}, {"name": "conv2d_55/kernel", "shape": [1, 1, 256, 256], "dtype": "float32"}, {"name": "conv2d_56/kernel", "shape": [3, 3, 256, 256], "dtype": "float32"}, {"name": "conv2d_57/kernel", "shape": [1, 1, 256, 256], "dtype": "float32"}, {"name": "conv2d_58/kernel", "shape": [1, 1, 512, 512], "dtype": "float32"}, {"name": "conv2d_59/kernel", "shape": [3, 3, 512, 1024], "dtype": "float32"}, {"name": "conv2d_6/kernel", "shape": [1, 1, 64, 64], "dtype": "float32"}, {"name": "conv2d_60/kernel", "shape": [1, 1, 1024, 512], "dtype": "float32"}, {"name": "conv2d_61/kernel", "shape": [1, 1, 1024, 512], "dtype": "float32"}, {"name": "conv2d_62/kernel", "shape": [1, 1, 512, 512], "dtype": "float32"}, {"name": "conv2d_63/kernel", "shape": [3, 3, 512, 512], "dtype": "float32"}, {"name": "conv2d_64/kernel", "shape": [1, 1, 512, 512], "dtype": "float32"}, {"name": "conv2d_65/kernel", "shape": [3, 3, 512, 512], "dtype": "float32"}, {"name": "conv2d_66/kernel", "shape": [1, 1, 512, 512], "dtype": "float32"}, {"name": "conv2d_67/kernel", "shape": [3, 3, 512, 512], "dtype": "float32"}, {"name": "conv2d_68/kernel", "shape": [1, 1, 512, 512], "dtype": "float32"}, {"name": "conv2d_69/kernel", "shape": [3, 3, 512, 512], "dtype": "float32"}, {"name": "conv2d_7/kernel", "shape": [1, 1, 128, 64], "dtype": "float32"}, {"name": "conv2d_70/kernel", "shape": [1, 1, 512, 512], "dtype": "float32"}, {"name": "conv2d_71/kernel", "shape": [1, 1, 1024, 1024], "dtype": "float32"}, {"name": "conv2d_72/kernel", "shape": [1, 1, 1024, 512], "dtype": "float32"}, {"name": "conv2d_73/kernel", "shape": [3, 3, 512, 1024], "dtype": "float32"}, {"name": "conv2d_74/kernel", "shape": [1, 1, 1024, 512], "dtype": "float32"}, {"name": "conv2d_75/kernel", "shape": [1, 1, 2048, 512], "dtype": "float32"}, {"name": "conv2d_76/kernel", "shape": [3, 3, 512, 1024], "dtype": "float32"}, {"name": "conv2d_77/kernel", "shape": [1, 1, 1024, 512], "dtype": "float32"}, {"name": "conv2d_78/kernel", "shape": [1, 1, 512, 256], "dtype": "float32"}, {"name": "conv2d_79/kernel", "shape": [1, 1, 512, 256], "dtype": "float32"}, {"name": "conv2d_8/kernel", "shape": [3, 3, 64, 128], "dtype": "float32"}, {"name": "conv2d_80/kernel", "shape": [1, 1, 512, 256], "dtype": "float32"}, {"name": "conv2d_81/kernel", "shape": [3, 3, 256, 512], "dtype": "float32"}, {"name": "conv2d_82/kernel", "shape": [1, 1, 512, 256], "dtype": "float32"}, {"name": "conv2d_83/kernel", "shape": [3, 3, 256, 512], "dtype": "float32"}, {"name": "conv2d_84/kernel", "shape": [1, 1, 512, 256], "dtype": "float32"}, {"name": "conv2d_85/kernel", "shape": [1, 1, 256, 128], "dtype": "float32"}, {"name": "conv2d_86/kernel", "shape": [1, 1, 256, 128], "dtype": "float32"}, {"name": "conv2d_87/kernel", "shape": [1, 1, 256, 128], "dtype": "float32"}, {"name": "conv2d_88/kernel", "shape": [3, 3, 128, 256], "dtype": "float32"}, {"name": "conv2d_89/kernel", "shape": [1, 1, 256, 128], "dtype": "float32"}, {"name": "conv2d_9/kernel", "shape": [1, 1, 128, 64], "dtype": "float32"}, {"name": "conv2d_90/kernel", "shape": [3, 3, 128, 256], "dtype": "float32"}, {"name": "conv2d_91/kernel", "shape": [1, 1, 256, 128], "dtype": "float32"}, {"name": "conv2d_92/kernel", "shape": [3, 3, 128, 256], "dtype": "float32"}, {"name": "conv2d_93/kernel", "shape": [1, 1, 256, 255], "dtype": "float32"}, {"name": "conv2d_93/bias", "shape": [255], "dtype": "float32"}, {"name": "conv2d_94/kernel", "shape": [3, 3, 128, 256], "dtype": "float32"}, {"name": "conv2d_95/kernel", "shape": [1, 1, 512, 256], "dtype": "float32"}, {"name": "conv2d_96/kernel", "shape": [3, 3, 256, 512], "dtype": "float32"}, {"name": "conv2d_97/kernel", "shape": [1, 1, 512, 256], "dtype": "float32"}, {"name": "conv2d_98/kernel", "shape": [3, 3, 256, 512], "dtype": "float32"}, {"name": "conv2d_99/kernel", "shape": [1, 1, 512, 256], "dtype": "float32"}]}]}