{"format": "graph-model", "generatedBy": "2.7.0", "convertedBy": "TensorFlow.js Converter v3.12.0", "signature": {"inputs": {"input_1": {"name": "input_1:0", "dtype": "DT_FLOAT", "tensorShape": {"dim": [{"size": "1"}, {"size": "640"}, {"size": "640"}, {"size": "3"}]}}}, "outputs": {"tf_detect": {"name": "Identity:0", "dtype": "DT_FLOAT", "tensorShape": {"dim": [{"size": "1"}, {"size": "25200"}, {"size": "85"}]}}}}, "modelTopology": {"node": [{"name": "StatefulPartitionedCall/model/tf_detect/strided_slice_2/stack", "op": "Const", "attr": {"value": {"tensor": {"dtype": "DT_INT32", "tensorShape": {"dim": [{"size": "2"}]}}}, "dtype": {"type": "DT_INT32"}}}, {"name": "StatefulPartitionedCall/model/tf_detect/strided_slice_2/stack_1", "op": "Const", "attr": {"value": {"tensor": {"dtype": "DT_INT32", "tensorShape": {"dim": [{"size": "2"}]}}}, "dtype": {"type": "DT_INT32"}}}, {"name": "StatefulPartitionedCall/model/tf_detect/strided_slice_2/stack_2", "op": "Const", "attr": {"value": {"tensor": {"dtype": "DT_INT32", "tensorShape": {"dim": [{"size": "2"}]}}}, "dtype": {"type": "DT_INT32"}}}, {"name": "StatefulPartitionedCall/model/tf_detect/mul_1/y", "op": "Const", "attr": {"value": {"tensor": {"dtype": "DT_FLOAT", "tensorShape": {}}}, "dtype": {"type": "DT_FLOAT"}}}, {"name": "StatefulPartitionedCall/model/tf_detect/sub", "op": "Const", "attr": {"dtype": {"type": "DT_FLOAT"}, "value": {"tensor": {"dtype": "DT_FLOAT", "tensorShape": {"dim": [{"size": "1"}, {"size": "1"}, {"size": "6400"}, {"size": "2"}]}}}}}, {"name": "StatefulPartitionedCall/model/tf_detect/mul_2", "op": "Const", "attr": {"value": {"tensor": {"dtype": "DT_FLOAT", "tensorShape": {"dim": [{"size": "1"}, {"size": "2"}]}}}, "dtype": {"type": "DT_FLOAT"}}}, {"name": "StatefulPartitionedCall/model/tf_detect/strided_slice_4/stack", "op": "Const", "attr": {"dtype": {"type": "DT_INT32"}, "value": {"tensor": {"dtype": "DT_INT32", "tensorShape": {"dim": [{"size": "2"}]}}}}}, {"name": "StatefulPartitionedCall/model/tf_detect/strided_slice_4/stack_1", "op": "Const", "attr": {"value": {"tensor": {"dtype": "DT_INT32", "tensorShape": {"dim": [{"size": "2"}]}}}, "dtype": {"type": "DT_INT32"}}}, {"name": "StatefulPartitionedCall/model/tf_detect/strided_slice_4/stack_2", "op": "Const", "attr": {"dtype": {"type": "DT_INT32"}, "value": {"tensor": {"dtype": "DT_INT32", "tensorShape": {"dim": [{"size": "2"}]}}}}}, {"name": "StatefulPartitionedCall/model/tf_detect/mul_3/y", "op": "Const", "attr": {"value": {"tensor": {"dtype": "DT_FLOAT", "tensorShape": {}}}, "dtype": {"type": "DT_FLOAT"}}}, {"name": "StatefulPartitionedCall/model/tf_detect/mul_4", "op": "Const", "attr": {"value": {"tensor": {"dtype": "DT_FLOAT", "tensorShape": {"dim": [{"size": "1"}, {"size": "3"}, {"size": "1"}, {"size": "2"}]}}}, "dtype": {"type": "DT_FLOAT"}}}, {"name": "StatefulPartitionedCall/model/tf_detect/tf_conv2d/conv2d_57/Conv2D/ReadVariableOp", "op": "Const", "attr": {"value": {"tensor": {"dtype": "DT_FLOAT", "tensorShape": {"dim": [{"size": "1"}, {"size": "1"}, {"size": "128"}, {"size": "255"}]}}}, "dtype": {"type": "DT_FLOAT"}}}, {"name": "StatefulPartitionedCall/model/tf_detect/tf_conv2d/conv2d_57/BiasAdd/ReadVariableOp", "op": "Const", "attr": {"value": {"tensor": {"dtype": "DT_FLOAT", "tensorShape": {"dim": [{"size": "255"}]}}}, "dtype": {"type": "DT_FLOAT"}}}, {"name": "StatefulPartitionedCall/model/tf_detect/Reshape/shape_1", "op": "Const", "attr": {"dtype": {"type": "DT_INT32"}, "value": {"tensor": {"dtype": "DT_INT32", "tensorShape": {"dim": [{"size": "4"}]}}}}}, {"name": "StatefulPartitionedCall/model/tf_detect/transpose/perm", "op": "Const", "attr": {"value": {"tensor": {"dtype": "DT_INT32", "tensorShape": {"dim": [{"size": "4"}]}}}, "dtype": {"type": "DT_INT32"}}}, {"name": "StatefulPartitionedCall/model/tf_detect/strided_slice_6/stack", "op": "Const", "attr": {"value": {"tensor": {"dtype": "DT_INT32", "tensorShape": {"dim": [{"size": "2"}]}}}, "dtype": {"type": "DT_INT32"}}}, {"name": "StatefulPartitionedCall/model/tf_detect/strided_slice_6/stack_1", "op": "Const", "attr": {"value": {"tensor": {"dtype": "DT_INT32", "tensorShape": {"dim": [{"size": "2"}]}}}, "dtype": {"type": "DT_INT32"}}}, {"name": "StatefulPartitionedCall/model/tf_detect/strided_slice_6/stack_2", "op": "Const", "attr": {"value": {"tensor": {"dtype": "DT_INT32", "tensorShape": {"dim": [{"size": "2"}]}}}, "dtype": {"type": "DT_INT32"}}}, {"name": "StatefulPartitionedCall/model/tf_detect/concat/axis", "op": "Const", "attr": {"value": {"tensor": {"dtype": "DT_INT32", "tensorShape": {}}}, "dtype": {"type": "DT_INT32"}}}, {"name": "StatefulPartitionedCall/model/tf_detect/Reshape_1/shape_1", "op": "Const", "attr": {"value": {"tensor": {"dtype": "DT_INT32", "tensorShape": {"dim": [{"size": "3"}]}}}, "dtype": {"type": "DT_INT32"}}}, {"name": "StatefulPartitionedCall/model/tf_detect/strided_slice_9/stack", "op": "Const", "attr": {"value": {"tensor": {"dtype": "DT_INT32", "tensorShape": {"dim": [{"size": "2"}]}}}, "dtype": {"type": "DT_INT32"}}}, {"name": "StatefulPartitionedCall/model/tf_detect/strided_slice_9/stack_1", "op": "Const", "attr": {"dtype": {"type": "DT_INT32"}, "value": {"tensor": {"dtype": "DT_INT32", "tensorShape": {"dim": [{"size": "2"}]}}}}}, {"name": "StatefulPartitionedCall/model/tf_detect/strided_slice_9/stack_2", "op": "Const", "attr": {"value": {"tensor": {"dtype": "DT_INT32", "tensorShape": {"dim": [{"size": "2"}]}}}, "dtype": {"type": "DT_INT32"}}}, {"name": "StatefulPartitionedCall/model/tf_detect/mul_8/y", "op": "Const", "attr": {"value": {"tensor": {"dtype": "DT_FLOAT", "tensorShape": {}}}, "dtype": {"type": "DT_FLOAT"}}}, {"name": "StatefulPartitionedCall/model/tf_detect/sub_1", "op": "Const", "attr": {"value": {"tensor": {"dtype": "DT_FLOAT", "tensorShape": {"dim": [{"size": "1"}, {"size": "1"}, {"size": "1600"}, {"size": "2"}]}}}, "dtype": {"type": "DT_FLOAT"}}}, {"name": "StatefulPartitionedCall/model/tf_detect/mul_9", "op": "Const", "attr": {"value": {"tensor": {"dtype": "DT_FLOAT", "tensorShape": {"dim": [{"size": "1"}, {"size": "2"}]}}}, "dtype": {"type": "DT_FLOAT"}}}, {"name": "StatefulPartitionedCall/model/tf_detect/strided_slice_11/stack", "op": "Const", "attr": {"value": {"tensor": {"dtype": "DT_INT32", "tensorShape": {"dim": [{"size": "2"}]}}}, "dtype": {"type": "DT_INT32"}}}, {"name": "StatefulPartitionedCall/model/tf_detect/strided_slice_11/stack_1", "op": "Const", "attr": {"value": {"tensor": {"dtype": "DT_INT32", "tensorShape": {"dim": [{"size": "2"}]}}}, "dtype": {"type": "DT_INT32"}}}, {"name": "StatefulPartitionedCall/model/tf_detect/strided_slice_11/stack_2", "op": "Const", "attr": {"value": {"tensor": {"dtype": "DT_INT32", "tensorShape": {"dim": [{"size": "2"}]}}}, "dtype": {"type": "DT_INT32"}}}, {"name": "StatefulPartitionedCall/model/tf_detect/mul_10/y", "op": "Const", "attr": {"dtype": {"type": "DT_FLOAT"}, "value": {"tensor": {"dtype": "DT_FLOAT", "tensorShape": {}}}}}, {"name": "StatefulPartitionedCall/model/tf_detect/mul_11", "op": "Const", "attr": {"dtype": {"type": "DT_FLOAT"}, "value": {"tensor": {"dtype": "DT_FLOAT", "tensorShape": {"dim": [{"size": "1"}, {"size": "3"}, {"size": "1"}, {"size": "2"}]}}}}}, {"name": "StatefulPartitionedCall/model/tf_detect/tf_conv2d_1/conv2d_58/Conv2D/ReadVariableOp", "op": "Const", "attr": {"value": {"tensor": {"dtype": "DT_FLOAT", "tensorShape": {"dim": [{"size": "1"}, {"size": "1"}, {"size": "256"}, {"size": "255"}]}}}, "dtype": {"type": "DT_FLOAT"}}}, {"name": "StatefulPartitionedCall/model/tf_detect/tf_conv2d_1/conv2d_58/BiasAdd/ReadVariableOp", "op": "Const", "attr": {"value": {"tensor": {"dtype": "DT_FLOAT", "tensorShape": {"dim": [{"size": "255"}]}}}, "dtype": {"type": "DT_FLOAT"}}}, {"name": "StatefulPartitionedCall/model/tf_detect/Reshape_2/shape_1", "op": "Const", "attr": {"value": {"tensor": {"dtype": "DT_INT32", "tensorShape": {"dim": [{"size": "4"}]}}}, "dtype": {"type": "DT_INT32"}}}, {"name": "StatefulPartitionedCall/model/tf_detect/transpose_1/perm", "op": "Const", "attr": {"dtype": {"type": "DT_INT32"}, "value": {"tensor": {"dtype": "DT_INT32", "tensorShape": {"dim": [{"size": "4"}]}}}}}, {"name": "StatefulPartitionedCall/model/tf_detect/strided_slice_13/stack", "op": "Const", "attr": {"value": {"tensor": {"dtype": "DT_INT32", "tensorShape": {"dim": [{"size": "2"}]}}}, "dtype": {"type": "DT_INT32"}}}, {"name": "StatefulPartitionedCall/model/tf_detect/strided_slice_13/stack_1", "op": "Const", "attr": {"value": {"tensor": {"dtype": "DT_INT32", "tensorShape": {"dim": [{"size": "2"}]}}}, "dtype": {"type": "DT_INT32"}}}, {"name": "StatefulPartitionedCall/model/tf_detect/strided_slice_13/stack_2", "op": "Const", "attr": {"value": {"tensor": {"dtype": "DT_INT32", "tensorShape": {"dim": [{"size": "2"}]}}}, "dtype": {"type": "DT_INT32"}}}, {"name": "StatefulPartitionedCall/model/tf_detect/concat_1/axis", "op": "Const", "attr": {"value": {"tensor": {"dtype": "DT_INT32", "tensorShape": {}}}, "dtype": {"type": "DT_INT32"}}}, {"name": "StatefulPartitionedCall/model/tf_detect/Reshape_3/shape_1", "op": "Const", "attr": {"dtype": {"type": "DT_INT32"}, "value": {"tensor": {"dtype": "DT_INT32", "tensorShape": {"dim": [{"size": "3"}]}}}}}, {"name": "StatefulPartitionedCall/model/tf_detect/strided_slice_16/stack", "op": "Const", "attr": {"dtype": {"type": "DT_INT32"}, "value": {"tensor": {"dtype": "DT_INT32", "tensorShape": {"dim": [{"size": "2"}]}}}}}, {"name": "StatefulPartitionedCall/model/tf_detect/strided_slice_16/stack_1", "op": "Const", "attr": {"dtype": {"type": "DT_INT32"}, "value": {"tensor": {"dtype": "DT_INT32", "tensorShape": {"dim": [{"size": "2"}]}}}}}, {"name": "StatefulPartitionedCall/model/tf_detect/strided_slice_16/stack_2", "op": "Const", "attr": {"dtype": {"type": "DT_INT32"}, "value": {"tensor": {"dtype": "DT_INT32", "tensorShape": {"dim": [{"size": "2"}]}}}}}, {"name": "StatefulPartitionedCall/model/tf_detect/mul_15/y", "op": "Const", "attr": {"dtype": {"type": "DT_FLOAT"}, "value": {"tensor": {"dtype": "DT_FLOAT", "tensorShape": {}}}}}, {"name": "StatefulPartitionedCall/model/tf_detect/sub_2", "op": "Const", "attr": {"dtype": {"type": "DT_FLOAT"}, "value": {"tensor": {"dtype": "DT_FLOAT", "tensorShape": {"dim": [{"size": "1"}, {"size": "1"}, {"size": "400"}, {"size": "2"}]}}}}}, {"name": "StatefulPartitionedCall/model/tf_detect/mul_16", "op": "Const", "attr": {"dtype": {"type": "DT_FLOAT"}, "value": {"tensor": {"dtype": "DT_FLOAT", "tensorShape": {"dim": [{"size": "1"}, {"size": "2"}]}}}}}, {"name": "StatefulPartitionedCall/model/tf_detect/strided_slice_18/stack", "op": "Const", "attr": {"value": {"tensor": {"dtype": "DT_INT32", "tensorShape": {"dim": [{"size": "2"}]}}}, "dtype": {"type": "DT_INT32"}}}, {"name": "StatefulPartitionedCall/model/tf_detect/strided_slice_18/stack_1", "op": "Const", "attr": {"value": {"tensor": {"dtype": "DT_INT32", "tensorShape": {"dim": [{"size": "2"}]}}}, "dtype": {"type": "DT_INT32"}}}, {"name": "StatefulPartitionedCall/model/tf_detect/strided_slice_18/stack_2", "op": "Const", "attr": {"value": {"tensor": {"dtype": "DT_INT32", "tensorShape": {"dim": [{"size": "2"}]}}}, "dtype": {"type": "DT_INT32"}}}, {"name": "StatefulPartitionedCall/model/tf_detect/mul_17/y", "op": "Const", "attr": {"dtype": {"type": "DT_FLOAT"}, "value": {"tensor": {"dtype": "DT_FLOAT", "tensorShape": {}}}}}, {"name": "StatefulPartitionedCall/model/tf_detect/mul_18", "op": "Const", "attr": {"dtype": {"type": "DT_FLOAT"}, "value": {"tensor": {"dtype": "DT_FLOAT", "tensorShape": {"dim": [{"size": "1"}, {"size": "3"}, {"size": "1"}, {"size": "2"}]}}}}}, {"name": "StatefulPartitionedCall/model/tfc3_7/tf_conv_52/conv2d_52/Conv2D/ReadVariableOp", "op": "Const", "attr": {"dtype": {"type": "DT_FLOAT"}, "value": {"tensor": {"dtype": "DT_FLOAT", "tensorShape": {"dim": [{"size": "1"}, {"size": "1"}, {"size": "512"}, {"size": "256"}]}}}}}, {"name": "StatefulPartitionedCall/model/tfc3_7/tf_conv_52/conv2d_52/BiasAdd/ReadVariableOp", "op": "Const", "attr": {"dtype": {"type": "DT_FLOAT"}, "value": {"tensor": {"dtype": "DT_FLOAT", "tensorShape": {"dim": [{"size": "256"}]}}}}}, {"name": "StatefulPartitionedCall/model/tfc3_7/sequential_14/tf_bottleneck_10/tf_conv_55/conv2d_55/Conv2D/ReadVariableOp", "op": "Const", "attr": {"dtype": {"type": "DT_FLOAT"}, "value": {"tensor": {"dtype": "DT_FLOAT", "tensorShape": {"dim": [{"size": "1"}, {"size": "1"}, {"size": "256"}, {"size": "256"}]}}}}}, {"name": "StatefulPartitionedCall/model/tfc3_7/sequential_14/tf_bottleneck_10/tf_conv_55/conv2d_55/BiasAdd/ReadVariableOp", "op": "Const", "attr": {"value": {"tensor": {"dtype": "DT_FLOAT", "tensorShape": {"dim": [{"size": "256"}]}}}, "dtype": {"type": "DT_FLOAT"}}}, {"name": "StatefulPartitionedCall/model/tfc3_7/sequential_14/tf_bottleneck_10/tf_conv_56/conv2d_56/Conv2D/ReadVariableOp", "op": "Const", "attr": {"dtype": {"type": "DT_FLOAT"}, "value": {"tensor": {"dtype": "DT_FLOAT", "tensorShape": {"dim": [{"size": "3"}, {"size": "3"}, {"size": "256"}, {"size": "256"}]}}}}}, {"name": "StatefulPartitionedCall/model/tfc3_7/sequential_14/tf_bottleneck_10/tf_conv_56/conv2d_56/BiasAdd/ReadVariableOp", "op": "Const", "attr": {"dtype": {"type": "DT_FLOAT"}, "value": {"tensor": {"dtype": "DT_FLOAT", "tensorShape": {"dim": [{"size": "256"}]}}}}}, {"name": "StatefulPartitionedCall/model/tfc3_6/tf_conv_46/conv2d_46/Conv2D/ReadVariableOp", "op": "Const", "attr": {"dtype": {"type": "DT_FLOAT"}, "value": {"tensor": {"dtype": "DT_FLOAT", "tensorShape": {"dim": [{"size": "1"}, {"size": "1"}, {"size": "256"}, {"size": "128"}]}}}}}, {"name": "StatefulPartitionedCall/model/tfc3_6/tf_conv_46/conv2d_46/BiasAdd/ReadVariableOp", "op": "Const", "attr": {"dtype": {"type": "DT_FLOAT"}, "value": {"tensor": {"dtype": "DT_FLOAT", "tensorShape": {"dim": [{"size": "128"}]}}}}}, {"name": "StatefulPartitionedCall/model/tfc3_6/sequential_12/tf_bottleneck_9/tf_conv_49/conv2d_49/Conv2D/ReadVariableOp", "op": "Const", "attr": {"dtype": {"type": "DT_FLOAT"}, "value": {"tensor": {"dtype": "DT_FLOAT", "tensorShape": {"dim": [{"size": "1"}, {"size": "1"}, {"size": "128"}, {"size": "128"}]}}}}}, {"name": "StatefulPartitionedCall/model/tfc3_6/sequential_12/tf_bottleneck_9/tf_conv_49/conv2d_49/BiasAdd/ReadVariableOp", "op": "Const", "attr": {"value": {"tensor": {"dtype": "DT_FLOAT", "tensorShape": {"dim": [{"size": "128"}]}}}, "dtype": {"type": "DT_FLOAT"}}}, {"name": "StatefulPartitionedCall/model/tfc3_6/sequential_12/tf_bottleneck_9/tf_conv_50/conv2d_50/Conv2D/ReadVariableOp", "op": "Const", "attr": {"dtype": {"type": "DT_FLOAT"}, "value": {"tensor": {"dtype": "DT_FLOAT", "tensorShape": {"dim": [{"size": "3"}, {"size": "3"}, {"size": "128"}, {"size": "128"}]}}}}}, {"name": "StatefulPartitionedCall/model/tfc3_6/sequential_12/tf_bottleneck_9/tf_conv_50/conv2d_50/BiasAdd/ReadVariableOp", "op": "Const", "attr": {"value": {"tensor": {"dtype": "DT_FLOAT", "tensorShape": {"dim": [{"size": "128"}]}}}, "dtype": {"type": "DT_FLOAT"}}}, {"name": "StatefulPartitionedCall/model/tfc3_5/tf_conv_40/conv2d_40/Conv2D/ReadVariableOp", "op": "Const", "attr": {"value": {"tensor": {"dtype": "DT_FLOAT", "tensorShape": {"dim": [{"size": "1"}, {"size": "1"}, {"size": "256"}, {"size": "64"}]}}}, "dtype": {"type": "DT_FLOAT"}}}, {"name": "StatefulPartitionedCall/model/tfc3_5/tf_conv_40/conv2d_40/BiasAdd/ReadVariableOp", "op": "Const", "attr": {"dtype": {"type": "DT_FLOAT"}, "value": {"tensor": {"dtype": "DT_FLOAT", "tensorShape": {"dim": [{"size": "64"}]}}}}}, {"name": "StatefulPartitionedCall/model/tfc3_5/sequential_10/tf_bottleneck_8/tf_conv_43/conv2d_43/Conv2D/ReadVariableOp", "op": "Const", "attr": {"dtype": {"type": "DT_FLOAT"}, "value": {"tensor": {"dtype": "DT_FLOAT", "tensorShape": {"dim": [{"size": "1"}, {"size": "1"}, {"size": "64"}, {"size": "64"}]}}}}}, {"name": "StatefulPartitionedCall/model/tfc3_5/sequential_10/tf_bottleneck_8/tf_conv_43/conv2d_43/BiasAdd/ReadVariableOp", "op": "Const", "attr": {"dtype": {"type": "DT_FLOAT"}, "value": {"tensor": {"dtype": "DT_FLOAT", "tensorShape": {"dim": [{"size": "64"}]}}}}}, {"name": "StatefulPartitionedCall/model/tfc3_5/sequential_10/tf_bottleneck_8/tf_conv_44/conv2d_44/Conv2D/ReadVariableOp", "op": "Const", "attr": {"dtype": {"type": "DT_FLOAT"}, "value": {"tensor": {"dtype": "DT_FLOAT", "tensorShape": {"dim": [{"size": "3"}, {"size": "3"}, {"size": "64"}, {"size": "64"}]}}}}}, {"name": "StatefulPartitionedCall/model/tfc3_5/sequential_10/tf_bottleneck_8/tf_conv_44/conv2d_44/BiasAdd/ReadVariableOp", "op": "Const", "attr": {"dtype": {"type": "DT_FLOAT"}, "value": {"tensor": {"dtype": "DT_FLOAT", "tensorShape": {"dim": [{"size": "64"}]}}}}}, {"name": "StatefulPartitionedCall/model/tf_upsample_1/resize/size", "op": "Const", "attr": {"dtype": {"type": "DT_INT32"}, "value": {"tensor": {"dtype": "DT_INT32", "tensorShape": {"dim": [{"size": "2"}]}}}}}, {"name": "StatefulPartitionedCall/model/tf_concat_1/concat/axis", "op": "Const", "attr": {"value": {"tensor": {"dtype": "DT_INT32", "tensorShape": {}}}, "dtype": {"type": "DT_INT32"}}}, {"name": "StatefulPartitionedCall/model/tfc3_5/tf_conv_41/conv2d_41/Conv2D/ReadVariableOp", "op": "Const", "attr": {"value": {"tensor": {"dtype": "DT_FLOAT", "tensorShape": {"dim": [{"size": "1"}, {"size": "1"}, {"size": "256"}, {"size": "64"}]}}}, "dtype": {"type": "DT_FLOAT"}}}, {"name": "StatefulPartitionedCall/model/tfc3_5/tf_conv_41/conv2d_41/BiasAdd/ReadVariableOp", "op": "Const", "attr": {"value": {"tensor": {"dtype": "DT_FLOAT", "tensorShape": {"dim": [{"size": "64"}]}}}, "dtype": {"type": "DT_FLOAT"}}}, {"name": "StatefulPartitionedCall/model/tfc3_5/concat/axis", "op": "Const", "attr": {"value": {"tensor": {"dtype": "DT_INT32", "tensorShape": {}}}, "dtype": {"type": "DT_INT32"}}}, {"name": "StatefulPartitionedCall/model/tfc3_5/tf_conv_42/conv2d_42/Conv2D/ReadVariableOp", "op": "Const", "attr": {"value": {"tensor": {"dtype": "DT_FLOAT", "tensorShape": {"dim": [{"size": "1"}, {"size": "1"}, {"size": "128"}, {"size": "128"}]}}}, "dtype": {"type": "DT_FLOAT"}}}, {"name": "StatefulPartitionedCall/model/tfc3_5/tf_conv_42/conv2d_42/BiasAdd/ReadVariableOp", "op": "Const", "attr": {"value": {"tensor": {"dtype": "DT_FLOAT", "tensorShape": {"dim": [{"size": "128"}]}}}, "dtype": {"type": "DT_FLOAT"}}}, {"name": "unknown_94", "op": "Const", "attr": {"dtype": {"type": "DT_INT32"}, "value": {"tensor": {"dtype": "DT_INT32", "tensorShape": {"dim": [{"size": "4"}, {"size": "2"}]}}}}}, {"name": "StatefulPartitionedCall/model/tf_conv_45/sequential_11/conv2d_45/Conv2D/ReadVariableOp", "op": "Const", "attr": {"value": {"tensor": {"dtype": "DT_FLOAT", "tensorShape": {"dim": [{"size": "3"}, {"size": "3"}, {"size": "128"}, {"size": "128"}]}}}, "dtype": {"type": "DT_FLOAT"}}}, {"name": "StatefulPartitionedCall/model/tf_conv_45/sequential_11/conv2d_45/BiasAdd/ReadVariableOp", "op": "Const", "attr": {"value": {"tensor": {"dtype": "DT_FLOAT", "tensorShape": {"dim": [{"size": "128"}]}}}, "dtype": {"type": "DT_FLOAT"}}}, {"name": "StatefulPartitionedCall/model/tfc3_4/tf_conv_34/conv2d_34/Conv2D/ReadVariableOp", "op": "Const", "attr": {"value": {"tensor": {"dtype": "DT_FLOAT", "tensorShape": {"dim": [{"size": "1"}, {"size": "1"}, {"size": "512"}, {"size": "128"}]}}}, "dtype": {"type": "DT_FLOAT"}}}, {"name": "StatefulPartitionedCall/model/tfc3_4/tf_conv_34/conv2d_34/BiasAdd/ReadVariableOp", "op": "Const", "attr": {"value": {"tensor": {"dtype": "DT_FLOAT", "tensorShape": {"dim": [{"size": "128"}]}}}, "dtype": {"type": "DT_FLOAT"}}}, {"name": "StatefulPartitionedCall/model/tfc3_4/sequential_9/tf_bottleneck_7/tf_conv_37/conv2d_37/Conv2D/ReadVariableOp", "op": "Const", "attr": {"value": {"tensor": {"dtype": "DT_FLOAT", "tensorShape": {"dim": [{"size": "1"}, {"size": "1"}, {"size": "128"}, {"size": "128"}]}}}, "dtype": {"type": "DT_FLOAT"}}}, {"name": "StatefulPartitionedCall/model/tfc3_4/sequential_9/tf_bottleneck_7/tf_conv_37/conv2d_37/BiasAdd/ReadVariableOp", "op": "Const", "attr": {"dtype": {"type": "DT_FLOAT"}, "value": {"tensor": {"dtype": "DT_FLOAT", "tensorShape": {"dim": [{"size": "128"}]}}}}}, {"name": "StatefulPartitionedCall/model/tfc3_4/sequential_9/tf_bottleneck_7/tf_conv_38/conv2d_38/Conv2D/ReadVariableOp", "op": "Const", "attr": {"value": {"tensor": {"dtype": "DT_FLOAT", "tensorShape": {"dim": [{"size": "3"}, {"size": "3"}, {"size": "128"}, {"size": "128"}]}}}, "dtype": {"type": "DT_FLOAT"}}}, {"name": "StatefulPartitionedCall/model/tfc3_4/sequential_9/tf_bottleneck_7/tf_conv_38/conv2d_38/BiasAdd/ReadVariableOp", "op": "Const", "attr": {"value": {"tensor": {"dtype": "DT_FLOAT", "tensorShape": {"dim": [{"size": "128"}]}}}, "dtype": {"type": "DT_FLOAT"}}}, {"name": "StatefulPartitionedCall/model/tf_upsample/resize/size", "op": "Const", "attr": {"dtype": {"type": "DT_INT32"}, "value": {"tensor": {"dtype": "DT_INT32", "tensorShape": {"dim": [{"size": "2"}]}}}}}, {"name": "StatefulPartitionedCall/model/tf_concat/concat/axis", "op": "Const", "attr": {"value": {"tensor": {"dtype": "DT_INT32", "tensorShape": {}}}, "dtype": {"type": "DT_INT32"}}}, {"name": "StatefulPartitionedCall/model/tfc3_4/tf_conv_35/conv2d_35/Conv2D/ReadVariableOp", "op": "Const", "attr": {"value": {"tensor": {"dtype": "DT_FLOAT", "tensorShape": {"dim": [{"size": "1"}, {"size": "1"}, {"size": "512"}, {"size": "128"}]}}}, "dtype": {"type": "DT_FLOAT"}}}, {"name": "StatefulPartitionedCall/model/tfc3_4/tf_conv_35/conv2d_35/BiasAdd/ReadVariableOp", "op": "Const", "attr": {"value": {"tensor": {"dtype": "DT_FLOAT", "tensorShape": {"dim": [{"size": "128"}]}}}, "dtype": {"type": "DT_FLOAT"}}}, {"name": "StatefulPartitionedCall/model/tfc3_4/concat/axis", "op": "Const", "attr": {"value": {"tensor": {"dtype": "DT_INT32", "tensorShape": {}}}, "dtype": {"type": "DT_INT32"}}}, {"name": "StatefulPartitionedCall/model/tfc3_4/tf_conv_36/conv2d_36/Conv2D/ReadVariableOp", "op": "Const", "attr": {"dtype": {"type": "DT_FLOAT"}, "value": {"tensor": {"dtype": "DT_FLOAT", "tensorShape": {"dim": [{"size": "1"}, {"size": "1"}, {"size": "256"}, {"size": "256"}]}}}}}, {"name": "StatefulPartitionedCall/model/tfc3_4/tf_conv_36/conv2d_36/BiasAdd/ReadVariableOp", "op": "Const", "attr": {"value": {"tensor": {"dtype": "DT_FLOAT", "tensorShape": {"dim": [{"size": "256"}]}}}, "dtype": {"type": "DT_FLOAT"}}}, {"name": "StatefulPartitionedCall/model/tf_conv_39/conv2d_39/Conv2D/ReadVariableOp", "op": "Const", "attr": {"value": {"tensor": {"dtype": "DT_FLOAT", "tensorShape": {"dim": [{"size": "1"}, {"size": "1"}, {"size": "256"}, {"size": "128"}]}}}, "dtype": {"type": "DT_FLOAT"}}}, {"name": "StatefulPartitionedCall/model/tf_conv_39/conv2d_39/BiasAdd/ReadVariableOp", "op": "Const", "attr": {"value": {"tensor": {"dtype": "DT_FLOAT", "tensorShape": {"dim": [{"size": "128"}]}}}, "dtype": {"type": "DT_FLOAT"}}}, {"name": "StatefulPartitionedCall/model/tf_concat_2/concat/axis", "op": "Const", "attr": {"value": {"tensor": {"dtype": "DT_INT32", "tensorShape": {}}}, "dtype": {"type": "DT_INT32"}}}, {"name": "StatefulPartitionedCall/model/tfc3_6/tf_conv_47/conv2d_47/Conv2D/ReadVariableOp", "op": "Const", "attr": {"value": {"tensor": {"dtype": "DT_FLOAT", "tensorShape": {"dim": [{"size": "1"}, {"size": "1"}, {"size": "256"}, {"size": "128"}]}}}, "dtype": {"type": "DT_FLOAT"}}}, {"name": "StatefulPartitionedCall/model/tfc3_6/tf_conv_47/conv2d_47/BiasAdd/ReadVariableOp", "op": "Const", "attr": {"value": {"tensor": {"dtype": "DT_FLOAT", "tensorShape": {"dim": [{"size": "128"}]}}}, "dtype": {"type": "DT_FLOAT"}}}, {"name": "StatefulPartitionedCall/model/tfc3_6/concat/axis", "op": "Const", "attr": {"dtype": {"type": "DT_INT32"}, "value": {"tensor": {"dtype": "DT_INT32", "tensorShape": {}}}}}, {"name": "StatefulPartitionedCall/model/tfc3_6/tf_conv_48/conv2d_48/Conv2D/ReadVariableOp", "op": "Const", "attr": {"value": {"tensor": {"dtype": "DT_FLOAT", "tensorShape": {"dim": [{"size": "1"}, {"size": "1"}, {"size": "256"}, {"size": "256"}]}}}, "dtype": {"type": "DT_FLOAT"}}}, {"name": "StatefulPartitionedCall/model/tfc3_6/tf_conv_48/conv2d_48/BiasAdd/ReadVariableOp", "op": "Const", "attr": {"value": {"tensor": {"dtype": "DT_FLOAT", "tensorShape": {"dim": [{"size": "256"}]}}}, "dtype": {"type": "DT_FLOAT"}}}, {"name": "unknown_107", "op": "Const", "attr": {"value": {"tensor": {"dtype": "DT_INT32", "tensorShape": {"dim": [{"size": "4"}, {"size": "2"}]}}}, "dtype": {"type": "DT_INT32"}}}, {"name": "StatefulPartitionedCall/model/tf_conv_51/sequential_13/conv2d_51/Conv2D/ReadVariableOp", "op": "Const", "attr": {"value": {"tensor": {"dtype": "DT_FLOAT", "tensorShape": {"dim": [{"size": "3"}, {"size": "3"}, {"size": "256"}, {"size": "256"}]}}}, "dtype": {"type": "DT_FLOAT"}}}, {"name": "StatefulPartitionedCall/model/tf_conv_51/sequential_13/conv2d_51/BiasAdd/ReadVariableOp", "op": "Const", "attr": {"dtype": {"type": "DT_FLOAT"}, "value": {"tensor": {"dtype": "DT_FLOAT", "tensorShape": {"dim": [{"size": "256"}]}}}}}, {"name": "StatefulPartitionedCall/model/tfc3_3/tf_conv_26/conv2d_26/Conv2D/ReadVariableOp", "op": "Const", "attr": {"value": {"tensor": {"dtype": "DT_FLOAT", "tensorShape": {"dim": [{"size": "1"}, {"size": "1"}, {"size": "512"}, {"size": "256"}]}}}, "dtype": {"type": "DT_FLOAT"}}}, {"name": "StatefulPartitionedCall/model/tfc3_3/tf_conv_26/conv2d_26/BiasAdd/ReadVariableOp", "op": "Const", "attr": {"dtype": {"type": "DT_FLOAT"}, "value": {"tensor": {"dtype": "DT_FLOAT", "tensorShape": {"dim": [{"size": "256"}]}}}}}, {"name": "StatefulPartitionedCall/model/tfc3_3/sequential_8/tf_bottleneck_6/tf_conv_29/conv2d_29/Conv2D/ReadVariableOp", "op": "Const", "attr": {"value": {"tensor": {"dtype": "DT_FLOAT", "tensorShape": {"dim": [{"size": "1"}, {"size": "1"}, {"size": "256"}, {"size": "256"}]}}}, "dtype": {"type": "DT_FLOAT"}}}, {"name": "StatefulPartitionedCall/model/tfc3_3/sequential_8/tf_bottleneck_6/tf_conv_29/conv2d_29/BiasAdd/ReadVariableOp", "op": "Const", "attr": {"value": {"tensor": {"dtype": "DT_FLOAT", "tensorShape": {"dim": [{"size": "256"}]}}}, "dtype": {"type": "DT_FLOAT"}}}, {"name": "StatefulPartitionedCall/model/tfc3_3/sequential_8/tf_bottleneck_6/tf_conv_30/conv2d_30/Conv2D/ReadVariableOp", "op": "Const", "attr": {"dtype": {"type": "DT_FLOAT"}, "value": {"tensor": {"dtype": "DT_FLOAT", "tensorShape": {"dim": [{"size": "3"}, {"size": "3"}, {"size": "256"}, {"size": "256"}]}}}}}, {"name": "StatefulPartitionedCall/model/tfc3_3/sequential_8/tf_bottleneck_6/tf_conv_30/conv2d_30/BiasAdd/ReadVariableOp", "op": "Const", "attr": {"value": {"tensor": {"dtype": "DT_FLOAT", "tensorShape": {"dim": [{"size": "256"}]}}}, "dtype": {"type": "DT_FLOAT"}}}, {"name": "StatefulPartitionedCall/model/tfc3_2/tf_conv_16/conv2d_16/Conv2D/ReadVariableOp", "op": "Const", "attr": {"value": {"tensor": {"dtype": "DT_FLOAT", "tensorShape": {"dim": [{"size": "1"}, {"size": "1"}, {"size": "256"}, {"size": "128"}]}}}, "dtype": {"type": "DT_FLOAT"}}}, {"name": "StatefulPartitionedCall/model/tfc3_2/tf_conv_16/conv2d_16/BiasAdd/ReadVariableOp", "op": "Const", "attr": {"value": {"tensor": {"dtype": "DT_FLOAT", "tensorShape": {"dim": [{"size": "128"}]}}}, "dtype": {"type": "DT_FLOAT"}}}, {"name": "StatefulPartitionedCall/model/tfc3_2/sequential_6/tf_bottleneck_3/tf_conv_19/conv2d_19/Conv2D/ReadVariableOp", "op": "Const", "attr": {"dtype": {"type": "DT_FLOAT"}, "value": {"tensor": {"dtype": "DT_FLOAT", "tensorShape": {"dim": [{"size": "1"}, {"size": "1"}, {"size": "128"}, {"size": "128"}]}}}}}, {"name": "StatefulPartitionedCall/model/tfc3_2/sequential_6/tf_bottleneck_3/tf_conv_19/conv2d_19/BiasAdd/ReadVariableOp", "op": "Const", "attr": {"value": {"tensor": {"dtype": "DT_FLOAT", "tensorShape": {"dim": [{"size": "128"}]}}}, "dtype": {"type": "DT_FLOAT"}}}, {"name": "StatefulPartitionedCall/model/tfc3_2/sequential_6/tf_bottleneck_3/tf_conv_20/conv2d_20/Conv2D/ReadVariableOp", "op": "Const", "attr": {"value": {"tensor": {"dtype": "DT_FLOAT", "tensorShape": {"dim": [{"size": "3"}, {"size": "3"}, {"size": "128"}, {"size": "128"}]}}}, "dtype": {"type": "DT_FLOAT"}}}, {"name": "StatefulPartitionedCall/model/tfc3_2/sequential_6/tf_bottleneck_3/tf_conv_20/conv2d_20/BiasAdd/ReadVariableOp", "op": "Const", "attr": {"dtype": {"type": "DT_FLOAT"}, "value": {"tensor": {"dtype": "DT_FLOAT", "tensorShape": {"dim": [{"size": "128"}]}}}}}, {"name": "StatefulPartitionedCall/model/tfc3_2/sequential_6/tf_bottleneck_4/tf_conv_21/conv2d_21/Conv2D/ReadVariableOp", "op": "Const", "attr": {"value": {"tensor": {"dtype": "DT_FLOAT", "tensorShape": {"dim": [{"size": "1"}, {"size": "1"}, {"size": "128"}, {"size": "128"}]}}}, "dtype": {"type": "DT_FLOAT"}}}, {"name": "StatefulPartitionedCall/model/tfc3_2/sequential_6/tf_bottleneck_4/tf_conv_21/conv2d_21/BiasAdd/ReadVariableOp", "op": "Const", "attr": {"value": {"tensor": {"dtype": "DT_FLOAT", "tensorShape": {"dim": [{"size": "128"}]}}}, "dtype": {"type": "DT_FLOAT"}}}, {"name": "StatefulPartitionedCall/model/tfc3_2/sequential_6/tf_bottleneck_4/tf_conv_22/conv2d_22/Conv2D/ReadVariableOp", "op": "Const", "attr": {"value": {"tensor": {"dtype": "DT_FLOAT", "tensorShape": {"dim": [{"size": "3"}, {"size": "3"}, {"size": "128"}, {"size": "128"}]}}}, "dtype": {"type": "DT_FLOAT"}}}, {"name": "StatefulPartitionedCall/model/tfc3_2/sequential_6/tf_bottleneck_4/tf_conv_22/conv2d_22/BiasAdd/ReadVariableOp", "op": "Const", "attr": {"value": {"tensor": {"dtype": "DT_FLOAT", "tensorShape": {"dim": [{"size": "128"}]}}}, "dtype": {"type": "DT_FLOAT"}}}, {"name": "StatefulPartitionedCall/model/tfc3_2/sequential_6/tf_bottleneck_5/tf_conv_23/conv2d_23/Conv2D/ReadVariableOp", "op": "Const", "attr": {"dtype": {"type": "DT_FLOAT"}, "value": {"tensor": {"dtype": "DT_FLOAT", "tensorShape": {"dim": [{"size": "1"}, {"size": "1"}, {"size": "128"}, {"size": "128"}]}}}}}, {"name": "StatefulPartitionedCall/model/tfc3_2/sequential_6/tf_bottleneck_5/tf_conv_23/conv2d_23/BiasAdd/ReadVariableOp", "op": "Const", "attr": {"value": {"tensor": {"dtype": "DT_FLOAT", "tensorShape": {"dim": [{"size": "128"}]}}}, "dtype": {"type": "DT_FLOAT"}}}, {"name": "StatefulPartitionedCall/model/tfc3_2/sequential_6/tf_bottleneck_5/tf_conv_24/conv2d_24/Conv2D/ReadVariableOp", "op": "Const", "attr": {"value": {"tensor": {"dtype": "DT_FLOAT", "tensorShape": {"dim": [{"size": "3"}, {"size": "3"}, {"size": "128"}, {"size": "128"}]}}}, "dtype": {"type": "DT_FLOAT"}}}, {"name": "StatefulPartitionedCall/model/tfc3_2/sequential_6/tf_bottleneck_5/tf_conv_24/conv2d_24/BiasAdd/ReadVariableOp", "op": "Const", "attr": {"value": {"tensor": {"dtype": "DT_FLOAT", "tensorShape": {"dim": [{"size": "128"}]}}}, "dtype": {"type": "DT_FLOAT"}}}, {"name": "StatefulPartitionedCall/model/tfc3_1/tf_conv_8/conv2d_8/Conv2D/ReadVariableOp", "op": "Const", "attr": {"dtype": {"type": "DT_FLOAT"}, "value": {"tensor": {"dtype": "DT_FLOAT", "tensorShape": {"dim": [{"size": "1"}, {"size": "1"}, {"size": "128"}, {"size": "64"}]}}}}}, {"name": "StatefulPartitionedCall/model/tfc3_1/tf_conv_8/conv2d_8/BiasAdd/ReadVariableOp", "op": "Const", "attr": {"value": {"tensor": {"dtype": "DT_FLOAT", "tensorShape": {"dim": [{"size": "64"}]}}}, "dtype": {"type": "DT_FLOAT"}}}, {"name": "StatefulPartitionedCall/model/tfc3_1/sequential_4/tf_bottleneck_1/tf_conv_11/conv2d_11/Conv2D/ReadVariableOp", "op": "Const", "attr": {"value": {"tensor": {"dtype": "DT_FLOAT", "tensorShape": {"dim": [{"size": "1"}, {"size": "1"}, {"size": "64"}, {"size": "64"}]}}}, "dtype": {"type": "DT_FLOAT"}}}, {"name": "StatefulPartitionedCall/model/tfc3_1/sequential_4/tf_bottleneck_1/tf_conv_11/conv2d_11/BiasAdd/ReadVariableOp", "op": "Const", "attr": {"value": {"tensor": {"dtype": "DT_FLOAT", "tensorShape": {"dim": [{"size": "64"}]}}}, "dtype": {"type": "DT_FLOAT"}}}, {"name": "StatefulPartitionedCall/model/tfc3_1/sequential_4/tf_bottleneck_1/tf_conv_12/conv2d_12/Conv2D/ReadVariableOp", "op": "Const", "attr": {"dtype": {"type": "DT_FLOAT"}, "value": {"tensor": {"dtype": "DT_FLOAT", "tensorShape": {"dim": [{"size": "3"}, {"size": "3"}, {"size": "64"}, {"size": "64"}]}}}}}, {"name": "StatefulPartitionedCall/model/tfc3_1/sequential_4/tf_bottleneck_1/tf_conv_12/conv2d_12/BiasAdd/ReadVariableOp", "op": "Const", "attr": {"value": {"tensor": {"dtype": "DT_FLOAT", "tensorShape": {"dim": [{"size": "64"}]}}}, "dtype": {"type": "DT_FLOAT"}}}, {"name": "StatefulPartitionedCall/model/tfc3_1/sequential_4/tf_bottleneck_2/tf_conv_13/conv2d_13/Conv2D/ReadVariableOp", "op": "Const", "attr": {"value": {"tensor": {"dtype": "DT_FLOAT", "tensorShape": {"dim": [{"size": "1"}, {"size": "1"}, {"size": "64"}, {"size": "64"}]}}}, "dtype": {"type": "DT_FLOAT"}}}, {"name": "StatefulPartitionedCall/model/tfc3_1/sequential_4/tf_bottleneck_2/tf_conv_13/conv2d_13/BiasAdd/ReadVariableOp", "op": "Const", "attr": {"dtype": {"type": "DT_FLOAT"}, "value": {"tensor": {"dtype": "DT_FLOAT", "tensorShape": {"dim": [{"size": "64"}]}}}}}, {"name": "StatefulPartitionedCall/model/tfc3_1/sequential_4/tf_bottleneck_2/tf_conv_14/conv2d_14/Conv2D/ReadVariableOp", "op": "Const", "attr": {"value": {"tensor": {"dtype": "DT_FLOAT", "tensorShape": {"dim": [{"size": "3"}, {"size": "3"}, {"size": "64"}, {"size": "64"}]}}}, "dtype": {"type": "DT_FLOAT"}}}, {"name": "StatefulPartitionedCall/model/tfc3_1/sequential_4/tf_bottleneck_2/tf_conv_14/conv2d_14/BiasAdd/ReadVariableOp", "op": "Const", "attr": {"dtype": {"type": "DT_FLOAT"}, "value": {"tensor": {"dtype": "DT_FLOAT", "tensorShape": {"dim": [{"size": "64"}]}}}}}, {"name": "StatefulPartitionedCall/model/tfc3/tf_conv_2/conv2d_2/Conv2D/ReadVariableOp", "op": "Const", "attr": {"dtype": {"type": "DT_FLOAT"}, "value": {"tensor": {"dtype": "DT_FLOAT", "tensorShape": {"dim": [{"size": "1"}, {"size": "1"}, {"size": "64"}, {"size": "32"}]}}}}}, {"name": "StatefulPartitionedCall/model/tfc3/tf_conv_2/conv2d_2/BiasAdd/ReadVariableOp", "op": "Const", "attr": {"value": {"tensor": {"dtype": "DT_FLOAT", "tensorShape": {"dim": [{"size": "32"}]}}}, "dtype": {"type": "DT_FLOAT"}}}, {"name": "StatefulPartitionedCall/model/tfc3/sequential_2/tf_bottleneck/tf_conv_5/conv2d_5/Conv2D/ReadVariableOp", "op": "Const", "attr": {"value": {"tensor": {"dtype": "DT_FLOAT", "tensorShape": {"dim": [{"size": "1"}, {"size": "1"}, {"size": "32"}, {"size": "32"}]}}}, "dtype": {"type": "DT_FLOAT"}}}, {"name": "StatefulPartitionedCall/model/tfc3/sequential_2/tf_bottleneck/tf_conv_5/conv2d_5/BiasAdd/ReadVariableOp", "op": "Const", "attr": {"dtype": {"type": "DT_FLOAT"}, "value": {"tensor": {"dtype": "DT_FLOAT", "tensorShape": {"dim": [{"size": "32"}]}}}}}, {"name": "StatefulPartitionedCall/model/tfc3/sequential_2/tf_bottleneck/tf_conv_6/conv2d_6/Conv2D/ReadVariableOp", "op": "Const", "attr": {"dtype": {"type": "DT_FLOAT"}, "value": {"tensor": {"dtype": "DT_FLOAT", "tensorShape": {"dim": [{"size": "3"}, {"size": "3"}, {"size": "32"}, {"size": "32"}]}}}}}, {"name": "StatefulPartitionedCall/model/tfc3/sequential_2/tf_bottleneck/tf_conv_6/conv2d_6/BiasAdd/ReadVariableOp", "op": "Const", "attr": {"value": {"tensor": {"dtype": "DT_FLOAT", "tensorShape": {"dim": [{"size": "32"}]}}}, "dtype": {"type": "DT_FLOAT"}}}, {"name": "unknown", "op": "Const", "attr": {"dtype": {"type": "DT_INT32"}, "value": {"tensor": {"dtype": "DT_INT32", "tensorShape": {"dim": [{"size": "4"}, {"size": "2"}]}}}}}, {"name": "StatefulPartitionedCall/model/tf_conv/sequential/conv2d/Conv2D/ReadVariableOp", "op": "Const", "attr": {"dtype": {"type": "DT_FLOAT"}, "value": {"tensor": {"dtype": "DT_FLOAT", "tensorShape": {"dim": [{"size": "6"}, {"size": "6"}, {"size": "3"}, {"size": "32"}]}}}}}, {"name": "StatefulPartitionedCall/model/tf_conv/sequential/conv2d/BiasAdd/ReadVariableOp", "op": "Const", "attr": {"dtype": {"type": "DT_FLOAT"}, "value": {"tensor": {"dtype": "DT_FLOAT", "tensorShape": {"dim": [{"size": "32"}]}}}}}, {"name": "unknown_2", "op": "Const", "attr": {"dtype": {"type": "DT_INT32"}, "value": {"tensor": {"dtype": "DT_INT32", "tensorShape": {"dim": [{"size": "4"}, {"size": "2"}]}}}}}, {"name": "StatefulPartitionedCall/model/tf_conv_1/sequential_1/conv2d_1/Conv2D/ReadVariableOp", "op": "Const", "attr": {"dtype": {"type": "DT_FLOAT"}, "value": {"tensor": {"dtype": "DT_FLOAT", "tensorShape": {"dim": [{"size": "3"}, {"size": "3"}, {"size": "32"}, {"size": "64"}]}}}}}, {"name": "StatefulPartitionedCall/model/tf_conv_1/sequential_1/conv2d_1/BiasAdd/ReadVariableOp", "op": "Const", "attr": {"value": {"tensor": {"dtype": "DT_FLOAT", "tensorShape": {"dim": [{"size": "64"}]}}}, "dtype": {"type": "DT_FLOAT"}}}, {"name": "StatefulPartitionedCall/model/tfc3/tf_conv_3/conv2d_3/Conv2D/ReadVariableOp", "op": "Const", "attr": {"dtype": {"type": "DT_FLOAT"}, "value": {"tensor": {"dtype": "DT_FLOAT", "tensorShape": {"dim": [{"size": "1"}, {"size": "1"}, {"size": "64"}, {"size": "32"}]}}}}}, {"name": "StatefulPartitionedCall/model/tfc3/tf_conv_3/conv2d_3/BiasAdd/ReadVariableOp", "op": "Const", "attr": {"dtype": {"type": "DT_FLOAT"}, "value": {"tensor": {"dtype": "DT_FLOAT", "tensorShape": {"dim": [{"size": "32"}]}}}}}, {"name": "StatefulPartitionedCall/model/tfc3/concat/axis", "op": "Const", "attr": {"value": {"tensor": {"dtype": "DT_INT32", "tensorShape": {}}}, "dtype": {"type": "DT_INT32"}}}, {"name": "StatefulPartitionedCall/model/tfc3/tf_conv_4/conv2d_4/Conv2D/ReadVariableOp", "op": "Const", "attr": {"value": {"tensor": {"dtype": "DT_FLOAT", "tensorShape": {"dim": [{"size": "1"}, {"size": "1"}, {"size": "64"}, {"size": "64"}]}}}, "dtype": {"type": "DT_FLOAT"}}}, {"name": "StatefulPartitionedCall/model/tfc3/tf_conv_4/conv2d_4/BiasAdd/ReadVariableOp", "op": "Const", "attr": {"value": {"tensor": {"dtype": "DT_FLOAT", "tensorShape": {"dim": [{"size": "64"}]}}}, "dtype": {"type": "DT_FLOAT"}}}, {"name": "unknown_15", "op": "Const", "attr": {"dtype": {"type": "DT_INT32"}, "value": {"tensor": {"dtype": "DT_INT32", "tensorShape": {"dim": [{"size": "4"}, {"size": "2"}]}}}}}, {"name": "StatefulPartitionedCall/model/tf_conv_7/sequential_3/conv2d_7/Conv2D/ReadVariableOp", "op": "Const", "attr": {"value": {"tensor": {"dtype": "DT_FLOAT", "tensorShape": {"dim": [{"size": "3"}, {"size": "3"}, {"size": "64"}, {"size": "128"}]}}}, "dtype": {"type": "DT_FLOAT"}}}, {"name": "StatefulPartitionedCall/model/tf_conv_7/sequential_3/conv2d_7/BiasAdd/ReadVariableOp", "op": "Const", "attr": {"dtype": {"type": "DT_FLOAT"}, "value": {"tensor": {"dtype": "DT_FLOAT", "tensorShape": {"dim": [{"size": "128"}]}}}}}, {"name": "StatefulPartitionedCall/model/tfc3_1/tf_conv_9/conv2d_9/Conv2D/ReadVariableOp", "op": "Const", "attr": {"dtype": {"type": "DT_FLOAT"}, "value": {"tensor": {"dtype": "DT_FLOAT", "tensorShape": {"dim": [{"size": "1"}, {"size": "1"}, {"size": "128"}, {"size": "64"}]}}}}}, {"name": "StatefulPartitionedCall/model/tfc3_1/tf_conv_9/conv2d_9/BiasAdd/ReadVariableOp", "op": "Const", "attr": {"value": {"tensor": {"dtype": "DT_FLOAT", "tensorShape": {"dim": [{"size": "64"}]}}}, "dtype": {"type": "DT_FLOAT"}}}, {"name": "StatefulPartitionedCall/model/tfc3_1/concat/axis", "op": "Const", "attr": {"dtype": {"type": "DT_INT32"}, "value": {"tensor": {"dtype": "DT_INT32", "tensorShape": {}}}}}, {"name": "StatefulPartitionedCall/model/tfc3_1/tf_conv_10/conv2d_10/Conv2D/ReadVariableOp", "op": "Const", "attr": {"dtype": {"type": "DT_FLOAT"}, "value": {"tensor": {"dtype": "DT_FLOAT", "tensorShape": {"dim": [{"size": "1"}, {"size": "1"}, {"size": "128"}, {"size": "128"}]}}}}}, {"name": "StatefulPartitionedCall/model/tfc3_1/tf_conv_10/conv2d_10/BiasAdd/ReadVariableOp", "op": "Const", "attr": {"dtype": {"type": "DT_FLOAT"}, "value": {"tensor": {"dtype": "DT_FLOAT", "tensorShape": {"dim": [{"size": "128"}]}}}}}, {"name": "unknown_32", "op": "Const", "attr": {"dtype": {"type": "DT_INT32"}, "value": {"tensor": {"dtype": "DT_INT32", "tensorShape": {"dim": [{"size": "4"}, {"size": "2"}]}}}}}, {"name": "StatefulPartitionedCall/model/tf_conv_15/sequential_5/conv2d_15/Conv2D/ReadVariableOp", "op": "Const", "attr": {"value": {"tensor": {"dtype": "DT_FLOAT", "tensorShape": {"dim": [{"size": "3"}, {"size": "3"}, {"size": "128"}, {"size": "256"}]}}}, "dtype": {"type": "DT_FLOAT"}}}, {"name": "StatefulPartitionedCall/model/tf_conv_15/sequential_5/conv2d_15/BiasAdd/ReadVariableOp", "op": "Const", "attr": {"value": {"tensor": {"dtype": "DT_FLOAT", "tensorShape": {"dim": [{"size": "256"}]}}}, "dtype": {"type": "DT_FLOAT"}}}, {"name": "StatefulPartitionedCall/model/tfc3_2/tf_conv_17/conv2d_17/Conv2D/ReadVariableOp", "op": "Const", "attr": {"value": {"tensor": {"dtype": "DT_FLOAT", "tensorShape": {"dim": [{"size": "1"}, {"size": "1"}, {"size": "256"}, {"size": "128"}]}}}, "dtype": {"type": "DT_FLOAT"}}}, {"name": "StatefulPartitionedCall/model/tfc3_2/tf_conv_17/conv2d_17/BiasAdd/ReadVariableOp", "op": "Const", "attr": {"value": {"tensor": {"dtype": "DT_FLOAT", "tensorShape": {"dim": [{"size": "128"}]}}}, "dtype": {"type": "DT_FLOAT"}}}, {"name": "StatefulPartitionedCall/model/tfc3_2/concat/axis", "op": "Const", "attr": {"value": {"tensor": {"dtype": "DT_INT32", "tensorShape": {}}}, "dtype": {"type": "DT_INT32"}}}, {"name": "StatefulPartitionedCall/model/tfc3_2/tf_conv_18/conv2d_18/Conv2D/ReadVariableOp", "op": "Const", "attr": {"value": {"tensor": {"dtype": "DT_FLOAT", "tensorShape": {"dim": [{"size": "1"}, {"size": "1"}, {"size": "256"}, {"size": "256"}]}}}, "dtype": {"type": "DT_FLOAT"}}}, {"name": "StatefulPartitionedCall/model/tfc3_2/tf_conv_18/conv2d_18/BiasAdd/ReadVariableOp", "op": "Const", "attr": {"value": {"tensor": {"dtype": "DT_FLOAT", "tensorShape": {"dim": [{"size": "256"}]}}}, "dtype": {"type": "DT_FLOAT"}}}, {"name": "unknown_53", "op": "Const", "attr": {"dtype": {"type": "DT_INT32"}, "value": {"tensor": {"dtype": "DT_INT32", "tensorShape": {"dim": [{"size": "4"}, {"size": "2"}]}}}}}, {"name": "StatefulPartitionedCall/model/tf_conv_25/sequential_7/conv2d_25/Conv2D/ReadVariableOp", "op": "Const", "attr": {"dtype": {"type": "DT_FLOAT"}, "value": {"tensor": {"dtype": "DT_FLOAT", "tensorShape": {"dim": [{"size": "3"}, {"size": "3"}, {"size": "256"}, {"size": "512"}]}}}}}, {"name": "StatefulPartitionedCall/model/tf_conv_25/sequential_7/conv2d_25/BiasAdd/ReadVariableOp", "op": "Const", "attr": {"value": {"tensor": {"dtype": "DT_FLOAT", "tensorShape": {"dim": [{"size": "512"}]}}}, "dtype": {"type": "DT_FLOAT"}}}, {"name": "StatefulPartitionedCall/model/tfc3_3/tf_conv_27/conv2d_27/Conv2D/ReadVariableOp", "op": "Const", "attr": {"value": {"tensor": {"dtype": "DT_FLOAT", "tensorShape": {"dim": [{"size": "1"}, {"size": "1"}, {"size": "512"}, {"size": "256"}]}}}, "dtype": {"type": "DT_FLOAT"}}}, {"name": "StatefulPartitionedCall/model/tfc3_3/tf_conv_27/conv2d_27/BiasAdd/ReadVariableOp", "op": "Const", "attr": {"dtype": {"type": "DT_FLOAT"}, "value": {"tensor": {"dtype": "DT_FLOAT", "tensorShape": {"dim": [{"size": "256"}]}}}}}, {"name": "StatefulPartitionedCall/model/tfc3_3/concat/axis", "op": "Const", "attr": {"dtype": {"type": "DT_INT32"}, "value": {"tensor": {"dtype": "DT_INT32", "tensorShape": {}}}}}, {"name": "StatefulPartitionedCall/model/tfc3_3/tf_conv_28/conv2d_28/Conv2D/ReadVariableOp", "op": "Const", "attr": {"dtype": {"type": "DT_FLOAT"}, "value": {"tensor": {"dtype": "DT_FLOAT", "tensorShape": {"dim": [{"size": "1"}, {"size": "1"}, {"size": "512"}, {"size": "512"}]}}}}}, {"name": "StatefulPartitionedCall/model/tfc3_3/tf_conv_28/conv2d_28/BiasAdd/ReadVariableOp", "op": "Const", "attr": {"dtype": {"type": "DT_FLOAT"}, "value": {"tensor": {"dtype": "DT_FLOAT", "tensorShape": {"dim": [{"size": "512"}]}}}}}, {"name": "StatefulPartitionedCall/model/tfsppf/tf_conv_31/conv2d_31/Conv2D/ReadVariableOp", "op": "Const", "attr": {"dtype": {"type": "DT_FLOAT"}, "value": {"tensor": {"dtype": "DT_FLOAT", "tensorShape": {"dim": [{"size": "1"}, {"size": "1"}, {"size": "512"}, {"size": "256"}]}}}}}, {"name": "StatefulPartitionedCall/model/tfsppf/tf_conv_31/conv2d_31/BiasAdd/ReadVariableOp", "op": "Const", "attr": {"dtype": {"type": "DT_FLOAT"}, "value": {"tensor": {"dtype": "DT_FLOAT", "tensorShape": {"dim": [{"size": "256"}]}}}}}, {"name": "StatefulPartitionedCall/model/tfsppf/concat/axis", "op": "Const", "attr": {"value": {"tensor": {"dtype": "DT_INT32", "tensorShape": {}}}, "dtype": {"type": "DT_INT32"}}}, {"name": "StatefulPartitionedCall/model/tfsppf/tf_conv_32/conv2d_32/Conv2D/ReadVariableOp", "op": "Const", "attr": {"dtype": {"type": "DT_FLOAT"}, "value": {"tensor": {"dtype": "DT_FLOAT", "tensorShape": {"dim": [{"size": "1"}, {"size": "1"}, {"size": "1024"}, {"size": "512"}]}}}}}, {"name": "StatefulPartitionedCall/model/tfsppf/tf_conv_32/conv2d_32/BiasAdd/ReadVariableOp", "op": "Const", "attr": {"value": {"tensor": {"dtype": "DT_FLOAT", "tensorShape": {"dim": [{"size": "512"}]}}}, "dtype": {"type": "DT_FLOAT"}}}, {"name": "StatefulPartitionedCall/model/tf_conv_33/conv2d_33/Conv2D/ReadVariableOp", "op": "Const", "attr": {"dtype": {"type": "DT_FLOAT"}, "value": {"tensor": {"dtype": "DT_FLOAT", "tensorShape": {"dim": [{"size": "1"}, {"size": "1"}, {"size": "512"}, {"size": "256"}]}}}}}, {"name": "StatefulPartitionedCall/model/tf_conv_33/conv2d_33/BiasAdd/ReadVariableOp", "op": "Const", "attr": {"dtype": {"type": "DT_FLOAT"}, "value": {"tensor": {"dtype": "DT_FLOAT", "tensorShape": {"dim": [{"size": "256"}]}}}}}, {"name": "StatefulPartitionedCall/model/tf_concat_3/concat/axis", "op": "Const", "attr": {"value": {"tensor": {"dtype": "DT_INT32", "tensorShape": {}}}, "dtype": {"type": "DT_INT32"}}}, {"name": "StatefulPartitionedCall/model/tfc3_7/tf_conv_53/conv2d_53/Conv2D/ReadVariableOp", "op": "Const", "attr": {"dtype": {"type": "DT_FLOAT"}, "value": {"tensor": {"dtype": "DT_FLOAT", "tensorShape": {"dim": [{"size": "1"}, {"size": "1"}, {"size": "512"}, {"size": "256"}]}}}}}, {"name": "StatefulPartitionedCall/model/tfc3_7/tf_conv_53/conv2d_53/BiasAdd/ReadVariableOp", "op": "Const", "attr": {"dtype": {"type": "DT_FLOAT"}, "value": {"tensor": {"dtype": "DT_FLOAT", "tensorShape": {"dim": [{"size": "256"}]}}}}}, {"name": "StatefulPartitionedCall/model/tfc3_7/concat/axis", "op": "Const", "attr": {"dtype": {"type": "DT_INT32"}, "value": {"tensor": {"dtype": "DT_INT32", "tensorShape": {}}}}}, {"name": "StatefulPartitionedCall/model/tfc3_7/tf_conv_54/conv2d_54/Conv2D/ReadVariableOp", "op": "Const", "attr": {"dtype": {"type": "DT_FLOAT"}, "value": {"tensor": {"dtype": "DT_FLOAT", "tensorShape": {"dim": [{"size": "1"}, {"size": "1"}, {"size": "512"}, {"size": "512"}]}}}}}, {"name": "StatefulPartitionedCall/model/tfc3_7/tf_conv_54/conv2d_54/BiasAdd/ReadVariableOp", "op": "Const", "attr": {"value": {"tensor": {"dtype": "DT_FLOAT", "tensorShape": {"dim": [{"size": "512"}]}}}, "dtype": {"type": "DT_FLOAT"}}}, {"name": "StatefulPartitionedCall/model/tf_detect/tf_conv2d_2/conv2d_59/Conv2D/ReadVariableOp", "op": "Const", "attr": {"dtype": {"type": "DT_FLOAT"}, "value": {"tensor": {"dtype": "DT_FLOAT", "tensorShape": {"dim": [{"size": "1"}, {"size": "1"}, {"size": "512"}, {"size": "255"}]}}}}}, {"name": "StatefulPartitionedCall/model/tf_detect/tf_conv2d_2/conv2d_59/BiasAdd/ReadVariableOp", "op": "Const", "attr": {"value": {"tensor": {"dtype": "DT_FLOAT", "tensorShape": {"dim": [{"size": "255"}]}}}, "dtype": {"type": "DT_FLOAT"}}}, {"name": "StatefulPartitionedCall/model/tf_detect/Reshape_4/shape_1", "op": "Const", "attr": {"value": {"tensor": {"dtype": "DT_INT32", "tensorShape": {"dim": [{"size": "4"}]}}}, "dtype": {"type": "DT_INT32"}}}, {"name": "StatefulPartitionedCall/model/tf_detect/transpose_2/perm", "op": "Const", "attr": {"value": {"tensor": {"dtype": "DT_INT32", "tensorShape": {"dim": [{"size": "4"}]}}}, "dtype": {"type": "DT_INT32"}}}, {"name": "StatefulPartitionedCall/model/tf_detect/strided_slice_20/stack", "op": "Const", "attr": {"value": {"tensor": {"dtype": "DT_INT32", "tensorShape": {"dim": [{"size": "2"}]}}}, "dtype": {"type": "DT_INT32"}}}, {"name": "StatefulPartitionedCall/model/tf_detect/strided_slice_20/stack_1", "op": "Const", "attr": {"dtype": {"type": "DT_INT32"}, "value": {"tensor": {"dtype": "DT_INT32", "tensorShape": {"dim": [{"size": "2"}]}}}}}, {"name": "StatefulPartitionedCall/model/tf_detect/strided_slice_20/stack_2", "op": "Const", "attr": {"dtype": {"type": "DT_INT32"}, "value": {"tensor": {"dtype": "DT_INT32", "tensorShape": {"dim": [{"size": "2"}]}}}}}, {"name": "StatefulPartitionedCall/model/tf_detect/concat_2/axis", "op": "Const", "attr": {"dtype": {"type": "DT_INT32"}, "value": {"tensor": {"dtype": "DT_INT32", "tensorShape": {}}}}}, {"name": "StatefulPartitionedCall/model/tf_detect/Reshape_5/shape_1", "op": "Const", "attr": {"dtype": {"type": "DT_INT32"}, "value": {"tensor": {"dtype": "DT_INT32", "tensorShape": {"dim": [{"size": "3"}]}}}}}, {"name": "StatefulPartitionedCall/model/tf_detect/concat_3/axis", "op": "Const", "attr": {"dtype": {"type": "DT_INT32"}, "value": {"tensor": {"dtype": "DT_INT32", "tensorShape": {}}}}}, {"name": "input_1", "op": "Placeholder", "attr": {"dtype": {"type": "DT_FLOAT"}, "shape": {"shape": {"dim": [{"size": "1"}, {"size": "640"}, {"size": "640"}, {"size": "3"}]}}}}, {"name": "StatefulPartitionedCall/model/tf_conv/sequential/tf_pad/Pad", "op": "Pad", "input": ["input_1", "unknown"], "attr": {"T": {"type": "DT_FLOAT"}, "Tpaddings": {"type": "DT_INT32"}}}, {"name": "StatefulPartitionedCall/model/tf_conv/sequential/conv2d/BiasAdd", "op": "_FusedConv2D", "input": ["StatefulPartitionedCall/model/tf_conv/sequential/tf_pad/Pad", "StatefulPartitionedCall/model/tf_conv/sequential/conv2d/Conv2D/ReadVariableOp", "StatefulPartitionedCall/model/tf_conv/sequential/conv2d/BiasAdd/ReadVariableOp"], "device": "/device:CPU:0", "attr": {"padding": {"s": "VkFMSUQ="}, "use_cudnn_on_gpu": {"b": true}, "num_args": {"i": "1"}, "epsilon": {"f": 0.0}, "data_format": {"s": "TkhXQw=="}, "dilations": {"list": {"i": ["1", "1", "1", "1"]}}, "fused_ops": {"list": {"s": ["Qmlhc0FkZA=="]}}, "explicit_paddings": {"list": {}}, "T": {"type": "DT_FLOAT"}, "strides": {"list": {"i": ["1", "2", "2", "1"]}}}}, {"name": "StatefulPartitionedCall/model/tf_conv/Sigmoid", "op": "Sigmoid", "input": ["StatefulPartitionedCall/model/tf_conv/sequential/conv2d/BiasAdd"], "attr": {"T": {"type": "DT_FLOAT"}}}, {"name": "StatefulPartitionedCall/model/tf_conv/mul", "op": "Mul", "input": ["StatefulPartitionedCall/model/tf_conv/sequential/conv2d/BiasAdd", "StatefulPartitionedCall/model/tf_conv/Sigmoid"], "attr": {"T": {"type": "DT_FLOAT"}}}, {"name": "StatefulPartitionedCall/model/tf_conv_1/sequential_1/tf_pad_1/Pad", "op": "Pad", "input": ["StatefulPartitionedCall/model/tf_conv/mul", "unknown_2"], "attr": {"T": {"type": "DT_FLOAT"}, "Tpaddings": {"type": "DT_INT32"}}}, {"name": "StatefulPartitionedCall/model/tf_conv_1/sequential_1/conv2d_1/BiasAdd", "op": "_FusedConv2D", "input": ["StatefulPartitionedCall/model/tf_conv_1/sequential_1/tf_pad_1/Pad", "StatefulPartitionedCall/model/tf_conv_1/sequential_1/conv2d_1/Conv2D/ReadVariableOp", "StatefulPartitionedCall/model/tf_conv_1/sequential_1/conv2d_1/BiasAdd/ReadVariableOp"], "device": "/device:CPU:0", "attr": {"T": {"type": "DT_FLOAT"}, "data_format": {"s": "TkhXQw=="}, "strides": {"list": {"i": ["1", "2", "2", "1"]}}, "dilations": {"list": {"i": ["1", "1", "1", "1"]}}, "explicit_paddings": {"list": {}}, "epsilon": {"f": 0.0}, "padding": {"s": "VkFMSUQ="}, "num_args": {"i": "1"}, "use_cudnn_on_gpu": {"b": true}, "fused_ops": {"list": {"s": ["Qmlhc0FkZA=="]}}}}, {"name": "StatefulPartitionedCall/model/tf_conv_1/Sigmoid", "op": "Sigmoid", "input": ["StatefulPartitionedCall/model/tf_conv_1/sequential_1/conv2d_1/BiasAdd"], "attr": {"T": {"type": "DT_FLOAT"}}}, {"name": "StatefulPartitionedCall/model/tf_conv_1/mul", "op": "Mul", "input": ["StatefulPartitionedCall/model/tf_conv_1/sequential_1/conv2d_1/BiasAdd", "StatefulPartitionedCall/model/tf_conv_1/Sigmoid"], "attr": {"T": {"type": "DT_FLOAT"}}}, {"name": "StatefulPartitionedCall/model/tfc3/tf_conv_2/conv2d_2/BiasAdd", "op": "_FusedConv2D", "input": ["StatefulPartitionedCall/model/tf_conv_1/mul", "StatefulPartitionedCall/model/tfc3/tf_conv_2/conv2d_2/Conv2D/ReadVariableOp", "StatefulPartitionedCall/model/tfc3/tf_conv_2/conv2d_2/BiasAdd/ReadVariableOp"], "device": "/device:CPU:0", "attr": {"strides": {"list": {"i": ["1", "1", "1", "1"]}}, "use_cudnn_on_gpu": {"b": true}, "num_args": {"i": "1"}, "fused_ops": {"list": {"s": ["Qmlhc0FkZA=="]}}, "T": {"type": "DT_FLOAT"}, "epsilon": {"f": 0.0}, "data_format": {"s": "TkhXQw=="}, "dilations": {"list": {"i": ["1", "1", "1", "1"]}}, "explicit_paddings": {"list": {}}, "padding": {"s": "U0FNRQ=="}}}, {"name": "StatefulPartitionedCall/model/tfc3/tf_conv_3/conv2d_3/BiasAdd", "op": "_FusedConv2D", "input": ["StatefulPartitionedCall/model/tf_conv_1/mul", "StatefulPartitionedCall/model/tfc3/tf_conv_3/conv2d_3/Conv2D/ReadVariableOp", "StatefulPartitionedCall/model/tfc3/tf_conv_3/conv2d_3/BiasAdd/ReadVariableOp"], "device": "/device:CPU:0", "attr": {"explicit_paddings": {"list": {}}, "T": {"type": "DT_FLOAT"}, "num_args": {"i": "1"}, "use_cudnn_on_gpu": {"b": true}, "data_format": {"s": "TkhXQw=="}, "epsilon": {"f": 0.0}, "dilations": {"list": {"i": ["1", "1", "1", "1"]}}, "fused_ops": {"list": {"s": ["Qmlhc0FkZA=="]}}, "strides": {"list": {"i": ["1", "1", "1", "1"]}}, "padding": {"s": "U0FNRQ=="}}}, {"name": "StatefulPartitionedCall/model/tfc3/tf_conv_2/Sigmoid", "op": "Sigmoid", "input": ["StatefulPartitionedCall/model/tfc3/tf_conv_2/conv2d_2/BiasAdd"], "attr": {"T": {"type": "DT_FLOAT"}}}, {"name": "StatefulPartitionedCall/model/tfc3/tf_conv_3/Sigmoid", "op": "Sigmoid", "input": ["StatefulPartitionedCall/model/tfc3/tf_conv_3/conv2d_3/BiasAdd"], "attr": {"T": {"type": "DT_FLOAT"}}}, {"name": "StatefulPartitionedCall/model/tfc3/tf_conv_2/mul", "op": "Mul", "input": ["StatefulPartitionedCall/model/tfc3/tf_conv_2/conv2d_2/BiasAdd", "StatefulPartitionedCall/model/tfc3/tf_conv_2/Sigmoid"], "attr": {"T": {"type": "DT_FLOAT"}}}, {"name": "StatefulPartitionedCall/model/tfc3/tf_conv_3/mul", "op": "Mul", "input": ["StatefulPartitionedCall/model/tfc3/tf_conv_3/conv2d_3/BiasAdd", "StatefulPartitionedCall/model/tfc3/tf_conv_3/Sigmoid"], "attr": {"T": {"type": "DT_FLOAT"}}}, {"name": "StatefulPartitionedCall/model/tfc3/sequential_2/tf_bottleneck/tf_conv_5/conv2d_5/BiasAdd", "op": "_FusedConv2D", "input": ["StatefulPartitionedCall/model/tfc3/tf_conv_2/mul", "StatefulPartitionedCall/model/tfc3/sequential_2/tf_bottleneck/tf_conv_5/conv2d_5/Conv2D/ReadVariableOp", "StatefulPartitionedCall/model/tfc3/sequential_2/tf_bottleneck/tf_conv_5/conv2d_5/BiasAdd/ReadVariableOp"], "device": "/device:CPU:0", "attr": {"use_cudnn_on_gpu": {"b": true}, "fused_ops": {"list": {"s": ["Qmlhc0FkZA=="]}}, "num_args": {"i": "1"}, "data_format": {"s": "TkhXQw=="}, "dilations": {"list": {"i": ["1", "1", "1", "1"]}}, "explicit_paddings": {"list": {}}, "padding": {"s": "U0FNRQ=="}, "T": {"type": "DT_FLOAT"}, "strides": {"list": {"i": ["1", "1", "1", "1"]}}, "epsilon": {"f": 0.0}}}, {"name": "StatefulPartitionedCall/model/tfc3/sequential_2/tf_bottleneck/tf_conv_5/Sigmoid", "op": "Sigmoid", "input": ["StatefulPartitionedCall/model/tfc3/sequential_2/tf_bottleneck/tf_conv_5/conv2d_5/BiasAdd"], "attr": {"T": {"type": "DT_FLOAT"}}}, {"name": "StatefulPartitionedCall/model/tfc3/sequential_2/tf_bottleneck/tf_conv_5/mul", "op": "Mul", "input": ["StatefulPartitionedCall/model/tfc3/sequential_2/tf_bottleneck/tf_conv_5/conv2d_5/BiasAdd", "StatefulPartitionedCall/model/tfc3/sequential_2/tf_bottleneck/tf_conv_5/Sigmoid"], "attr": {"T": {"type": "DT_FLOAT"}}}, {"name": "StatefulPartitionedCall/model/tfc3/sequential_2/tf_bottleneck/tf_conv_6/conv2d_6/BiasAdd", "op": "_FusedConv2D", "input": ["StatefulPartitionedCall/model/tfc3/sequential_2/tf_bottleneck/tf_conv_5/mul", "StatefulPartitionedCall/model/tfc3/sequential_2/tf_bottleneck/tf_conv_6/conv2d_6/Conv2D/ReadVariableOp", "StatefulPartitionedCall/model/tfc3/sequential_2/tf_bottleneck/tf_conv_6/conv2d_6/BiasAdd/ReadVariableOp"], "device": "/device:CPU:0", "attr": {"padding": {"s": "U0FNRQ=="}, "num_args": {"i": "1"}, "strides": {"list": {"i": ["1", "1", "1", "1"]}}, "use_cudnn_on_gpu": {"b": true}, "T": {"type": "DT_FLOAT"}, "fused_ops": {"list": {"s": ["Qmlhc0FkZA=="]}}, "data_format": {"s": "TkhXQw=="}, "epsilon": {"f": 0.0}, "dilations": {"list": {"i": ["1", "1", "1", "1"]}}, "explicit_paddings": {"list": {}}}}, {"name": "StatefulPartitionedCall/model/tfc3/sequential_2/tf_bottleneck/tf_conv_6/Sigmoid", "op": "Sigmoid", "input": ["StatefulPartitionedCall/model/tfc3/sequential_2/tf_bottleneck/tf_conv_6/conv2d_6/BiasAdd"], "attr": {"T": {"type": "DT_FLOAT"}}}, {"name": "StatefulPartitionedCall/model/tfc3/sequential_2/tf_bottleneck/tf_conv_6/mul", "op": "Mul", "input": ["StatefulPartitionedCall/model/tfc3/sequential_2/tf_bottleneck/tf_conv_6/conv2d_6/BiasAdd", "StatefulPartitionedCall/model/tfc3/sequential_2/tf_bottleneck/tf_conv_6/Sigmoid"], "attr": {"T": {"type": "DT_FLOAT"}}}, {"name": "StatefulPartitionedCall/model/tfc3/sequential_2/tf_bottleneck/add", "op": "AddV2", "input": ["StatefulPartitionedCall/model/tfc3/tf_conv_2/mul", "StatefulPartitionedCall/model/tfc3/sequential_2/tf_bottleneck/tf_conv_6/mul"], "attr": {"T": {"type": "DT_FLOAT"}}}, {"name": "StatefulPartitionedCall/model/tfc3/concat", "op": "ConcatV2", "input": ["StatefulPartitionedCall/model/tfc3/sequential_2/tf_bottleneck/add", "StatefulPartitionedCall/model/tfc3/tf_conv_3/mul", "StatefulPartitionedCall/model/tfc3/concat/axis"], "attr": {"N": {"i": "2"}, "Tidx": {"type": "DT_INT32"}, "T": {"type": "DT_FLOAT"}}}, {"name": "StatefulPartitionedCall/model/tfc3/tf_conv_4/conv2d_4/BiasAdd", "op": "_FusedConv2D", "input": ["StatefulPartitionedCall/model/tfc3/concat", "StatefulPartitionedCall/model/tfc3/tf_conv_4/conv2d_4/Conv2D/ReadVariableOp", "StatefulPartitionedCall/model/tfc3/tf_conv_4/conv2d_4/BiasAdd/ReadVariableOp"], "device": "/device:CPU:0", "attr": {"num_args": {"i": "1"}, "use_cudnn_on_gpu": {"b": true}, "epsilon": {"f": 0.0}, "fused_ops": {"list": {"s": ["Qmlhc0FkZA=="]}}, "explicit_paddings": {"list": {}}, "data_format": {"s": "TkhXQw=="}, "dilations": {"list": {"i": ["1", "1", "1", "1"]}}, "T": {"type": "DT_FLOAT"}, "padding": {"s": "U0FNRQ=="}, "strides": {"list": {"i": ["1", "1", "1", "1"]}}}}, {"name": "StatefulPartitionedCall/model/tfc3/tf_conv_4/Sigmoid", "op": "Sigmoid", "input": ["StatefulPartitionedCall/model/tfc3/tf_conv_4/conv2d_4/BiasAdd"], "attr": {"T": {"type": "DT_FLOAT"}}}, {"name": "StatefulPartitionedCall/model/tfc3/tf_conv_4/mul", "op": "Mul", "input": ["StatefulPartitionedCall/model/tfc3/tf_conv_4/conv2d_4/BiasAdd", "StatefulPartitionedCall/model/tfc3/tf_conv_4/Sigmoid"], "attr": {"T": {"type": "DT_FLOAT"}}}, {"name": "StatefulPartitionedCall/model/tf_conv_7/sequential_3/tf_pad_2/Pad", "op": "Pad", "input": ["StatefulPartitionedCall/model/tfc3/tf_conv_4/mul", "unknown_15"], "attr": {"Tpaddings": {"type": "DT_INT32"}, "T": {"type": "DT_FLOAT"}}}, {"name": "StatefulPartitionedCall/model/tf_conv_7/sequential_3/conv2d_7/BiasAdd", "op": "_FusedConv2D", "input": ["StatefulPartitionedCall/model/tf_conv_7/sequential_3/tf_pad_2/Pad", "StatefulPartitionedCall/model/tf_conv_7/sequential_3/conv2d_7/Conv2D/ReadVariableOp", "StatefulPartitionedCall/model/tf_conv_7/sequential_3/conv2d_7/BiasAdd/ReadVariableOp"], "device": "/device:CPU:0", "attr": {"num_args": {"i": "1"}, "use_cudnn_on_gpu": {"b": true}, "epsilon": {"f": 0.0}, "strides": {"list": {"i": ["1", "2", "2", "1"]}}, "data_format": {"s": "TkhXQw=="}, "explicit_paddings": {"list": {}}, "T": {"type": "DT_FLOAT"}, "padding": {"s": "VkFMSUQ="}, "dilations": {"list": {"i": ["1", "1", "1", "1"]}}, "fused_ops": {"list": {"s": ["Qmlhc0FkZA=="]}}}}, {"name": "StatefulPartitionedCall/model/tf_conv_7/Sigmoid", "op": "Sigmoid", "input": ["StatefulPartitionedCall/model/tf_conv_7/sequential_3/conv2d_7/BiasAdd"], "attr": {"T": {"type": "DT_FLOAT"}}}, {"name": "StatefulPartitionedCall/model/tf_conv_7/mul", "op": "Mul", "input": ["StatefulPartitionedCall/model/tf_conv_7/sequential_3/conv2d_7/BiasAdd", "StatefulPartitionedCall/model/tf_conv_7/Sigmoid"], "attr": {"T": {"type": "DT_FLOAT"}}}, {"name": "StatefulPartitionedCall/model/tfc3_1/tf_conv_8/conv2d_8/BiasAdd", "op": "_FusedConv2D", "input": ["StatefulPartitionedCall/model/tf_conv_7/mul", "StatefulPartitionedCall/model/tfc3_1/tf_conv_8/conv2d_8/Conv2D/ReadVariableOp", "StatefulPartitionedCall/model/tfc3_1/tf_conv_8/conv2d_8/BiasAdd/ReadVariableOp"], "device": "/device:CPU:0", "attr": {"data_format": {"s": "TkhXQw=="}, "dilations": {"list": {"i": ["1", "1", "1", "1"]}}, "fused_ops": {"list": {"s": ["Qmlhc0FkZA=="]}}, "epsilon": {"f": 0.0}, "strides": {"list": {"i": ["1", "1", "1", "1"]}}, "padding": {"s": "U0FNRQ=="}, "explicit_paddings": {"list": {}}, "T": {"type": "DT_FLOAT"}, "use_cudnn_on_gpu": {"b": true}, "num_args": {"i": "1"}}}, {"name": "StatefulPartitionedCall/model/tfc3_1/tf_conv_9/conv2d_9/BiasAdd", "op": "_FusedConv2D", "input": ["StatefulPartitionedCall/model/tf_conv_7/mul", "StatefulPartitionedCall/model/tfc3_1/tf_conv_9/conv2d_9/Conv2D/ReadVariableOp", "StatefulPartitionedCall/model/tfc3_1/tf_conv_9/conv2d_9/BiasAdd/ReadVariableOp"], "device": "/device:CPU:0", "attr": {"epsilon": {"f": 0.0}, "dilations": {"list": {"i": ["1", "1", "1", "1"]}}, "strides": {"list": {"i": ["1", "1", "1", "1"]}}, "T": {"type": "DT_FLOAT"}, "explicit_paddings": {"list": {}}, "use_cudnn_on_gpu": {"b": true}, "fused_ops": {"list": {"s": ["Qmlhc0FkZA=="]}}, "num_args": {"i": "1"}, "padding": {"s": "U0FNRQ=="}, "data_format": {"s": "TkhXQw=="}}}, {"name": "StatefulPartitionedCall/model/tfc3_1/tf_conv_8/Sigmoid", "op": "Sigmoid", "input": ["StatefulPartitionedCall/model/tfc3_1/tf_conv_8/conv2d_8/BiasAdd"], "attr": {"T": {"type": "DT_FLOAT"}}}, {"name": "StatefulPartitionedCall/model/tfc3_1/tf_conv_9/Sigmoid", "op": "Sigmoid", "input": ["StatefulPartitionedCall/model/tfc3_1/tf_conv_9/conv2d_9/BiasAdd"], "attr": {"T": {"type": "DT_FLOAT"}}}, {"name": "StatefulPartitionedCall/model/tfc3_1/tf_conv_8/mul", "op": "Mul", "input": ["StatefulPartitionedCall/model/tfc3_1/tf_conv_8/conv2d_8/BiasAdd", "StatefulPartitionedCall/model/tfc3_1/tf_conv_8/Sigmoid"], "attr": {"T": {"type": "DT_FLOAT"}}}, {"name": "StatefulPartitionedCall/model/tfc3_1/tf_conv_9/mul", "op": "Mul", "input": ["StatefulPartitionedCall/model/tfc3_1/tf_conv_9/conv2d_9/BiasAdd", "StatefulPartitionedCall/model/tfc3_1/tf_conv_9/Sigmoid"], "attr": {"T": {"type": "DT_FLOAT"}}}, {"name": "StatefulPartitionedCall/model/tfc3_1/sequential_4/tf_bottleneck_1/tf_conv_11/conv2d_11/BiasAdd", "op": "_FusedConv2D", "input": ["StatefulPartitionedCall/model/tfc3_1/tf_conv_8/mul", "StatefulPartitionedCall/model/tfc3_1/sequential_4/tf_bottleneck_1/tf_conv_11/conv2d_11/Conv2D/ReadVariableOp", "StatefulPartitionedCall/model/tfc3_1/sequential_4/tf_bottleneck_1/tf_conv_11/conv2d_11/BiasAdd/ReadVariableOp"], "device": "/device:CPU:0", "attr": {"explicit_paddings": {"list": {}}, "data_format": {"s": "TkhXQw=="}, "dilations": {"list": {"i": ["1", "1", "1", "1"]}}, "fused_ops": {"list": {"s": ["Qmlhc0FkZA=="]}}, "strides": {"list": {"i": ["1", "1", "1", "1"]}}, "use_cudnn_on_gpu": {"b": true}, "num_args": {"i": "1"}, "padding": {"s": "U0FNRQ=="}, "T": {"type": "DT_FLOAT"}, "epsilon": {"f": 0.0}}}, {"name": "StatefulPartitionedCall/model/tfc3_1/sequential_4/tf_bottleneck_1/tf_conv_11/Sigmoid", "op": "Sigmoid", "input": ["StatefulPartitionedCall/model/tfc3_1/sequential_4/tf_bottleneck_1/tf_conv_11/conv2d_11/BiasAdd"], "attr": {"T": {"type": "DT_FLOAT"}}}, {"name": "StatefulPartitionedCall/model/tfc3_1/sequential_4/tf_bottleneck_1/tf_conv_11/mul", "op": "Mul", "input": ["StatefulPartitionedCall/model/tfc3_1/sequential_4/tf_bottleneck_1/tf_conv_11/conv2d_11/BiasAdd", "StatefulPartitionedCall/model/tfc3_1/sequential_4/tf_bottleneck_1/tf_conv_11/Sigmoid"], "attr": {"T": {"type": "DT_FLOAT"}}}, {"name": "StatefulPartitionedCall/model/tfc3_1/sequential_4/tf_bottleneck_1/tf_conv_12/conv2d_12/BiasAdd", "op": "_FusedConv2D", "input": ["StatefulPartitionedCall/model/tfc3_1/sequential_4/tf_bottleneck_1/tf_conv_11/mul", "StatefulPartitionedCall/model/tfc3_1/sequential_4/tf_bottleneck_1/tf_conv_12/conv2d_12/Conv2D/ReadVariableOp", "StatefulPartitionedCall/model/tfc3_1/sequential_4/tf_bottleneck_1/tf_conv_12/conv2d_12/BiasAdd/ReadVariableOp"], "device": "/device:CPU:0", "attr": {"T": {"type": "DT_FLOAT"}, "data_format": {"s": "TkhXQw=="}, "explicit_paddings": {"list": {}}, "dilations": {"list": {"i": ["1", "1", "1", "1"]}}, "fused_ops": {"list": {"s": ["Qmlhc0FkZA=="]}}, "epsilon": {"f": 0.0}, "strides": {"list": {"i": ["1", "1", "1", "1"]}}, "use_cudnn_on_gpu": {"b": true}, "num_args": {"i": "1"}, "padding": {"s": "U0FNRQ=="}}}, {"name": "StatefulPartitionedCall/model/tfc3_1/sequential_4/tf_bottleneck_1/tf_conv_12/Sigmoid", "op": "Sigmoid", "input": ["StatefulPartitionedCall/model/tfc3_1/sequential_4/tf_bottleneck_1/tf_conv_12/conv2d_12/BiasAdd"], "attr": {"T": {"type": "DT_FLOAT"}}}, {"name": "StatefulPartitionedCall/model/tfc3_1/sequential_4/tf_bottleneck_1/tf_conv_12/mul", "op": "Mul", "input": ["StatefulPartitionedCall/model/tfc3_1/sequential_4/tf_bottleneck_1/tf_conv_12/conv2d_12/BiasAdd", "StatefulPartitionedCall/model/tfc3_1/sequential_4/tf_bottleneck_1/tf_conv_12/Sigmoid"], "attr": {"T": {"type": "DT_FLOAT"}}}, {"name": "StatefulPartitionedCall/model/tfc3_1/sequential_4/tf_bottleneck_1/add", "op": "AddV2", "input": ["StatefulPartitionedCall/model/tfc3_1/tf_conv_8/mul", "StatefulPartitionedCall/model/tfc3_1/sequential_4/tf_bottleneck_1/tf_conv_12/mul"], "attr": {"T": {"type": "DT_FLOAT"}}}, {"name": "StatefulPartitionedCall/model/tfc3_1/sequential_4/tf_bottleneck_2/tf_conv_13/conv2d_13/BiasAdd", "op": "_FusedConv2D", "input": ["StatefulPartitionedCall/model/tfc3_1/sequential_4/tf_bottleneck_1/add", "StatefulPartitionedCall/model/tfc3_1/sequential_4/tf_bottleneck_2/tf_conv_13/conv2d_13/Conv2D/ReadVariableOp", "StatefulPartitionedCall/model/tfc3_1/sequential_4/tf_bottleneck_2/tf_conv_13/conv2d_13/BiasAdd/ReadVariableOp"], "device": "/device:CPU:0", "attr": {"strides": {"list": {"i": ["1", "1", "1", "1"]}}, "data_format": {"s": "TkhXQw=="}, "dilations": {"list": {"i": ["1", "1", "1", "1"]}}, "explicit_paddings": {"list": {}}, "fused_ops": {"list": {"s": ["Qmlhc0FkZA=="]}}, "epsilon": {"f": 0.0}, "padding": {"s": "U0FNRQ=="}, "use_cudnn_on_gpu": {"b": true}, "T": {"type": "DT_FLOAT"}, "num_args": {"i": "1"}}}, {"name": "StatefulPartitionedCall/model/tfc3_1/sequential_4/tf_bottleneck_2/tf_conv_13/Sigmoid", "op": "Sigmoid", "input": ["StatefulPartitionedCall/model/tfc3_1/sequential_4/tf_bottleneck_2/tf_conv_13/conv2d_13/BiasAdd"], "attr": {"T": {"type": "DT_FLOAT"}}}, {"name": "StatefulPartitionedCall/model/tfc3_1/sequential_4/tf_bottleneck_2/tf_conv_13/mul", "op": "Mul", "input": ["StatefulPartitionedCall/model/tfc3_1/sequential_4/tf_bottleneck_2/tf_conv_13/conv2d_13/BiasAdd", "StatefulPartitionedCall/model/tfc3_1/sequential_4/tf_bottleneck_2/tf_conv_13/Sigmoid"], "attr": {"T": {"type": "DT_FLOAT"}}}, {"name": "StatefulPartitionedCall/model/tfc3_1/sequential_4/tf_bottleneck_2/tf_conv_14/conv2d_14/BiasAdd", "op": "_FusedConv2D", "input": ["StatefulPartitionedCall/model/tfc3_1/sequential_4/tf_bottleneck_2/tf_conv_13/mul", "StatefulPartitionedCall/model/tfc3_1/sequential_4/tf_bottleneck_2/tf_conv_14/conv2d_14/Conv2D/ReadVariableOp", "StatefulPartitionedCall/model/tfc3_1/sequential_4/tf_bottleneck_2/tf_conv_14/conv2d_14/BiasAdd/ReadVariableOp"], "device": "/device:CPU:0", "attr": {"explicit_paddings": {"list": {}}, "dilations": {"list": {"i": ["1", "1", "1", "1"]}}, "T": {"type": "DT_FLOAT"}, "epsilon": {"f": 0.0}, "use_cudnn_on_gpu": {"b": true}, "num_args": {"i": "1"}, "fused_ops": {"list": {"s": ["Qmlhc0FkZA=="]}}, "padding": {"s": "U0FNRQ=="}, "strides": {"list": {"i": ["1", "1", "1", "1"]}}, "data_format": {"s": "TkhXQw=="}}}, {"name": "StatefulPartitionedCall/model/tfc3_1/sequential_4/tf_bottleneck_2/tf_conv_14/Sigmoid", "op": "Sigmoid", "input": ["StatefulPartitionedCall/model/tfc3_1/sequential_4/tf_bottleneck_2/tf_conv_14/conv2d_14/BiasAdd"], "attr": {"T": {"type": "DT_FLOAT"}}}, {"name": "StatefulPartitionedCall/model/tfc3_1/sequential_4/tf_bottleneck_2/tf_conv_14/mul", "op": "Mul", "input": ["StatefulPartitionedCall/model/tfc3_1/sequential_4/tf_bottleneck_2/tf_conv_14/conv2d_14/BiasAdd", "StatefulPartitionedCall/model/tfc3_1/sequential_4/tf_bottleneck_2/tf_conv_14/Sigmoid"], "attr": {"T": {"type": "DT_FLOAT"}}}, {"name": "StatefulPartitionedCall/model/tfc3_1/sequential_4/tf_bottleneck_2/add", "op": "AddV2", "input": ["StatefulPartitionedCall/model/tfc3_1/sequential_4/tf_bottleneck_1/add", "StatefulPartitionedCall/model/tfc3_1/sequential_4/tf_bottleneck_2/tf_conv_14/mul"], "attr": {"T": {"type": "DT_FLOAT"}}}, {"name": "StatefulPartitionedCall/model/tfc3_1/concat", "op": "ConcatV2", "input": ["StatefulPartitionedCall/model/tfc3_1/sequential_4/tf_bottleneck_2/add", "StatefulPartitionedCall/model/tfc3_1/tf_conv_9/mul", "StatefulPartitionedCall/model/tfc3_1/concat/axis"], "attr": {"T": {"type": "DT_FLOAT"}, "Tidx": {"type": "DT_INT32"}, "N": {"i": "2"}}}, {"name": "StatefulPartitionedCall/model/tfc3_1/tf_conv_10/conv2d_10/BiasAdd", "op": "_FusedConv2D", "input": ["StatefulPartitionedCall/model/tfc3_1/concat", "StatefulPartitionedCall/model/tfc3_1/tf_conv_10/conv2d_10/Conv2D/ReadVariableOp", "StatefulPartitionedCall/model/tfc3_1/tf_conv_10/conv2d_10/BiasAdd/ReadVariableOp"], "device": "/device:CPU:0", "attr": {"use_cudnn_on_gpu": {"b": true}, "num_args": {"i": "1"}, "padding": {"s": "U0FNRQ=="}, "T": {"type": "DT_FLOAT"}, "data_format": {"s": "TkhXQw=="}, "explicit_paddings": {"list": {}}, "fused_ops": {"list": {"s": ["Qmlhc0FkZA=="]}}, "dilations": {"list": {"i": ["1", "1", "1", "1"]}}, "epsilon": {"f": 0.0}, "strides": {"list": {"i": ["1", "1", "1", "1"]}}}}, {"name": "StatefulPartitionedCall/model/tfc3_1/tf_conv_10/Sigmoid", "op": "Sigmoid", "input": ["StatefulPartitionedCall/model/tfc3_1/tf_conv_10/conv2d_10/BiasAdd"], "attr": {"T": {"type": "DT_FLOAT"}}}, {"name": "StatefulPartitionedCall/model/tfc3_1/tf_conv_10/mul", "op": "Mul", "input": ["StatefulPartitionedCall/model/tfc3_1/tf_conv_10/conv2d_10/BiasAdd", "StatefulPartitionedCall/model/tfc3_1/tf_conv_10/Sigmoid"], "attr": {"T": {"type": "DT_FLOAT"}}}, {"name": "StatefulPartitionedCall/model/tf_conv_15/sequential_5/tf_pad_3/Pad", "op": "Pad", "input": ["StatefulPartitionedCall/model/tfc3_1/tf_conv_10/mul", "unknown_32"], "attr": {"T": {"type": "DT_FLOAT"}, "Tpaddings": {"type": "DT_INT32"}}}, {"name": "StatefulPartitionedCall/model/tf_conv_15/sequential_5/conv2d_15/BiasAdd", "op": "_FusedConv2D", "input": ["StatefulPartitionedCall/model/tf_conv_15/sequential_5/tf_pad_3/Pad", "StatefulPartitionedCall/model/tf_conv_15/sequential_5/conv2d_15/Conv2D/ReadVariableOp", "StatefulPartitionedCall/model/tf_conv_15/sequential_5/conv2d_15/BiasAdd/ReadVariableOp"], "device": "/device:CPU:0", "attr": {"use_cudnn_on_gpu": {"b": true}, "num_args": {"i": "1"}, "padding": {"s": "VkFMSUQ="}, "explicit_paddings": {"list": {}}, "epsilon": {"f": 0.0}, "T": {"type": "DT_FLOAT"}, "data_format": {"s": "TkhXQw=="}, "dilations": {"list": {"i": ["1", "1", "1", "1"]}}, "fused_ops": {"list": {"s": ["Qmlhc0FkZA=="]}}, "strides": {"list": {"i": ["1", "2", "2", "1"]}}}}, {"name": "StatefulPartitionedCall/model/tf_conv_15/Sigmoid", "op": "Sigmoid", "input": ["StatefulPartitionedCall/model/tf_conv_15/sequential_5/conv2d_15/BiasAdd"], "attr": {"T": {"type": "DT_FLOAT"}}}, {"name": "StatefulPartitionedCall/model/tf_conv_15/mul", "op": "Mul", "input": ["StatefulPartitionedCall/model/tf_conv_15/sequential_5/conv2d_15/BiasAdd", "StatefulPartitionedCall/model/tf_conv_15/Sigmoid"], "attr": {"T": {"type": "DT_FLOAT"}}}, {"name": "StatefulPartitionedCall/model/tfc3_2/tf_conv_16/conv2d_16/BiasAdd", "op": "_FusedConv2D", "input": ["StatefulPartitionedCall/model/tf_conv_15/mul", "StatefulPartitionedCall/model/tfc3_2/tf_conv_16/conv2d_16/Conv2D/ReadVariableOp", "StatefulPartitionedCall/model/tfc3_2/tf_conv_16/conv2d_16/BiasAdd/ReadVariableOp"], "device": "/device:CPU:0", "attr": {"data_format": {"s": "TkhXQw=="}, "strides": {"list": {"i": ["1", "1", "1", "1"]}}, "epsilon": {"f": 0.0}, "dilations": {"list": {"i": ["1", "1", "1", "1"]}}, "explicit_paddings": {"list": {}}, "fused_ops": {"list": {"s": ["Qmlhc0FkZA=="]}}, "padding": {"s": "U0FNRQ=="}, "T": {"type": "DT_FLOAT"}, "num_args": {"i": "1"}, "use_cudnn_on_gpu": {"b": true}}}, {"name": "StatefulPartitionedCall/model/tfc3_2/tf_conv_17/conv2d_17/BiasAdd", "op": "_FusedConv2D", "input": ["StatefulPartitionedCall/model/tf_conv_15/mul", "StatefulPartitionedCall/model/tfc3_2/tf_conv_17/conv2d_17/Conv2D/ReadVariableOp", "StatefulPartitionedCall/model/tfc3_2/tf_conv_17/conv2d_17/BiasAdd/ReadVariableOp"], "device": "/device:CPU:0", "attr": {"use_cudnn_on_gpu": {"b": true}, "dilations": {"list": {"i": ["1", "1", "1", "1"]}}, "data_format": {"s": "TkhXQw=="}, "strides": {"list": {"i": ["1", "1", "1", "1"]}}, "T": {"type": "DT_FLOAT"}, "num_args": {"i": "1"}, "fused_ops": {"list": {"s": ["Qmlhc0FkZA=="]}}, "explicit_paddings": {"list": {}}, "epsilon": {"f": 0.0}, "padding": {"s": "U0FNRQ=="}}}, {"name": "StatefulPartitionedCall/model/tfc3_2/tf_conv_16/Sigmoid", "op": "Sigmoid", "input": ["StatefulPartitionedCall/model/tfc3_2/tf_conv_16/conv2d_16/BiasAdd"], "attr": {"T": {"type": "DT_FLOAT"}}}, {"name": "StatefulPartitionedCall/model/tfc3_2/tf_conv_17/Sigmoid", "op": "Sigmoid", "input": ["StatefulPartitionedCall/model/tfc3_2/tf_conv_17/conv2d_17/BiasAdd"], "attr": {"T": {"type": "DT_FLOAT"}}}, {"name": "StatefulPartitionedCall/model/tfc3_2/tf_conv_16/mul", "op": "Mul", "input": ["StatefulPartitionedCall/model/tfc3_2/tf_conv_16/conv2d_16/BiasAdd", "StatefulPartitionedCall/model/tfc3_2/tf_conv_16/Sigmoid"], "attr": {"T": {"type": "DT_FLOAT"}}}, {"name": "StatefulPartitionedCall/model/tfc3_2/tf_conv_17/mul", "op": "Mul", "input": ["StatefulPartitionedCall/model/tfc3_2/tf_conv_17/conv2d_17/BiasAdd", "StatefulPartitionedCall/model/tfc3_2/tf_conv_17/Sigmoid"], "attr": {"T": {"type": "DT_FLOAT"}}}, {"name": "StatefulPartitionedCall/model/tfc3_2/sequential_6/tf_bottleneck_3/tf_conv_19/conv2d_19/BiasAdd", "op": "_FusedConv2D", "input": ["StatefulPartitionedCall/model/tfc3_2/tf_conv_16/mul", "StatefulPartitionedCall/model/tfc3_2/sequential_6/tf_bottleneck_3/tf_conv_19/conv2d_19/Conv2D/ReadVariableOp", "StatefulPartitionedCall/model/tfc3_2/sequential_6/tf_bottleneck_3/tf_conv_19/conv2d_19/BiasAdd/ReadVariableOp"], "device": "/device:CPU:0", "attr": {"epsilon": {"f": 0.0}, "num_args": {"i": "1"}, "use_cudnn_on_gpu": {"b": true}, "fused_ops": {"list": {"s": ["Qmlhc0FkZA=="]}}, "data_format": {"s": "TkhXQw=="}, "dilations": {"list": {"i": ["1", "1", "1", "1"]}}, "explicit_paddings": {"list": {}}, "padding": {"s": "U0FNRQ=="}, "T": {"type": "DT_FLOAT"}, "strides": {"list": {"i": ["1", "1", "1", "1"]}}}}, {"name": "StatefulPartitionedCall/model/tfc3_2/sequential_6/tf_bottleneck_3/tf_conv_19/Sigmoid", "op": "Sigmoid", "input": ["StatefulPartitionedCall/model/tfc3_2/sequential_6/tf_bottleneck_3/tf_conv_19/conv2d_19/BiasAdd"], "attr": {"T": {"type": "DT_FLOAT"}}}, {"name": "StatefulPartitionedCall/model/tfc3_2/sequential_6/tf_bottleneck_3/tf_conv_19/mul", "op": "Mul", "input": ["StatefulPartitionedCall/model/tfc3_2/sequential_6/tf_bottleneck_3/tf_conv_19/conv2d_19/BiasAdd", "StatefulPartitionedCall/model/tfc3_2/sequential_6/tf_bottleneck_3/tf_conv_19/Sigmoid"], "attr": {"T": {"type": "DT_FLOAT"}}}, {"name": "StatefulPartitionedCall/model/tfc3_2/sequential_6/tf_bottleneck_3/tf_conv_20/conv2d_20/BiasAdd", "op": "_FusedConv2D", "input": ["StatefulPartitionedCall/model/tfc3_2/sequential_6/tf_bottleneck_3/tf_conv_19/mul", "StatefulPartitionedCall/model/tfc3_2/sequential_6/tf_bottleneck_3/tf_conv_20/conv2d_20/Conv2D/ReadVariableOp", "StatefulPartitionedCall/model/tfc3_2/sequential_6/tf_bottleneck_3/tf_conv_20/conv2d_20/BiasAdd/ReadVariableOp"], "device": "/device:CPU:0", "attr": {"padding": {"s": "U0FNRQ=="}, "strides": {"list": {"i": ["1", "1", "1", "1"]}}, "data_format": {"s": "TkhXQw=="}, "explicit_paddings": {"list": {}}, "dilations": {"list": {"i": ["1", "1", "1", "1"]}}, "use_cudnn_on_gpu": {"b": true}, "num_args": {"i": "1"}, "T": {"type": "DT_FLOAT"}, "fused_ops": {"list": {"s": ["Qmlhc0FkZA=="]}}, "epsilon": {"f": 0.0}}}, {"name": "StatefulPartitionedCall/model/tfc3_2/sequential_6/tf_bottleneck_3/tf_conv_20/Sigmoid", "op": "Sigmoid", "input": ["StatefulPartitionedCall/model/tfc3_2/sequential_6/tf_bottleneck_3/tf_conv_20/conv2d_20/BiasAdd"], "attr": {"T": {"type": "DT_FLOAT"}}}, {"name": "StatefulPartitionedCall/model/tfc3_2/sequential_6/tf_bottleneck_3/tf_conv_20/mul", "op": "Mul", "input": ["StatefulPartitionedCall/model/tfc3_2/sequential_6/tf_bottleneck_3/tf_conv_20/conv2d_20/BiasAdd", "StatefulPartitionedCall/model/tfc3_2/sequential_6/tf_bottleneck_3/tf_conv_20/Sigmoid"], "attr": {"T": {"type": "DT_FLOAT"}}}, {"name": "StatefulPartitionedCall/model/tfc3_2/sequential_6/tf_bottleneck_3/add", "op": "AddV2", "input": ["StatefulPartitionedCall/model/tfc3_2/tf_conv_16/mul", "StatefulPartitionedCall/model/tfc3_2/sequential_6/tf_bottleneck_3/tf_conv_20/mul"], "attr": {"T": {"type": "DT_FLOAT"}}}, {"name": "StatefulPartitionedCall/model/tfc3_2/sequential_6/tf_bottleneck_4/tf_conv_21/conv2d_21/BiasAdd", "op": "_FusedConv2D", "input": ["StatefulPartitionedCall/model/tfc3_2/sequential_6/tf_bottleneck_3/add", "StatefulPartitionedCall/model/tfc3_2/sequential_6/tf_bottleneck_4/tf_conv_21/conv2d_21/Conv2D/ReadVariableOp", "StatefulPartitionedCall/model/tfc3_2/sequential_6/tf_bottleneck_4/tf_conv_21/conv2d_21/BiasAdd/ReadVariableOp"], "device": "/device:CPU:0", "attr": {"use_cudnn_on_gpu": {"b": true}, "epsilon": {"f": 0.0}, "num_args": {"i": "1"}, "data_format": {"s": "TkhXQw=="}, "dilations": {"list": {"i": ["1", "1", "1", "1"]}}, "fused_ops": {"list": {"s": ["Qmlhc0FkZA=="]}}, "strides": {"list": {"i": ["1", "1", "1", "1"]}}, "padding": {"s": "U0FNRQ=="}, "explicit_paddings": {"list": {}}, "T": {"type": "DT_FLOAT"}}}, {"name": "StatefulPartitionedCall/model/tfc3_2/sequential_6/tf_bottleneck_4/tf_conv_21/Sigmoid", "op": "Sigmoid", "input": ["StatefulPartitionedCall/model/tfc3_2/sequential_6/tf_bottleneck_4/tf_conv_21/conv2d_21/BiasAdd"], "attr": {"T": {"type": "DT_FLOAT"}}}, {"name": "StatefulPartitionedCall/model/tfc3_2/sequential_6/tf_bottleneck_4/tf_conv_21/mul", "op": "Mul", "input": ["StatefulPartitionedCall/model/tfc3_2/sequential_6/tf_bottleneck_4/tf_conv_21/conv2d_21/BiasAdd", "StatefulPartitionedCall/model/tfc3_2/sequential_6/tf_bottleneck_4/tf_conv_21/Sigmoid"], "attr": {"T": {"type": "DT_FLOAT"}}}, {"name": "StatefulPartitionedCall/model/tfc3_2/sequential_6/tf_bottleneck_4/tf_conv_22/conv2d_22/BiasAdd", "op": "_FusedConv2D", "input": ["StatefulPartitionedCall/model/tfc3_2/sequential_6/tf_bottleneck_4/tf_conv_21/mul", "StatefulPartitionedCall/model/tfc3_2/sequential_6/tf_bottleneck_4/tf_conv_22/conv2d_22/Conv2D/ReadVariableOp", "StatefulPartitionedCall/model/tfc3_2/sequential_6/tf_bottleneck_4/tf_conv_22/conv2d_22/BiasAdd/ReadVariableOp"], "device": "/device:CPU:0", "attr": {"T": {"type": "DT_FLOAT"}, "dilations": {"list": {"i": ["1", "1", "1", "1"]}}, "strides": {"list": {"i": ["1", "1", "1", "1"]}}, "explicit_paddings": {"list": {}}, "use_cudnn_on_gpu": {"b": true}, "fused_ops": {"list": {"s": ["Qmlhc0FkZA=="]}}, "epsilon": {"f": 0.0}, "num_args": {"i": "1"}, "padding": {"s": "U0FNRQ=="}, "data_format": {"s": "TkhXQw=="}}}, {"name": "StatefulPartitionedCall/model/tfc3_2/sequential_6/tf_bottleneck_4/tf_conv_22/Sigmoid", "op": "Sigmoid", "input": ["StatefulPartitionedCall/model/tfc3_2/sequential_6/tf_bottleneck_4/tf_conv_22/conv2d_22/BiasAdd"], "attr": {"T": {"type": "DT_FLOAT"}}}, {"name": "StatefulPartitionedCall/model/tfc3_2/sequential_6/tf_bottleneck_4/tf_conv_22/mul", "op": "Mul", "input": ["StatefulPartitionedCall/model/tfc3_2/sequential_6/tf_bottleneck_4/tf_conv_22/conv2d_22/BiasAdd", "StatefulPartitionedCall/model/tfc3_2/sequential_6/tf_bottleneck_4/tf_conv_22/Sigmoid"], "attr": {"T": {"type": "DT_FLOAT"}}}, {"name": "StatefulPartitionedCall/model/tfc3_2/sequential_6/tf_bottleneck_4/add", "op": "AddV2", "input": ["StatefulPartitionedCall/model/tfc3_2/sequential_6/tf_bottleneck_3/add", "StatefulPartitionedCall/model/tfc3_2/sequential_6/tf_bottleneck_4/tf_conv_22/mul"], "attr": {"T": {"type": "DT_FLOAT"}}}, {"name": "StatefulPartitionedCall/model/tfc3_2/sequential_6/tf_bottleneck_5/tf_conv_23/conv2d_23/BiasAdd", "op": "_FusedConv2D", "input": ["StatefulPartitionedCall/model/tfc3_2/sequential_6/tf_bottleneck_4/add", "StatefulPartitionedCall/model/tfc3_2/sequential_6/tf_bottleneck_5/tf_conv_23/conv2d_23/Conv2D/ReadVariableOp", "StatefulPartitionedCall/model/tfc3_2/sequential_6/tf_bottleneck_5/tf_conv_23/conv2d_23/BiasAdd/ReadVariableOp"], "device": "/device:CPU:0", "attr": {"data_format": {"s": "TkhXQw=="}, "dilations": {"list": {"i": ["1", "1", "1", "1"]}}, "num_args": {"i": "1"}, "padding": {"s": "U0FNRQ=="}, "T": {"type": "DT_FLOAT"}, "explicit_paddings": {"list": {}}, "strides": {"list": {"i": ["1", "1", "1", "1"]}}, "fused_ops": {"list": {"s": ["Qmlhc0FkZA=="]}}, "epsilon": {"f": 0.0}, "use_cudnn_on_gpu": {"b": true}}}, {"name": "StatefulPartitionedCall/model/tfc3_2/sequential_6/tf_bottleneck_5/tf_conv_23/Sigmoid", "op": "Sigmoid", "input": ["StatefulPartitionedCall/model/tfc3_2/sequential_6/tf_bottleneck_5/tf_conv_23/conv2d_23/BiasAdd"], "attr": {"T": {"type": "DT_FLOAT"}}}, {"name": "StatefulPartitionedCall/model/tfc3_2/sequential_6/tf_bottleneck_5/tf_conv_23/mul", "op": "Mul", "input": ["StatefulPartitionedCall/model/tfc3_2/sequential_6/tf_bottleneck_5/tf_conv_23/conv2d_23/BiasAdd", "StatefulPartitionedCall/model/tfc3_2/sequential_6/tf_bottleneck_5/tf_conv_23/Sigmoid"], "attr": {"T": {"type": "DT_FLOAT"}}}, {"name": "StatefulPartitionedCall/model/tfc3_2/sequential_6/tf_bottleneck_5/tf_conv_24/conv2d_24/BiasAdd", "op": "_FusedConv2D", "input": ["StatefulPartitionedCall/model/tfc3_2/sequential_6/tf_bottleneck_5/tf_conv_23/mul", "StatefulPartitionedCall/model/tfc3_2/sequential_6/tf_bottleneck_5/tf_conv_24/conv2d_24/Conv2D/ReadVariableOp", "StatefulPartitionedCall/model/tfc3_2/sequential_6/tf_bottleneck_5/tf_conv_24/conv2d_24/BiasAdd/ReadVariableOp"], "device": "/device:CPU:0", "attr": {"num_args": {"i": "1"}, "explicit_paddings": {"list": {}}, "fused_ops": {"list": {"s": ["Qmlhc0FkZA=="]}}, "epsilon": {"f": 0.0}, "padding": {"s": "U0FNRQ=="}, "use_cudnn_on_gpu": {"b": true}, "dilations": {"list": {"i": ["1", "1", "1", "1"]}}, "T": {"type": "DT_FLOAT"}, "data_format": {"s": "TkhXQw=="}, "strides": {"list": {"i": ["1", "1", "1", "1"]}}}}, {"name": "StatefulPartitionedCall/model/tfc3_2/sequential_6/tf_bottleneck_5/tf_conv_24/Sigmoid", "op": "Sigmoid", "input": ["StatefulPartitionedCall/model/tfc3_2/sequential_6/tf_bottleneck_5/tf_conv_24/conv2d_24/BiasAdd"], "attr": {"T": {"type": "DT_FLOAT"}}}, {"name": "StatefulPartitionedCall/model/tfc3_2/sequential_6/tf_bottleneck_5/tf_conv_24/mul", "op": "Mul", "input": ["StatefulPartitionedCall/model/tfc3_2/sequential_6/tf_bottleneck_5/tf_conv_24/conv2d_24/BiasAdd", "StatefulPartitionedCall/model/tfc3_2/sequential_6/tf_bottleneck_5/tf_conv_24/Sigmoid"], "attr": {"T": {"type": "DT_FLOAT"}}}, {"name": "StatefulPartitionedCall/model/tfc3_2/sequential_6/tf_bottleneck_5/add", "op": "AddV2", "input": ["StatefulPartitionedCall/model/tfc3_2/sequential_6/tf_bottleneck_4/add", "StatefulPartitionedCall/model/tfc3_2/sequential_6/tf_bottleneck_5/tf_conv_24/mul"], "attr": {"T": {"type": "DT_FLOAT"}}}, {"name": "StatefulPartitionedCall/model/tfc3_2/concat", "op": "ConcatV2", "input": ["StatefulPartitionedCall/model/tfc3_2/sequential_6/tf_bottleneck_5/add", "StatefulPartitionedCall/model/tfc3_2/tf_conv_17/mul", "StatefulPartitionedCall/model/tfc3_2/concat/axis"], "attr": {"T": {"type": "DT_FLOAT"}, "Tidx": {"type": "DT_INT32"}, "N": {"i": "2"}}}, {"name": "StatefulPartitionedCall/model/tfc3_2/tf_conv_18/conv2d_18/BiasAdd", "op": "_FusedConv2D", "input": ["StatefulPartitionedCall/model/tfc3_2/concat", "StatefulPartitionedCall/model/tfc3_2/tf_conv_18/conv2d_18/Conv2D/ReadVariableOp", "StatefulPartitionedCall/model/tfc3_2/tf_conv_18/conv2d_18/BiasAdd/ReadVariableOp"], "device": "/device:CPU:0", "attr": {"padding": {"s": "U0FNRQ=="}, "use_cudnn_on_gpu": {"b": true}, "data_format": {"s": "TkhXQw=="}, "dilations": {"list": {"i": ["1", "1", "1", "1"]}}, "fused_ops": {"list": {"s": ["Qmlhc0FkZA=="]}}, "T": {"type": "DT_FLOAT"}, "num_args": {"i": "1"}, "explicit_paddings": {"list": {}}, "epsilon": {"f": 0.0}, "strides": {"list": {"i": ["1", "1", "1", "1"]}}}}, {"name": "StatefulPartitionedCall/model/tfc3_2/tf_conv_18/Sigmoid", "op": "Sigmoid", "input": ["StatefulPartitionedCall/model/tfc3_2/tf_conv_18/conv2d_18/BiasAdd"], "attr": {"T": {"type": "DT_FLOAT"}}}, {"name": "StatefulPartitionedCall/model/tfc3_2/tf_conv_18/mul", "op": "Mul", "input": ["StatefulPartitionedCall/model/tfc3_2/tf_conv_18/conv2d_18/BiasAdd", "StatefulPartitionedCall/model/tfc3_2/tf_conv_18/Sigmoid"], "attr": {"T": {"type": "DT_FLOAT"}}}, {"name": "StatefulPartitionedCall/model/tf_conv_25/sequential_7/tf_pad_4/Pad", "op": "Pad", "input": ["StatefulPartitionedCall/model/tfc3_2/tf_conv_18/mul", "unknown_53"], "attr": {"T": {"type": "DT_FLOAT"}, "Tpaddings": {"type": "DT_INT32"}}}, {"name": "StatefulPartitionedCall/model/tf_conv_25/sequential_7/conv2d_25/BiasAdd", "op": "_FusedConv2D", "input": ["StatefulPartitionedCall/model/tf_conv_25/sequential_7/tf_pad_4/Pad", "StatefulPartitionedCall/model/tf_conv_25/sequential_7/conv2d_25/Conv2D/ReadVariableOp", "StatefulPartitionedCall/model/tf_conv_25/sequential_7/conv2d_25/BiasAdd/ReadVariableOp"], "device": "/device:CPU:0", "attr": {"T": {"type": "DT_FLOAT"}, "dilations": {"list": {"i": ["1", "1", "1", "1"]}}, "explicit_paddings": {"list": {}}, "fused_ops": {"list": {"s": ["Qmlhc0FkZA=="]}}, "padding": {"s": "VkFMSUQ="}, "num_args": {"i": "1"}, "use_cudnn_on_gpu": {"b": true}, "epsilon": {"f": 0.0}, "data_format": {"s": "TkhXQw=="}, "strides": {"list": {"i": ["1", "2", "2", "1"]}}}}, {"name": "StatefulPartitionedCall/model/tf_conv_25/Sigmoid", "op": "Sigmoid", "input": ["StatefulPartitionedCall/model/tf_conv_25/sequential_7/conv2d_25/BiasAdd"], "attr": {"T": {"type": "DT_FLOAT"}}}, {"name": "StatefulPartitionedCall/model/tf_conv_25/mul", "op": "Mul", "input": ["StatefulPartitionedCall/model/tf_conv_25/sequential_7/conv2d_25/BiasAdd", "StatefulPartitionedCall/model/tf_conv_25/Sigmoid"], "attr": {"T": {"type": "DT_FLOAT"}}}, {"name": "StatefulPartitionedCall/model/tfc3_3/tf_conv_26/conv2d_26/BiasAdd", "op": "_FusedConv2D", "input": ["StatefulPartitionedCall/model/tf_conv_25/mul", "StatefulPartitionedCall/model/tfc3_3/tf_conv_26/conv2d_26/Conv2D/ReadVariableOp", "StatefulPartitionedCall/model/tfc3_3/tf_conv_26/conv2d_26/BiasAdd/ReadVariableOp"], "device": "/device:CPU:0", "attr": {"dilations": {"list": {"i": ["1", "1", "1", "1"]}}, "T": {"type": "DT_FLOAT"}, "padding": {"s": "U0FNRQ=="}, "use_cudnn_on_gpu": {"b": true}, "strides": {"list": {"i": ["1", "1", "1", "1"]}}, "num_args": {"i": "1"}, "fused_ops": {"list": {"s": ["Qmlhc0FkZA=="]}}, "epsilon": {"f": 0.0}, "data_format": {"s": "TkhXQw=="}, "explicit_paddings": {"list": {}}}}, {"name": "StatefulPartitionedCall/model/tfc3_3/tf_conv_27/conv2d_27/BiasAdd", "op": "_FusedConv2D", "input": ["StatefulPartitionedCall/model/tf_conv_25/mul", "StatefulPartitionedCall/model/tfc3_3/tf_conv_27/conv2d_27/Conv2D/ReadVariableOp", "StatefulPartitionedCall/model/tfc3_3/tf_conv_27/conv2d_27/BiasAdd/ReadVariableOp"], "device": "/device:CPU:0", "attr": {"fused_ops": {"list": {"s": ["Qmlhc0FkZA=="]}}, "explicit_paddings": {"list": {}}, "data_format": {"s": "TkhXQw=="}, "dilations": {"list": {"i": ["1", "1", "1", "1"]}}, "use_cudnn_on_gpu": {"b": true}, "num_args": {"i": "1"}, "padding": {"s": "U0FNRQ=="}, "epsilon": {"f": 0.0}, "T": {"type": "DT_FLOAT"}, "strides": {"list": {"i": ["1", "1", "1", "1"]}}}}, {"name": "StatefulPartitionedCall/model/tfc3_3/tf_conv_26/Sigmoid", "op": "Sigmoid", "input": ["StatefulPartitionedCall/model/tfc3_3/tf_conv_26/conv2d_26/BiasAdd"], "attr": {"T": {"type": "DT_FLOAT"}}}, {"name": "StatefulPartitionedCall/model/tfc3_3/tf_conv_27/Sigmoid", "op": "Sigmoid", "input": ["StatefulPartitionedCall/model/tfc3_3/tf_conv_27/conv2d_27/BiasAdd"], "attr": {"T": {"type": "DT_FLOAT"}}}, {"name": "StatefulPartitionedCall/model/tfc3_3/tf_conv_26/mul", "op": "Mul", "input": ["StatefulPartitionedCall/model/tfc3_3/tf_conv_26/conv2d_26/BiasAdd", "StatefulPartitionedCall/model/tfc3_3/tf_conv_26/Sigmoid"], "attr": {"T": {"type": "DT_FLOAT"}}}, {"name": "StatefulPartitionedCall/model/tfc3_3/tf_conv_27/mul", "op": "Mul", "input": ["StatefulPartitionedCall/model/tfc3_3/tf_conv_27/conv2d_27/BiasAdd", "StatefulPartitionedCall/model/tfc3_3/tf_conv_27/Sigmoid"], "attr": {"T": {"type": "DT_FLOAT"}}}, {"name": "StatefulPartitionedCall/model/tfc3_3/sequential_8/tf_bottleneck_6/tf_conv_29/conv2d_29/BiasAdd", "op": "_FusedConv2D", "input": ["StatefulPartitionedCall/model/tfc3_3/tf_conv_26/mul", "StatefulPartitionedCall/model/tfc3_3/sequential_8/tf_bottleneck_6/tf_conv_29/conv2d_29/Conv2D/ReadVariableOp", "StatefulPartitionedCall/model/tfc3_3/sequential_8/tf_bottleneck_6/tf_conv_29/conv2d_29/BiasAdd/ReadVariableOp"], "device": "/device:CPU:0", "attr": {"dilations": {"list": {"i": ["1", "1", "1", "1"]}}, "T": {"type": "DT_FLOAT"}, "padding": {"s": "U0FNRQ=="}, "strides": {"list": {"i": ["1", "1", "1", "1"]}}, "num_args": {"i": "1"}, "use_cudnn_on_gpu": {"b": true}, "fused_ops": {"list": {"s": ["Qmlhc0FkZA=="]}}, "epsilon": {"f": 0.0}, "data_format": {"s": "TkhXQw=="}, "explicit_paddings": {"list": {}}}}, {"name": "StatefulPartitionedCall/model/tfc3_3/sequential_8/tf_bottleneck_6/tf_conv_29/Sigmoid", "op": "Sigmoid", "input": ["StatefulPartitionedCall/model/tfc3_3/sequential_8/tf_bottleneck_6/tf_conv_29/conv2d_29/BiasAdd"], "attr": {"T": {"type": "DT_FLOAT"}}}, {"name": "StatefulPartitionedCall/model/tfc3_3/sequential_8/tf_bottleneck_6/tf_conv_29/mul", "op": "Mul", "input": ["StatefulPartitionedCall/model/tfc3_3/sequential_8/tf_bottleneck_6/tf_conv_29/conv2d_29/BiasAdd", "StatefulPartitionedCall/model/tfc3_3/sequential_8/tf_bottleneck_6/tf_conv_29/Sigmoid"], "attr": {"T": {"type": "DT_FLOAT"}}}, {"name": "StatefulPartitionedCall/model/tfc3_3/sequential_8/tf_bottleneck_6/tf_conv_30/conv2d_30/BiasAdd", "op": "_FusedConv2D", "input": ["StatefulPartitionedCall/model/tfc3_3/sequential_8/tf_bottleneck_6/tf_conv_29/mul", "StatefulPartitionedCall/model/tfc3_3/sequential_8/tf_bottleneck_6/tf_conv_30/conv2d_30/Conv2D/ReadVariableOp", "StatefulPartitionedCall/model/tfc3_3/sequential_8/tf_bottleneck_6/tf_conv_30/conv2d_30/BiasAdd/ReadVariableOp"], "device": "/device:CPU:0", "attr": {"epsilon": {"f": 0.0}, "num_args": {"i": "1"}, "strides": {"list": {"i": ["1", "1", "1", "1"]}}, "padding": {"s": "U0FNRQ=="}, "use_cudnn_on_gpu": {"b": true}, "T": {"type": "DT_FLOAT"}, "data_format": {"s": "TkhXQw=="}, "dilations": {"list": {"i": ["1", "1", "1", "1"]}}, "fused_ops": {"list": {"s": ["Qmlhc0FkZA=="]}}, "explicit_paddings": {"list": {}}}}, {"name": "StatefulPartitionedCall/model/tfc3_3/sequential_8/tf_bottleneck_6/tf_conv_30/Sigmoid", "op": "Sigmoid", "input": ["StatefulPartitionedCall/model/tfc3_3/sequential_8/tf_bottleneck_6/tf_conv_30/conv2d_30/BiasAdd"], "attr": {"T": {"type": "DT_FLOAT"}}}, {"name": "StatefulPartitionedCall/model/tfc3_3/sequential_8/tf_bottleneck_6/tf_conv_30/mul", "op": "Mul", "input": ["StatefulPartitionedCall/model/tfc3_3/sequential_8/tf_bottleneck_6/tf_conv_30/conv2d_30/BiasAdd", "StatefulPartitionedCall/model/tfc3_3/sequential_8/tf_bottleneck_6/tf_conv_30/Sigmoid"], "attr": {"T": {"type": "DT_FLOAT"}}}, {"name": "StatefulPartitionedCall/model/tfc3_3/sequential_8/tf_bottleneck_6/add", "op": "AddV2", "input": ["StatefulPartitionedCall/model/tfc3_3/tf_conv_26/mul", "StatefulPartitionedCall/model/tfc3_3/sequential_8/tf_bottleneck_6/tf_conv_30/mul"], "attr": {"T": {"type": "DT_FLOAT"}}}, {"name": "StatefulPartitionedCall/model/tfc3_3/concat", "op": "ConcatV2", "input": ["StatefulPartitionedCall/model/tfc3_3/sequential_8/tf_bottleneck_6/add", "StatefulPartitionedCall/model/tfc3_3/tf_conv_27/mul", "StatefulPartitionedCall/model/tfc3_3/concat/axis"], "attr": {"N": {"i": "2"}, "Tidx": {"type": "DT_INT32"}, "T": {"type": "DT_FLOAT"}}}, {"name": "StatefulPartitionedCall/model/tfc3_3/tf_conv_28/conv2d_28/BiasAdd", "op": "_FusedConv2D", "input": ["StatefulPartitionedCall/model/tfc3_3/concat", "StatefulPartitionedCall/model/tfc3_3/tf_conv_28/conv2d_28/Conv2D/ReadVariableOp", "StatefulPartitionedCall/model/tfc3_3/tf_conv_28/conv2d_28/BiasAdd/ReadVariableOp"], "device": "/device:CPU:0", "attr": {"strides": {"list": {"i": ["1", "1", "1", "1"]}}, "padding": {"s": "U0FNRQ=="}, "T": {"type": "DT_FLOAT"}, "explicit_paddings": {"list": {}}, "use_cudnn_on_gpu": {"b": true}, "epsilon": {"f": 0.0}, "num_args": {"i": "1"}, "data_format": {"s": "TkhXQw=="}, "fused_ops": {"list": {"s": ["Qmlhc0FkZA=="]}}, "dilations": {"list": {"i": ["1", "1", "1", "1"]}}}}, {"name": "StatefulPartitionedCall/model/tfc3_3/tf_conv_28/Sigmoid", "op": "Sigmoid", "input": ["StatefulPartitionedCall/model/tfc3_3/tf_conv_28/conv2d_28/BiasAdd"], "attr": {"T": {"type": "DT_FLOAT"}}}, {"name": "StatefulPartitionedCall/model/tfc3_3/tf_conv_28/mul", "op": "Mul", "input": ["StatefulPartitionedCall/model/tfc3_3/tf_conv_28/conv2d_28/BiasAdd", "StatefulPartitionedCall/model/tfc3_3/tf_conv_28/Sigmoid"], "attr": {"T": {"type": "DT_FLOAT"}}}, {"name": "StatefulPartitionedCall/model/tfsppf/tf_conv_31/conv2d_31/BiasAdd", "op": "_FusedConv2D", "input": ["StatefulPartitionedCall/model/tfc3_3/tf_conv_28/mul", "StatefulPartitionedCall/model/tfsppf/tf_conv_31/conv2d_31/Conv2D/ReadVariableOp", "StatefulPartitionedCall/model/tfsppf/tf_conv_31/conv2d_31/BiasAdd/ReadVariableOp"], "device": "/device:CPU:0", "attr": {"padding": {"s": "U0FNRQ=="}, "explicit_paddings": {"list": {}}, "T": {"type": "DT_FLOAT"}, "strides": {"list": {"i": ["1", "1", "1", "1"]}}, "epsilon": {"f": 0.0}, "num_args": {"i": "1"}, "use_cudnn_on_gpu": {"b": true}, "fused_ops": {"list": {"s": ["Qmlhc0FkZA=="]}}, "data_format": {"s": "TkhXQw=="}, "dilations": {"list": {"i": ["1", "1", "1", "1"]}}}}, {"name": "StatefulPartitionedCall/model/tfsppf/tf_conv_31/Sigmoid", "op": "Sigmoid", "input": ["StatefulPartitionedCall/model/tfsppf/tf_conv_31/conv2d_31/BiasAdd"], "attr": {"T": {"type": "DT_FLOAT"}}}, {"name": "StatefulPartitionedCall/model/tfsppf/tf_conv_31/mul", "op": "Mul", "input": ["StatefulPartitionedCall/model/tfsppf/tf_conv_31/conv2d_31/BiasAdd", "StatefulPartitionedCall/model/tfsppf/tf_conv_31/Sigmoid"], "attr": {"T": {"type": "DT_FLOAT"}}}, {"name": "StatefulPartitionedCall/model/tfsppf/max_pooling2d/MaxPool", "op": "MaxPool", "input": ["StatefulPartitionedCall/model/tfsppf/tf_conv_31/mul"], "attr": {"strides": {"list": {"i": ["1", "1", "1", "1"]}}, "ksize": {"list": {"i": ["1", "5", "5", "1"]}}, "padding": {"s": "U0FNRQ=="}, "explicit_paddings": {"list": {}}, "T": {"type": "DT_FLOAT"}, "data_format": {"s": "TkhXQw=="}}}, {"name": "StatefulPartitionedCall/model/tfsppf/max_pooling2d/MaxPool_1", "op": "MaxPool", "input": ["StatefulPartitionedCall/model/tfsppf/max_pooling2d/MaxPool"], "attr": {"explicit_paddings": {"list": {}}, "ksize": {"list": {"i": ["1", "5", "5", "1"]}}, "padding": {"s": "U0FNRQ=="}, "T": {"type": "DT_FLOAT"}, "strides": {"list": {"i": ["1", "1", "1", "1"]}}, "data_format": {"s": "TkhXQw=="}}}, {"name": "StatefulPartitionedCall/model/tfsppf/max_pooling2d/MaxPool_2", "op": "MaxPool", "input": ["StatefulPartitionedCall/model/tfsppf/max_pooling2d/MaxPool_1"], "attr": {"T": {"type": "DT_FLOAT"}, "explicit_paddings": {"list": {}}, "strides": {"list": {"i": ["1", "1", "1", "1"]}}, "data_format": {"s": "TkhXQw=="}, "ksize": {"list": {"i": ["1", "5", "5", "1"]}}, "padding": {"s": "U0FNRQ=="}}}, {"name": "StatefulPartitionedCall/model/tfsppf/concat", "op": "ConcatV2", "input": ["StatefulPartitionedCall/model/tfsppf/tf_conv_31/mul", "StatefulPartitionedCall/model/tfsppf/max_pooling2d/MaxPool", "StatefulPartitionedCall/model/tfsppf/max_pooling2d/MaxPool_1", "StatefulPartitionedCall/model/tfsppf/max_pooling2d/MaxPool_2", "StatefulPartitionedCall/model/tfsppf/concat/axis"], "attr": {"N": {"i": "4"}, "T": {"type": "DT_FLOAT"}, "Tidx": {"type": "DT_INT32"}}}, {"name": "StatefulPartitionedCall/model/tfsppf/tf_conv_32/conv2d_32/BiasAdd", "op": "_FusedConv2D", "input": ["StatefulPartitionedCall/model/tfsppf/concat", "StatefulPartitionedCall/model/tfsppf/tf_conv_32/conv2d_32/Conv2D/ReadVariableOp", "StatefulPartitionedCall/model/tfsppf/tf_conv_32/conv2d_32/BiasAdd/ReadVariableOp"], "device": "/device:CPU:0", "attr": {"dilations": {"list": {"i": ["1", "1", "1", "1"]}}, "data_format": {"s": "TkhXQw=="}, "padding": {"s": "U0FNRQ=="}, "num_args": {"i": "1"}, "explicit_paddings": {"list": {}}, "fused_ops": {"list": {"s": ["Qmlhc0FkZA=="]}}, "T": {"type": "DT_FLOAT"}, "strides": {"list": {"i": ["1", "1", "1", "1"]}}, "epsilon": {"f": 0.0}, "use_cudnn_on_gpu": {"b": true}}}, {"name": "StatefulPartitionedCall/model/tfsppf/tf_conv_32/Sigmoid", "op": "Sigmoid", "input": ["StatefulPartitionedCall/model/tfsppf/tf_conv_32/conv2d_32/BiasAdd"], "attr": {"T": {"type": "DT_FLOAT"}}}, {"name": "StatefulPartitionedCall/model/tfsppf/tf_conv_32/mul", "op": "Mul", "input": ["StatefulPartitionedCall/model/tfsppf/tf_conv_32/conv2d_32/BiasAdd", "StatefulPartitionedCall/model/tfsppf/tf_conv_32/Sigmoid"], "attr": {"T": {"type": "DT_FLOAT"}}}, {"name": "StatefulPartitionedCall/model/tf_conv_33/conv2d_33/BiasAdd", "op": "_FusedConv2D", "input": ["StatefulPartitionedCall/model/tfsppf/tf_conv_32/mul", "StatefulPartitionedCall/model/tf_conv_33/conv2d_33/Conv2D/ReadVariableOp", "StatefulPartitionedCall/model/tf_conv_33/conv2d_33/BiasAdd/ReadVariableOp"], "device": "/device:CPU:0", "attr": {"padding": {"s": "U0FNRQ=="}, "epsilon": {"f": 0.0}, "dilations": {"list": {"i": ["1", "1", "1", "1"]}}, "T": {"type": "DT_FLOAT"}, "data_format": {"s": "TkhXQw=="}, "strides": {"list": {"i": ["1", "1", "1", "1"]}}, "fused_ops": {"list": {"s": ["Qmlhc0FkZA=="]}}, "num_args": {"i": "1"}, "explicit_paddings": {"list": {}}, "use_cudnn_on_gpu": {"b": true}}}, {"name": "StatefulPartitionedCall/model/tf_conv_33/Sigmoid", "op": "Sigmoid", "input": ["StatefulPartitionedCall/model/tf_conv_33/conv2d_33/BiasAdd"], "attr": {"T": {"type": "DT_FLOAT"}}}, {"name": "StatefulPartitionedCall/model/tf_conv_33/mul", "op": "Mul", "input": ["StatefulPartitionedCall/model/tf_conv_33/conv2d_33/BiasAdd", "StatefulPartitionedCall/model/tf_conv_33/Sigmoid"], "attr": {"T": {"type": "DT_FLOAT"}}}, {"name": "StatefulPartitionedCall/model/tf_upsample/resize/ResizeNearestNeighbor", "op": "ResizeNearestNeighbor", "input": ["StatefulPartitionedCall/model/tf_conv_33/mul", "StatefulPartitionedCall/model/tf_upsample/resize/size"], "attr": {"T": {"type": "DT_FLOAT"}, "half_pixel_centers": {"b": true}, "align_corners": {"b": false}}}, {"name": "StatefulPartitionedCall/model/tf_concat/concat", "op": "ConcatV2", "input": ["StatefulPartitionedCall/model/tf_upsample/resize/ResizeNearestNeighbor", "StatefulPartitionedCall/model/tfc3_2/tf_conv_18/mul", "StatefulPartitionedCall/model/tf_concat/concat/axis"], "attr": {"T": {"type": "DT_FLOAT"}, "N": {"i": "2"}, "Tidx": {"type": "DT_INT32"}}}, {"name": "StatefulPartitionedCall/model/tfc3_4/tf_conv_34/conv2d_34/BiasAdd", "op": "_FusedConv2D", "input": ["StatefulPartitionedCall/model/tf_concat/concat", "StatefulPartitionedCall/model/tfc3_4/tf_conv_34/conv2d_34/Conv2D/ReadVariableOp", "StatefulPartitionedCall/model/tfc3_4/tf_conv_34/conv2d_34/BiasAdd/ReadVariableOp"], "device": "/device:CPU:0", "attr": {"data_format": {"s": "TkhXQw=="}, "dilations": {"list": {"i": ["1", "1", "1", "1"]}}, "T": {"type": "DT_FLOAT"}, "padding": {"s": "U0FNRQ=="}, "epsilon": {"f": 0.0}, "num_args": {"i": "1"}, "fused_ops": {"list": {"s": ["Qmlhc0FkZA=="]}}, "explicit_paddings": {"list": {}}, "strides": {"list": {"i": ["1", "1", "1", "1"]}}, "use_cudnn_on_gpu": {"b": true}}}, {"name": "StatefulPartitionedCall/model/tfc3_4/tf_conv_35/conv2d_35/BiasAdd", "op": "_FusedConv2D", "input": ["StatefulPartitionedCall/model/tf_concat/concat", "StatefulPartitionedCall/model/tfc3_4/tf_conv_35/conv2d_35/Conv2D/ReadVariableOp", "StatefulPartitionedCall/model/tfc3_4/tf_conv_35/conv2d_35/BiasAdd/ReadVariableOp"], "device": "/device:CPU:0", "attr": {"T": {"type": "DT_FLOAT"}, "explicit_paddings": {"list": {}}, "epsilon": {"f": 0.0}, "use_cudnn_on_gpu": {"b": true}, "data_format": {"s": "TkhXQw=="}, "dilations": {"list": {"i": ["1", "1", "1", "1"]}}, "fused_ops": {"list": {"s": ["Qmlhc0FkZA=="]}}, "strides": {"list": {"i": ["1", "1", "1", "1"]}}, "num_args": {"i": "1"}, "padding": {"s": "U0FNRQ=="}}}, {"name": "StatefulPartitionedCall/model/tfc3_4/tf_conv_34/Sigmoid", "op": "Sigmoid", "input": ["StatefulPartitionedCall/model/tfc3_4/tf_conv_34/conv2d_34/BiasAdd"], "attr": {"T": {"type": "DT_FLOAT"}}}, {"name": "StatefulPartitionedCall/model/tfc3_4/tf_conv_35/Sigmoid", "op": "Sigmoid", "input": ["StatefulPartitionedCall/model/tfc3_4/tf_conv_35/conv2d_35/BiasAdd"], "attr": {"T": {"type": "DT_FLOAT"}}}, {"name": "StatefulPartitionedCall/model/tfc3_4/tf_conv_34/mul", "op": "Mul", "input": ["StatefulPartitionedCall/model/tfc3_4/tf_conv_34/conv2d_34/BiasAdd", "StatefulPartitionedCall/model/tfc3_4/tf_conv_34/Sigmoid"], "attr": {"T": {"type": "DT_FLOAT"}}}, {"name": "StatefulPartitionedCall/model/tfc3_4/tf_conv_35/mul", "op": "Mul", "input": ["StatefulPartitionedCall/model/tfc3_4/tf_conv_35/conv2d_35/BiasAdd", "StatefulPartitionedCall/model/tfc3_4/tf_conv_35/Sigmoid"], "attr": {"T": {"type": "DT_FLOAT"}}}, {"name": "StatefulPartitionedCall/model/tfc3_4/sequential_9/tf_bottleneck_7/tf_conv_37/conv2d_37/BiasAdd", "op": "_FusedConv2D", "input": ["StatefulPartitionedCall/model/tfc3_4/tf_conv_34/mul", "StatefulPartitionedCall/model/tfc3_4/sequential_9/tf_bottleneck_7/tf_conv_37/conv2d_37/Conv2D/ReadVariableOp", "StatefulPartitionedCall/model/tfc3_4/sequential_9/tf_bottleneck_7/tf_conv_37/conv2d_37/BiasAdd/ReadVariableOp"], "device": "/device:CPU:0", "attr": {"epsilon": {"f": 0.0}, "T": {"type": "DT_FLOAT"}, "padding": {"s": "U0FNRQ=="}, "data_format": {"s": "TkhXQw=="}, "dilations": {"list": {"i": ["1", "1", "1", "1"]}}, "strides": {"list": {"i": ["1", "1", "1", "1"]}}, "num_args": {"i": "1"}, "explicit_paddings": {"list": {}}, "fused_ops": {"list": {"s": ["Qmlhc0FkZA=="]}}, "use_cudnn_on_gpu": {"b": true}}}, {"name": "StatefulPartitionedCall/model/tfc3_4/sequential_9/tf_bottleneck_7/tf_conv_37/Sigmoid", "op": "Sigmoid", "input": ["StatefulPartitionedCall/model/tfc3_4/sequential_9/tf_bottleneck_7/tf_conv_37/conv2d_37/BiasAdd"], "attr": {"T": {"type": "DT_FLOAT"}}}, {"name": "StatefulPartitionedCall/model/tfc3_4/sequential_9/tf_bottleneck_7/tf_conv_37/mul", "op": "Mul", "input": ["StatefulPartitionedCall/model/tfc3_4/sequential_9/tf_bottleneck_7/tf_conv_37/conv2d_37/BiasAdd", "StatefulPartitionedCall/model/tfc3_4/sequential_9/tf_bottleneck_7/tf_conv_37/Sigmoid"], "attr": {"T": {"type": "DT_FLOAT"}}}, {"name": "StatefulPartitionedCall/model/tfc3_4/sequential_9/tf_bottleneck_7/tf_conv_38/conv2d_38/BiasAdd", "op": "_FusedConv2D", "input": ["StatefulPartitionedCall/model/tfc3_4/sequential_9/tf_bottleneck_7/tf_conv_37/mul", "StatefulPartitionedCall/model/tfc3_4/sequential_9/tf_bottleneck_7/tf_conv_38/conv2d_38/Conv2D/ReadVariableOp", "StatefulPartitionedCall/model/tfc3_4/sequential_9/tf_bottleneck_7/tf_conv_38/conv2d_38/BiasAdd/ReadVariableOp"], "device": "/device:CPU:0", "attr": {"padding": {"s": "U0FNRQ=="}, "epsilon": {"f": 0.0}, "explicit_paddings": {"list": {}}, "strides": {"list": {"i": ["1", "1", "1", "1"]}}, "fused_ops": {"list": {"s": ["Qmlhc0FkZA=="]}}, "use_cudnn_on_gpu": {"b": true}, "T": {"type": "DT_FLOAT"}, "data_format": {"s": "TkhXQw=="}, "dilations": {"list": {"i": ["1", "1", "1", "1"]}}, "num_args": {"i": "1"}}}, {"name": "StatefulPartitionedCall/model/tfc3_4/sequential_9/tf_bottleneck_7/tf_conv_38/Sigmoid", "op": "Sigmoid", "input": ["StatefulPartitionedCall/model/tfc3_4/sequential_9/tf_bottleneck_7/tf_conv_38/conv2d_38/BiasAdd"], "attr": {"T": {"type": "DT_FLOAT"}}}, {"name": "StatefulPartitionedCall/model/tfc3_4/sequential_9/tf_bottleneck_7/tf_conv_38/mul", "op": "Mul", "input": ["StatefulPartitionedCall/model/tfc3_4/sequential_9/tf_bottleneck_7/tf_conv_38/conv2d_38/BiasAdd", "StatefulPartitionedCall/model/tfc3_4/sequential_9/tf_bottleneck_7/tf_conv_38/Sigmoid"], "attr": {"T": {"type": "DT_FLOAT"}}}, {"name": "StatefulPartitionedCall/model/tfc3_4/concat", "op": "ConcatV2", "input": ["StatefulPartitionedCall/model/tfc3_4/sequential_9/tf_bottleneck_7/tf_conv_38/mul", "StatefulPartitionedCall/model/tfc3_4/tf_conv_35/mul", "StatefulPartitionedCall/model/tfc3_4/concat/axis"], "attr": {"N": {"i": "2"}, "T": {"type": "DT_FLOAT"}, "Tidx": {"type": "DT_INT32"}}}, {"name": "StatefulPartitionedCall/model/tfc3_4/tf_conv_36/conv2d_36/BiasAdd", "op": "_FusedConv2D", "input": ["StatefulPartitionedCall/model/tfc3_4/concat", "StatefulPartitionedCall/model/tfc3_4/tf_conv_36/conv2d_36/Conv2D/ReadVariableOp", "StatefulPartitionedCall/model/tfc3_4/tf_conv_36/conv2d_36/BiasAdd/ReadVariableOp"], "device": "/device:CPU:0", "attr": {"fused_ops": {"list": {"s": ["Qmlhc0FkZA=="]}}, "epsilon": {"f": 0.0}, "num_args": {"i": "1"}, "explicit_paddings": {"list": {}}, "strides": {"list": {"i": ["1", "1", "1", "1"]}}, "use_cudnn_on_gpu": {"b": true}, "T": {"type": "DT_FLOAT"}, "padding": {"s": "U0FNRQ=="}, "data_format": {"s": "TkhXQw=="}, "dilations": {"list": {"i": ["1", "1", "1", "1"]}}}}, {"name": "StatefulPartitionedCall/model/tfc3_4/tf_conv_36/Sigmoid", "op": "Sigmoid", "input": ["StatefulPartitionedCall/model/tfc3_4/tf_conv_36/conv2d_36/BiasAdd"], "attr": {"T": {"type": "DT_FLOAT"}}}, {"name": "StatefulPartitionedCall/model/tfc3_4/tf_conv_36/mul", "op": "Mul", "input": ["StatefulPartitionedCall/model/tfc3_4/tf_conv_36/conv2d_36/BiasAdd", "StatefulPartitionedCall/model/tfc3_4/tf_conv_36/Sigmoid"], "attr": {"T": {"type": "DT_FLOAT"}}}, {"name": "StatefulPartitionedCall/model/tf_conv_39/conv2d_39/BiasAdd", "op": "_FusedConv2D", "input": ["StatefulPartitionedCall/model/tfc3_4/tf_conv_36/mul", "StatefulPartitionedCall/model/tf_conv_39/conv2d_39/Conv2D/ReadVariableOp", "StatefulPartitionedCall/model/tf_conv_39/conv2d_39/BiasAdd/ReadVariableOp"], "device": "/device:CPU:0", "attr": {"T": {"type": "DT_FLOAT"}, "padding": {"s": "U0FNRQ=="}, "use_cudnn_on_gpu": {"b": true}, "data_format": {"s": "TkhXQw=="}, "dilations": {"list": {"i": ["1", "1", "1", "1"]}}, "strides": {"list": {"i": ["1", "1", "1", "1"]}}, "epsilon": {"f": 0.0}, "num_args": {"i": "1"}, "fused_ops": {"list": {"s": ["Qmlhc0FkZA=="]}}, "explicit_paddings": {"list": {}}}}, {"name": "StatefulPartitionedCall/model/tf_conv_39/Sigmoid", "op": "Sigmoid", "input": ["StatefulPartitionedCall/model/tf_conv_39/conv2d_39/BiasAdd"], "attr": {"T": {"type": "DT_FLOAT"}}}, {"name": "StatefulPartitionedCall/model/tf_conv_39/mul", "op": "Mul", "input": ["StatefulPartitionedCall/model/tf_conv_39/conv2d_39/BiasAdd", "StatefulPartitionedCall/model/tf_conv_39/Sigmoid"], "attr": {"T": {"type": "DT_FLOAT"}}}, {"name": "StatefulPartitionedCall/model/tf_upsample_1/resize/ResizeNearestNeighbor", "op": "ResizeNearestNeighbor", "input": ["StatefulPartitionedCall/model/tf_conv_39/mul", "StatefulPartitionedCall/model/tf_upsample_1/resize/size"], "attr": {"half_pixel_centers": {"b": true}, "align_corners": {"b": false}, "T": {"type": "DT_FLOAT"}}}, {"name": "StatefulPartitionedCall/model/tf_concat_1/concat", "op": "ConcatV2", "input": ["StatefulPartitionedCall/model/tf_upsample_1/resize/ResizeNearestNeighbor", "StatefulPartitionedCall/model/tfc3_1/tf_conv_10/mul", "StatefulPartitionedCall/model/tf_concat_1/concat/axis"], "attr": {"N": {"i": "2"}, "Tidx": {"type": "DT_INT32"}, "T": {"type": "DT_FLOAT"}}}, {"name": "StatefulPartitionedCall/model/tfc3_5/tf_conv_40/conv2d_40/BiasAdd", "op": "_FusedConv2D", "input": ["StatefulPartitionedCall/model/tf_concat_1/concat", "StatefulPartitionedCall/model/tfc3_5/tf_conv_40/conv2d_40/Conv2D/ReadVariableOp", "StatefulPartitionedCall/model/tfc3_5/tf_conv_40/conv2d_40/BiasAdd/ReadVariableOp"], "device": "/device:CPU:0", "attr": {"num_args": {"i": "1"}, "explicit_paddings": {"list": {}}, "use_cudnn_on_gpu": {"b": true}, "dilations": {"list": {"i": ["1", "1", "1", "1"]}}, "data_format": {"s": "TkhXQw=="}, "strides": {"list": {"i": ["1", "1", "1", "1"]}}, "fused_ops": {"list": {"s": ["Qmlhc0FkZA=="]}}, "epsilon": {"f": 0.0}, "padding": {"s": "U0FNRQ=="}, "T": {"type": "DT_FLOAT"}}}, {"name": "StatefulPartitionedCall/model/tfc3_5/tf_conv_41/conv2d_41/BiasAdd", "op": "_FusedConv2D", "input": ["StatefulPartitionedCall/model/tf_concat_1/concat", "StatefulPartitionedCall/model/tfc3_5/tf_conv_41/conv2d_41/Conv2D/ReadVariableOp", "StatefulPartitionedCall/model/tfc3_5/tf_conv_41/conv2d_41/BiasAdd/ReadVariableOp"], "device": "/device:CPU:0", "attr": {"dilations": {"list": {"i": ["1", "1", "1", "1"]}}, "data_format": {"s": "TkhXQw=="}, "strides": {"list": {"i": ["1", "1", "1", "1"]}}, "fused_ops": {"list": {"s": ["Qmlhc0FkZA=="]}}, "epsilon": {"f": 0.0}, "T": {"type": "DT_FLOAT"}, "padding": {"s": "U0FNRQ=="}, "num_args": {"i": "1"}, "explicit_paddings": {"list": {}}, "use_cudnn_on_gpu": {"b": true}}}, {"name": "StatefulPartitionedCall/model/tfc3_5/tf_conv_40/Sigmoid", "op": "Sigmoid", "input": ["StatefulPartitionedCall/model/tfc3_5/tf_conv_40/conv2d_40/BiasAdd"], "attr": {"T": {"type": "DT_FLOAT"}}}, {"name": "StatefulPartitionedCall/model/tfc3_5/tf_conv_41/Sigmoid", "op": "Sigmoid", "input": ["StatefulPartitionedCall/model/tfc3_5/tf_conv_41/conv2d_41/BiasAdd"], "attr": {"T": {"type": "DT_FLOAT"}}}, {"name": "StatefulPartitionedCall/model/tfc3_5/tf_conv_40/mul", "op": "Mul", "input": ["StatefulPartitionedCall/model/tfc3_5/tf_conv_40/conv2d_40/BiasAdd", "StatefulPartitionedCall/model/tfc3_5/tf_conv_40/Sigmoid"], "attr": {"T": {"type": "DT_FLOAT"}}}, {"name": "StatefulPartitionedCall/model/tfc3_5/tf_conv_41/mul", "op": "Mul", "input": ["StatefulPartitionedCall/model/tfc3_5/tf_conv_41/conv2d_41/BiasAdd", "StatefulPartitionedCall/model/tfc3_5/tf_conv_41/Sigmoid"], "attr": {"T": {"type": "DT_FLOAT"}}}, {"name": "StatefulPartitionedCall/model/tfc3_5/sequential_10/tf_bottleneck_8/tf_conv_43/conv2d_43/BiasAdd", "op": "_FusedConv2D", "input": ["StatefulPartitionedCall/model/tfc3_5/tf_conv_40/mul", "StatefulPartitionedCall/model/tfc3_5/sequential_10/tf_bottleneck_8/tf_conv_43/conv2d_43/Conv2D/ReadVariableOp", "StatefulPartitionedCall/model/tfc3_5/sequential_10/tf_bottleneck_8/tf_conv_43/conv2d_43/BiasAdd/ReadVariableOp"], "device": "/device:CPU:0", "attr": {"dilations": {"list": {"i": ["1", "1", "1", "1"]}}, "data_format": {"s": "TkhXQw=="}, "fused_ops": {"list": {"s": ["Qmlhc0FkZA=="]}}, "num_args": {"i": "1"}, "explicit_paddings": {"list": {}}, "epsilon": {"f": 0.0}, "strides": {"list": {"i": ["1", "1", "1", "1"]}}, "use_cudnn_on_gpu": {"b": true}, "T": {"type": "DT_FLOAT"}, "padding": {"s": "U0FNRQ=="}}}, {"name": "StatefulPartitionedCall/model/tfc3_5/sequential_10/tf_bottleneck_8/tf_conv_43/Sigmoid", "op": "Sigmoid", "input": ["StatefulPartitionedCall/model/tfc3_5/sequential_10/tf_bottleneck_8/tf_conv_43/conv2d_43/BiasAdd"], "attr": {"T": {"type": "DT_FLOAT"}}}, {"name": "StatefulPartitionedCall/model/tfc3_5/sequential_10/tf_bottleneck_8/tf_conv_43/mul", "op": "Mul", "input": ["StatefulPartitionedCall/model/tfc3_5/sequential_10/tf_bottleneck_8/tf_conv_43/conv2d_43/BiasAdd", "StatefulPartitionedCall/model/tfc3_5/sequential_10/tf_bottleneck_8/tf_conv_43/Sigmoid"], "attr": {"T": {"type": "DT_FLOAT"}}}, {"name": "StatefulPartitionedCall/model/tfc3_5/sequential_10/tf_bottleneck_8/tf_conv_44/conv2d_44/BiasAdd", "op": "_FusedConv2D", "input": ["StatefulPartitionedCall/model/tfc3_5/sequential_10/tf_bottleneck_8/tf_conv_43/mul", "StatefulPartitionedCall/model/tfc3_5/sequential_10/tf_bottleneck_8/tf_conv_44/conv2d_44/Conv2D/ReadVariableOp", "StatefulPartitionedCall/model/tfc3_5/sequential_10/tf_bottleneck_8/tf_conv_44/conv2d_44/BiasAdd/ReadVariableOp"], "device": "/device:CPU:0", "attr": {"data_format": {"s": "TkhXQw=="}, "dilations": {"list": {"i": ["1", "1", "1", "1"]}}, "strides": {"list": {"i": ["1", "1", "1", "1"]}}, "fused_ops": {"list": {"s": ["Qmlhc0FkZA=="]}}, "epsilon": {"f": 0.0}, "T": {"type": "DT_FLOAT"}, "padding": {"s": "U0FNRQ=="}, "num_args": {"i": "1"}, "explicit_paddings": {"list": {}}, "use_cudnn_on_gpu": {"b": true}}}, {"name": "StatefulPartitionedCall/model/tfc3_5/sequential_10/tf_bottleneck_8/tf_conv_44/Sigmoid", "op": "Sigmoid", "input": ["StatefulPartitionedCall/model/tfc3_5/sequential_10/tf_bottleneck_8/tf_conv_44/conv2d_44/BiasAdd"], "attr": {"T": {"type": "DT_FLOAT"}}}, {"name": "StatefulPartitionedCall/model/tfc3_5/sequential_10/tf_bottleneck_8/tf_conv_44/mul", "op": "Mul", "input": ["StatefulPartitionedCall/model/tfc3_5/sequential_10/tf_bottleneck_8/tf_conv_44/conv2d_44/BiasAdd", "StatefulPartitionedCall/model/tfc3_5/sequential_10/tf_bottleneck_8/tf_conv_44/Sigmoid"], "attr": {"T": {"type": "DT_FLOAT"}}}, {"name": "StatefulPartitionedCall/model/tfc3_5/concat", "op": "ConcatV2", "input": ["StatefulPartitionedCall/model/tfc3_5/sequential_10/tf_bottleneck_8/tf_conv_44/mul", "StatefulPartitionedCall/model/tfc3_5/tf_conv_41/mul", "StatefulPartitionedCall/model/tfc3_5/concat/axis"], "attr": {"T": {"type": "DT_FLOAT"}, "N": {"i": "2"}, "Tidx": {"type": "DT_INT32"}}}, {"name": "StatefulPartitionedCall/model/tfc3_5/tf_conv_42/conv2d_42/BiasAdd", "op": "_FusedConv2D", "input": ["StatefulPartitionedCall/model/tfc3_5/concat", "StatefulPartitionedCall/model/tfc3_5/tf_conv_42/conv2d_42/Conv2D/ReadVariableOp", "StatefulPartitionedCall/model/tfc3_5/tf_conv_42/conv2d_42/BiasAdd/ReadVariableOp"], "device": "/device:CPU:0", "attr": {"padding": {"s": "U0FNRQ=="}, "num_args": {"i": "1"}, "fused_ops": {"list": {"s": ["Qmlhc0FkZA=="]}}, "T": {"type": "DT_FLOAT"}, "explicit_paddings": {"list": {}}, "strides": {"list": {"i": ["1", "1", "1", "1"]}}, "epsilon": {"f": 0.0}, "use_cudnn_on_gpu": {"b": true}, "dilations": {"list": {"i": ["1", "1", "1", "1"]}}, "data_format": {"s": "TkhXQw=="}}}, {"name": "StatefulPartitionedCall/model/tfc3_5/tf_conv_42/Sigmoid", "op": "Sigmoid", "input": ["StatefulPartitionedCall/model/tfc3_5/tf_conv_42/conv2d_42/BiasAdd"], "attr": {"T": {"type": "DT_FLOAT"}}}, {"name": "StatefulPartitionedCall/model/tfc3_5/tf_conv_42/mul", "op": "Mul", "input": ["StatefulPartitionedCall/model/tfc3_5/tf_conv_42/conv2d_42/BiasAdd", "StatefulPartitionedCall/model/tfc3_5/tf_conv_42/Sigmoid"], "attr": {"T": {"type": "DT_FLOAT"}}}, {"name": "StatefulPartitionedCall/model/tf_detect/tf_conv2d/conv2d_57/BiasAdd", "op": "_FusedConv2D", "input": ["StatefulPartitionedCall/model/tfc3_5/tf_conv_42/mul", "StatefulPartitionedCall/model/tf_detect/tf_conv2d/conv2d_57/Conv2D/ReadVariableOp", "StatefulPartitionedCall/model/tf_detect/tf_conv2d/conv2d_57/BiasAdd/ReadVariableOp"], "device": "/device:CPU:0", "attr": {"use_cudnn_on_gpu": {"b": true}, "T": {"type": "DT_FLOAT"}, "padding": {"s": "VkFMSUQ="}, "dilations": {"list": {"i": ["1", "1", "1", "1"]}}, "data_format": {"s": "TkhXQw=="}, "fused_ops": {"list": {"s": ["Qmlhc0FkZA=="]}}, "num_args": {"i": "1"}, "explicit_paddings": {"list": {}}, "epsilon": {"f": 0.0}, "strides": {"list": {"i": ["1", "1", "1", "1"]}}}}, {"name": "StatefulPartitionedCall/model/tf_conv_45/sequential_11/tf_pad_5/Pad", "op": "Pad", "input": ["StatefulPartitionedCall/model/tfc3_5/tf_conv_42/mul", "unknown_94"], "attr": {"Tpaddings": {"type": "DT_INT32"}, "T": {"type": "DT_FLOAT"}}}, {"name": "StatefulPartitionedCall/model/tf_detect/Reshape", "op": "Reshape", "input": ["StatefulPartitionedCall/model/tf_detect/tf_conv2d/conv2d_57/BiasAdd", "StatefulPartitionedCall/model/tf_detect/Reshape/shape_1"], "attr": {"T": {"type": "DT_FLOAT"}, "Tshape": {"type": "DT_INT32"}}}, {"name": "StatefulPartitionedCall/model/tf_conv_45/sequential_11/conv2d_45/BiasAdd", "op": "_FusedConv2D", "input": ["StatefulPartitionedCall/model/tf_conv_45/sequential_11/tf_pad_5/Pad", "StatefulPartitionedCall/model/tf_conv_45/sequential_11/conv2d_45/Conv2D/ReadVariableOp", "StatefulPartitionedCall/model/tf_conv_45/sequential_11/conv2d_45/BiasAdd/ReadVariableOp"], "device": "/device:CPU:0", "attr": {"padding": {"s": "VkFMSUQ="}, "use_cudnn_on_gpu": {"b": true}, "epsilon": {"f": 0.0}, "data_format": {"s": "TkhXQw=="}, "strides": {"list": {"i": ["1", "2", "2", "1"]}}, "dilations": {"list": {"i": ["1", "1", "1", "1"]}}, "fused_ops": {"list": {"s": ["Qmlhc0FkZA=="]}}, "num_args": {"i": "1"}, "T": {"type": "DT_FLOAT"}, "explicit_paddings": {"list": {}}}}, {"name": "StatefulPartitionedCall/model/tf_detect/transpose", "op": "Transpose", "input": ["StatefulPartitionedCall/model/tf_detect/Reshape", "StatefulPartitionedCall/model/tf_detect/transpose/perm"], "attr": {"T": {"type": "DT_FLOAT"}, "Tperm": {"type": "DT_INT32"}}}, {"name": "StatefulPartitionedCall/model/tf_conv_45/Sigmoid", "op": "Sigmoid", "input": ["StatefulPartitionedCall/model/tf_conv_45/sequential_11/conv2d_45/BiasAdd"], "attr": {"T": {"type": "DT_FLOAT"}}}, {"name": "StatefulPartitionedCall/model/tf_detect/Sigmoid", "op": "Sigmoid", "input": ["StatefulPartitionedCall/model/tf_detect/transpose"], "attr": {"T": {"type": "DT_FLOAT"}}}, {"name": "StatefulPartitionedCall/model/tf_conv_45/mul", "op": "Mul", "input": ["StatefulPartitionedCall/model/tf_conv_45/sequential_11/conv2d_45/BiasAdd", "StatefulPartitionedCall/model/tf_conv_45/Sigmoid"], "attr": {"T": {"type": "DT_FLOAT"}}}, {"name": "StatefulPartitionedCall/model/tf_detect/strided_slice_2", "op": "StridedSlice", "input": ["StatefulPartitionedCall/model/tf_detect/Sigmoid", "StatefulPartitionedCall/model/tf_detect/strided_slice_2/stack", "StatefulPartitionedCall/model/tf_detect/strided_slice_2/stack_1", "StatefulPartitionedCall/model/tf_detect/strided_slice_2/stack_2"], "attr": {"shrink_axis_mask": {"i": "0"}, "new_axis_mask": {"i": "0"}, "end_mask": {"i": "0"}, "begin_mask": {"i": "0"}, "ellipsis_mask": {"i": "1"}, "T": {"type": "DT_FLOAT"}, "Index": {"type": "DT_INT32"}}}, {"name": "StatefulPartitionedCall/model/tf_detect/strided_slice_4", "op": "StridedSlice", "input": ["StatefulPartitionedCall/model/tf_detect/Sigmoid", "StatefulPartitionedCall/model/tf_detect/strided_slice_4/stack", "StatefulPartitionedCall/model/tf_detect/strided_slice_4/stack_1", "StatefulPartitionedCall/model/tf_detect/strided_slice_4/stack_2"], "attr": {"ellipsis_mask": {"i": "1"}, "shrink_axis_mask": {"i": "0"}, "end_mask": {"i": "0"}, "T": {"type": "DT_FLOAT"}, "new_axis_mask": {"i": "0"}, "begin_mask": {"i": "0"}, "Index": {"type": "DT_INT32"}}}, {"name": "StatefulPartitionedCall/model/tf_detect/strided_slice_6", "op": "StridedSlice", "input": ["StatefulPartitionedCall/model/tf_detect/Sigmoid", "StatefulPartitionedCall/model/tf_detect/strided_slice_6/stack", "StatefulPartitionedCall/model/tf_detect/strided_slice_6/stack_1", "StatefulPartitionedCall/model/tf_detect/strided_slice_6/stack_2"], "attr": {"end_mask": {"i": "2"}, "T": {"type": "DT_FLOAT"}, "shrink_axis_mask": {"i": "0"}, "ellipsis_mask": {"i": "1"}, "begin_mask": {"i": "0"}, "new_axis_mask": {"i": "0"}, "Index": {"type": "DT_INT32"}}}, {"name": "StatefulPartitionedCall/model/tf_concat_2/concat", "op": "ConcatV2", "input": ["StatefulPartitionedCall/model/tf_conv_45/mul", "StatefulPartitionedCall/model/tf_conv_39/mul", "StatefulPartitionedCall/model/tf_concat_2/concat/axis"], "attr": {"N": {"i": "2"}, "T": {"type": "DT_FLOAT"}, "Tidx": {"type": "DT_INT32"}}}, {"name": "StatefulPartitionedCall/model/tf_detect/mul_1", "op": "Mul", "input": ["StatefulPartitionedCall/model/tf_detect/strided_slice_2", "StatefulPartitionedCall/model/tf_detect/mul_1/y"], "attr": {"T": {"type": "DT_FLOAT"}}}, {"name": "StatefulPartitionedCall/model/tf_detect/mul_3", "op": "Mul", "input": ["StatefulPartitionedCall/model/tf_detect/strided_slice_4", "StatefulPartitionedCall/model/tf_detect/mul_3/y"], "attr": {"T": {"type": "DT_FLOAT"}}}, {"name": "StatefulPartitionedCall/model/tfc3_6/tf_conv_46/conv2d_46/BiasAdd", "op": "_FusedConv2D", "input": ["StatefulPartitionedCall/model/tf_concat_2/concat", "StatefulPartitionedCall/model/tfc3_6/tf_conv_46/conv2d_46/Conv2D/ReadVariableOp", "StatefulPartitionedCall/model/tfc3_6/tf_conv_46/conv2d_46/BiasAdd/ReadVariableOp"], "device": "/device:CPU:0", "attr": {"num_args": {"i": "1"}, "fused_ops": {"list": {"s": ["Qmlhc0FkZA=="]}}, "explicit_paddings": {"list": {}}, "epsilon": {"f": 0.0}, "use_cudnn_on_gpu": {"b": true}, "padding": {"s": "U0FNRQ=="}, "dilations": {"list": {"i": ["1", "1", "1", "1"]}}, "T": {"type": "DT_FLOAT"}, "data_format": {"s": "TkhXQw=="}, "strides": {"list": {"i": ["1", "1", "1", "1"]}}}}, {"name": "StatefulPartitionedCall/model/tfc3_6/tf_conv_47/conv2d_47/BiasAdd", "op": "_FusedConv2D", "input": ["StatefulPartitionedCall/model/tf_concat_2/concat", "StatefulPartitionedCall/model/tfc3_6/tf_conv_47/conv2d_47/Conv2D/ReadVariableOp", "StatefulPartitionedCall/model/tfc3_6/tf_conv_47/conv2d_47/BiasAdd/ReadVariableOp"], "device": "/device:CPU:0", "attr": {"epsilon": {"f": 0.0}, "T": {"type": "DT_FLOAT"}, "padding": {"s": "U0FNRQ=="}, "dilations": {"list": {"i": ["1", "1", "1", "1"]}}, "data_format": {"s": "TkhXQw=="}, "fused_ops": {"list": {"s": ["Qmlhc0FkZA=="]}}, "num_args": {"i": "1"}, "explicit_paddings": {"list": {}}, "use_cudnn_on_gpu": {"b": true}, "strides": {"list": {"i": ["1", "1", "1", "1"]}}}}, {"name": "StatefulPartitionedCall/model/tf_detect/add", "op": "Add", "input": ["StatefulPartitionedCall/model/tf_detect/mul_1", "StatefulPartitionedCall/model/tf_detect/sub"], "attr": {"T": {"type": "DT_FLOAT"}}}, {"name": "StatefulPartitionedCall/model/tf_detect/pow", "op": "Square", "input": ["StatefulPartitionedCall/model/tf_detect/mul_3"], "attr": {"T": {"type": "DT_FLOAT"}}}, {"name": "StatefulPartitionedCall/model/tfc3_6/tf_conv_46/Sigmoid", "op": "Sigmoid", "input": ["StatefulPartitionedCall/model/tfc3_6/tf_conv_46/conv2d_46/BiasAdd"], "attr": {"T": {"type": "DT_FLOAT"}}}, {"name": "StatefulPartitionedCall/model/tfc3_6/tf_conv_47/Sigmoid", "op": "Sigmoid", "input": ["StatefulPartitionedCall/model/tfc3_6/tf_conv_47/conv2d_47/BiasAdd"], "attr": {"T": {"type": "DT_FLOAT"}}}, {"name": "StatefulPartitionedCall/model/tf_detect/truediv", "op": "Mul", "input": ["StatefulPartitionedCall/model/tf_detect/add", "StatefulPartitionedCall/model/tf_detect/mul_2"], "attr": {"T": {"type": "DT_FLOAT"}}}, {"name": "StatefulPartitionedCall/model/tf_detect/truediv_1", "op": "Mul", "input": ["StatefulPartitionedCall/model/tf_detect/pow", "StatefulPartitionedCall/model/tf_detect/mul_4"], "attr": {"T": {"type": "DT_FLOAT"}}}, {"name": "StatefulPartitionedCall/model/tfc3_6/tf_conv_46/mul", "op": "Mul", "input": ["StatefulPartitionedCall/model/tfc3_6/tf_conv_46/conv2d_46/BiasAdd", "StatefulPartitionedCall/model/tfc3_6/tf_conv_46/Sigmoid"], "attr": {"T": {"type": "DT_FLOAT"}}}, {"name": "StatefulPartitionedCall/model/tfc3_6/tf_conv_47/mul", "op": "Mul", "input": ["StatefulPartitionedCall/model/tfc3_6/tf_conv_47/conv2d_47/BiasAdd", "StatefulPartitionedCall/model/tfc3_6/tf_conv_47/Sigmoid"], "attr": {"T": {"type": "DT_FLOAT"}}}, {"name": "StatefulPartitionedCall/model/tf_detect/concat", "op": "ConcatV2", "input": ["StatefulPartitionedCall/model/tf_detect/truediv", "StatefulPartitionedCall/model/tf_detect/truediv_1", "StatefulPartitionedCall/model/tf_detect/strided_slice_6", "StatefulPartitionedCall/model/tf_detect/concat/axis"], "attr": {"T": {"type": "DT_FLOAT"}, "N": {"i": "3"}, "Tidx": {"type": "DT_INT32"}}}, {"name": "StatefulPartitionedCall/model/tfc3_6/sequential_12/tf_bottleneck_9/tf_conv_49/conv2d_49/BiasAdd", "op": "_FusedConv2D", "input": ["StatefulPartitionedCall/model/tfc3_6/tf_conv_46/mul", "StatefulPartitionedCall/model/tfc3_6/sequential_12/tf_bottleneck_9/tf_conv_49/conv2d_49/Conv2D/ReadVariableOp", "StatefulPartitionedCall/model/tfc3_6/sequential_12/tf_bottleneck_9/tf_conv_49/conv2d_49/BiasAdd/ReadVariableOp"], "device": "/device:CPU:0", "attr": {"padding": {"s": "U0FNRQ=="}, "strides": {"list": {"i": ["1", "1", "1", "1"]}}, "use_cudnn_on_gpu": {"b": true}, "epsilon": {"f": 0.0}, "dilations": {"list": {"i": ["1", "1", "1", "1"]}}, "T": {"type": "DT_FLOAT"}, "data_format": {"s": "TkhXQw=="}, "num_args": {"i": "1"}, "explicit_paddings": {"list": {}}, "fused_ops": {"list": {"s": ["Qmlhc0FkZA=="]}}}}, {"name": "StatefulPartitionedCall/model/tf_detect/Reshape_1", "op": "Reshape", "input": ["StatefulPartitionedCall/model/tf_detect/concat", "StatefulPartitionedCall/model/tf_detect/Reshape_1/shape_1"], "attr": {"T": {"type": "DT_FLOAT"}, "Tshape": {"type": "DT_INT32"}}}, {"name": "StatefulPartitionedCall/model/tfc3_6/sequential_12/tf_bottleneck_9/tf_conv_49/Sigmoid", "op": "Sigmoid", "input": ["StatefulPartitionedCall/model/tfc3_6/sequential_12/tf_bottleneck_9/tf_conv_49/conv2d_49/BiasAdd"], "attr": {"T": {"type": "DT_FLOAT"}}}, {"name": "StatefulPartitionedCall/model/tfc3_6/sequential_12/tf_bottleneck_9/tf_conv_49/mul", "op": "Mul", "input": ["StatefulPartitionedCall/model/tfc3_6/sequential_12/tf_bottleneck_9/tf_conv_49/conv2d_49/BiasAdd", "StatefulPartitionedCall/model/tfc3_6/sequential_12/tf_bottleneck_9/tf_conv_49/Sigmoid"], "attr": {"T": {"type": "DT_FLOAT"}}}, {"name": "StatefulPartitionedCall/model/tfc3_6/sequential_12/tf_bottleneck_9/tf_conv_50/conv2d_50/BiasAdd", "op": "_FusedConv2D", "input": ["StatefulPartitionedCall/model/tfc3_6/sequential_12/tf_bottleneck_9/tf_conv_49/mul", "StatefulPartitionedCall/model/tfc3_6/sequential_12/tf_bottleneck_9/tf_conv_50/conv2d_50/Conv2D/ReadVariableOp", "StatefulPartitionedCall/model/tfc3_6/sequential_12/tf_bottleneck_9/tf_conv_50/conv2d_50/BiasAdd/ReadVariableOp"], "device": "/device:CPU:0", "attr": {"data_format": {"s": "TkhXQw=="}, "padding": {"s": "U0FNRQ=="}, "dilations": {"list": {"i": ["1", "1", "1", "1"]}}, "fused_ops": {"list": {"s": ["Qmlhc0FkZA=="]}}, "num_args": {"i": "1"}, "epsilon": {"f": 0.0}, "explicit_paddings": {"list": {}}, "T": {"type": "DT_FLOAT"}, "strides": {"list": {"i": ["1", "1", "1", "1"]}}, "use_cudnn_on_gpu": {"b": true}}}, {"name": "StatefulPartitionedCall/model/tfc3_6/sequential_12/tf_bottleneck_9/tf_conv_50/Sigmoid", "op": "Sigmoid", "input": ["StatefulPartitionedCall/model/tfc3_6/sequential_12/tf_bottleneck_9/tf_conv_50/conv2d_50/BiasAdd"], "attr": {"T": {"type": "DT_FLOAT"}}}, {"name": "StatefulPartitionedCall/model/tfc3_6/sequential_12/tf_bottleneck_9/tf_conv_50/mul", "op": "Mul", "input": ["StatefulPartitionedCall/model/tfc3_6/sequential_12/tf_bottleneck_9/tf_conv_50/conv2d_50/BiasAdd", "StatefulPartitionedCall/model/tfc3_6/sequential_12/tf_bottleneck_9/tf_conv_50/Sigmoid"], "attr": {"T": {"type": "DT_FLOAT"}}}, {"name": "StatefulPartitionedCall/model/tfc3_6/concat", "op": "ConcatV2", "input": ["StatefulPartitionedCall/model/tfc3_6/sequential_12/tf_bottleneck_9/tf_conv_50/mul", "StatefulPartitionedCall/model/tfc3_6/tf_conv_47/mul", "StatefulPartitionedCall/model/tfc3_6/concat/axis"], "attr": {"N": {"i": "2"}, "Tidx": {"type": "DT_INT32"}, "T": {"type": "DT_FLOAT"}}}, {"name": "StatefulPartitionedCall/model/tfc3_6/tf_conv_48/conv2d_48/BiasAdd", "op": "_FusedConv2D", "input": ["StatefulPartitionedCall/model/tfc3_6/concat", "StatefulPartitionedCall/model/tfc3_6/tf_conv_48/conv2d_48/Conv2D/ReadVariableOp", "StatefulPartitionedCall/model/tfc3_6/tf_conv_48/conv2d_48/BiasAdd/ReadVariableOp"], "device": "/device:CPU:0", "attr": {"use_cudnn_on_gpu": {"b": true}, "data_format": {"s": "TkhXQw=="}, "padding": {"s": "U0FNRQ=="}, "T": {"type": "DT_FLOAT"}, "explicit_paddings": {"list": {}}, "fused_ops": {"list": {"s": ["Qmlhc0FkZA=="]}}, "num_args": {"i": "1"}, "epsilon": {"f": 0.0}, "strides": {"list": {"i": ["1", "1", "1", "1"]}}, "dilations": {"list": {"i": ["1", "1", "1", "1"]}}}}, {"name": "StatefulPartitionedCall/model/tfc3_6/tf_conv_48/Sigmoid", "op": "Sigmoid", "input": ["StatefulPartitionedCall/model/tfc3_6/tf_conv_48/conv2d_48/BiasAdd"], "attr": {"T": {"type": "DT_FLOAT"}}}, {"name": "StatefulPartitionedCall/model/tfc3_6/tf_conv_48/mul", "op": "Mul", "input": ["StatefulPartitionedCall/model/tfc3_6/tf_conv_48/conv2d_48/BiasAdd", "StatefulPartitionedCall/model/tfc3_6/tf_conv_48/Sigmoid"], "attr": {"T": {"type": "DT_FLOAT"}}}, {"name": "StatefulPartitionedCall/model/tf_detect/tf_conv2d_1/conv2d_58/BiasAdd", "op": "_FusedConv2D", "input": ["StatefulPartitionedCall/model/tfc3_6/tf_conv_48/mul", "StatefulPartitionedCall/model/tf_detect/tf_conv2d_1/conv2d_58/Conv2D/ReadVariableOp", "StatefulPartitionedCall/model/tf_detect/tf_conv2d_1/conv2d_58/BiasAdd/ReadVariableOp"], "device": "/device:CPU:0", "attr": {"dilations": {"list": {"i": ["1", "1", "1", "1"]}}, "data_format": {"s": "TkhXQw=="}, "fused_ops": {"list": {"s": ["Qmlhc0FkZA=="]}}, "strides": {"list": {"i": ["1", "1", "1", "1"]}}, "T": {"type": "DT_FLOAT"}, "epsilon": {"f": 0.0}, "num_args": {"i": "1"}, "padding": {"s": "VkFMSUQ="}, "explicit_paddings": {"list": {}}, "use_cudnn_on_gpu": {"b": true}}}, {"name": "StatefulPartitionedCall/model/tf_conv_51/sequential_13/tf_pad_6/Pad", "op": "Pad", "input": ["StatefulPartitionedCall/model/tfc3_6/tf_conv_48/mul", "unknown_107"], "attr": {"Tpaddings": {"type": "DT_INT32"}, "T": {"type": "DT_FLOAT"}}}, {"name": "StatefulPartitionedCall/model/tf_detect/Reshape_2", "op": "Reshape", "input": ["StatefulPartitionedCall/model/tf_detect/tf_conv2d_1/conv2d_58/BiasAdd", "StatefulPartitionedCall/model/tf_detect/Reshape_2/shape_1"], "attr": {"Tshape": {"type": "DT_INT32"}, "T": {"type": "DT_FLOAT"}}}, {"name": "StatefulPartitionedCall/model/tf_conv_51/sequential_13/conv2d_51/BiasAdd", "op": "_FusedConv2D", "input": ["StatefulPartitionedCall/model/tf_conv_51/sequential_13/tf_pad_6/Pad", "StatefulPartitionedCall/model/tf_conv_51/sequential_13/conv2d_51/Conv2D/ReadVariableOp", "StatefulPartitionedCall/model/tf_conv_51/sequential_13/conv2d_51/BiasAdd/ReadVariableOp"], "device": "/device:CPU:0", "attr": {"padding": {"s": "VkFMSUQ="}, "use_cudnn_on_gpu": {"b": true}, "epsilon": {"f": 0.0}, "dilations": {"list": {"i": ["1", "1", "1", "1"]}}, "fused_ops": {"list": {"s": ["Qmlhc0FkZA=="]}}, "data_format": {"s": "TkhXQw=="}, "strides": {"list": {"i": ["1", "2", "2", "1"]}}, "T": {"type": "DT_FLOAT"}, "num_args": {"i": "1"}, "explicit_paddings": {"list": {}}}}, {"name": "StatefulPartitionedCall/model/tf_detect/transpose_1", "op": "Transpose", "input": ["StatefulPartitionedCall/model/tf_detect/Reshape_2", "StatefulPartitionedCall/model/tf_detect/transpose_1/perm"], "attr": {"T": {"type": "DT_FLOAT"}, "Tperm": {"type": "DT_INT32"}}}, {"name": "StatefulPartitionedCall/model/tf_conv_51/Sigmoid", "op": "Sigmoid", "input": ["StatefulPartitionedCall/model/tf_conv_51/sequential_13/conv2d_51/BiasAdd"], "attr": {"T": {"type": "DT_FLOAT"}}}, {"name": "StatefulPartitionedCall/model/tf_detect/Sigmoid_1", "op": "Sigmoid", "input": ["StatefulPartitionedCall/model/tf_detect/transpose_1"], "attr": {"T": {"type": "DT_FLOAT"}}}, {"name": "StatefulPartitionedCall/model/tf_conv_51/mul", "op": "Mul", "input": ["StatefulPartitionedCall/model/tf_conv_51/sequential_13/conv2d_51/BiasAdd", "StatefulPartitionedCall/model/tf_conv_51/Sigmoid"], "attr": {"T": {"type": "DT_FLOAT"}}}, {"name": "StatefulPartitionedCall/model/tf_detect/strided_slice_9", "op": "StridedSlice", "input": ["StatefulPartitionedCall/model/tf_detect/Sigmoid_1", "StatefulPartitionedCall/model/tf_detect/strided_slice_9/stack", "StatefulPartitionedCall/model/tf_detect/strided_slice_9/stack_1", "StatefulPartitionedCall/model/tf_detect/strided_slice_9/stack_2"], "attr": {"T": {"type": "DT_FLOAT"}, "shrink_axis_mask": {"i": "0"}, "end_mask": {"i": "0"}, "ellipsis_mask": {"i": "1"}, "Index": {"type": "DT_INT32"}, "begin_mask": {"i": "0"}, "new_axis_mask": {"i": "0"}}}, {"name": "StatefulPartitionedCall/model/tf_detect/strided_slice_11", "op": "StridedSlice", "input": ["StatefulPartitionedCall/model/tf_detect/Sigmoid_1", "StatefulPartitionedCall/model/tf_detect/strided_slice_11/stack", "StatefulPartitionedCall/model/tf_detect/strided_slice_11/stack_1", "StatefulPartitionedCall/model/tf_detect/strided_slice_11/stack_2"], "attr": {"shrink_axis_mask": {"i": "0"}, "T": {"type": "DT_FLOAT"}, "end_mask": {"i": "0"}, "begin_mask": {"i": "0"}, "new_axis_mask": {"i": "0"}, "Index": {"type": "DT_INT32"}, "ellipsis_mask": {"i": "1"}}}, {"name": "StatefulPartitionedCall/model/tf_detect/strided_slice_13", "op": "StridedSlice", "input": ["StatefulPartitionedCall/model/tf_detect/Sigmoid_1", "StatefulPartitionedCall/model/tf_detect/strided_slice_13/stack", "StatefulPartitionedCall/model/tf_detect/strided_slice_13/stack_1", "StatefulPartitionedCall/model/tf_detect/strided_slice_13/stack_2"], "attr": {"T": {"type": "DT_FLOAT"}, "end_mask": {"i": "2"}, "new_axis_mask": {"i": "0"}, "ellipsis_mask": {"i": "1"}, "shrink_axis_mask": {"i": "0"}, "Index": {"type": "DT_INT32"}, "begin_mask": {"i": "0"}}}, {"name": "StatefulPartitionedCall/model/tf_concat_3/concat", "op": "ConcatV2", "input": ["StatefulPartitionedCall/model/tf_conv_51/mul", "StatefulPartitionedCall/model/tf_conv_33/mul", "StatefulPartitionedCall/model/tf_concat_3/concat/axis"], "attr": {"N": {"i": "2"}, "T": {"type": "DT_FLOAT"}, "Tidx": {"type": "DT_INT32"}}}, {"name": "StatefulPartitionedCall/model/tf_detect/mul_8", "op": "Mul", "input": ["StatefulPartitionedCall/model/tf_detect/strided_slice_9", "StatefulPartitionedCall/model/tf_detect/mul_8/y"], "attr": {"T": {"type": "DT_FLOAT"}}}, {"name": "StatefulPartitionedCall/model/tf_detect/mul_10", "op": "Mul", "input": ["StatefulPartitionedCall/model/tf_detect/strided_slice_11", "StatefulPartitionedCall/model/tf_detect/mul_10/y"], "attr": {"T": {"type": "DT_FLOAT"}}}, {"name": "StatefulPartitionedCall/model/tfc3_7/tf_conv_52/conv2d_52/BiasAdd", "op": "_FusedConv2D", "input": ["StatefulPartitionedCall/model/tf_concat_3/concat", "StatefulPartitionedCall/model/tfc3_7/tf_conv_52/conv2d_52/Conv2D/ReadVariableOp", "StatefulPartitionedCall/model/tfc3_7/tf_conv_52/conv2d_52/BiasAdd/ReadVariableOp"], "device": "/device:CPU:0", "attr": {"epsilon": {"f": 0.0}, "dilations": {"list": {"i": ["1", "1", "1", "1"]}}, "use_cudnn_on_gpu": {"b": true}, "fused_ops": {"list": {"s": ["Qmlhc0FkZA=="]}}, "data_format": {"s": "TkhXQw=="}, "strides": {"list": {"i": ["1", "1", "1", "1"]}}, "explicit_paddings": {"list": {}}, "padding": {"s": "U0FNRQ=="}, "num_args": {"i": "1"}, "T": {"type": "DT_FLOAT"}}}, {"name": "StatefulPartitionedCall/model/tfc3_7/tf_conv_53/conv2d_53/BiasAdd", "op": "_FusedConv2D", "input": ["StatefulPartitionedCall/model/tf_concat_3/concat", "StatefulPartitionedCall/model/tfc3_7/tf_conv_53/conv2d_53/Conv2D/ReadVariableOp", "StatefulPartitionedCall/model/tfc3_7/tf_conv_53/conv2d_53/BiasAdd/ReadVariableOp"], "device": "/device:CPU:0", "attr": {"num_args": {"i": "1"}, "epsilon": {"f": 0.0}, "dilations": {"list": {"i": ["1", "1", "1", "1"]}}, "use_cudnn_on_gpu": {"b": true}, "fused_ops": {"list": {"s": ["Qmlhc0FkZA=="]}}, "data_format": {"s": "TkhXQw=="}, "strides": {"list": {"i": ["1", "1", "1", "1"]}}, "explicit_paddings": {"list": {}}, "padding": {"s": "U0FNRQ=="}, "T": {"type": "DT_FLOAT"}}}, {"name": "StatefulPartitionedCall/model/tf_detect/add_1", "op": "Add", "input": ["StatefulPartitionedCall/model/tf_detect/mul_8", "StatefulPartitionedCall/model/tf_detect/sub_1"], "attr": {"T": {"type": "DT_FLOAT"}}}, {"name": "StatefulPartitionedCall/model/tf_detect/pow_1", "op": "Square", "input": ["StatefulPartitionedCall/model/tf_detect/mul_10"], "attr": {"T": {"type": "DT_FLOAT"}}}, {"name": "StatefulPartitionedCall/model/tfc3_7/tf_conv_52/Sigmoid", "op": "Sigmoid", "input": ["StatefulPartitionedCall/model/tfc3_7/tf_conv_52/conv2d_52/BiasAdd"], "attr": {"T": {"type": "DT_FLOAT"}}}, {"name": "StatefulPartitionedCall/model/tfc3_7/tf_conv_53/Sigmoid", "op": "Sigmoid", "input": ["StatefulPartitionedCall/model/tfc3_7/tf_conv_53/conv2d_53/BiasAdd"], "attr": {"T": {"type": "DT_FLOAT"}}}, {"name": "StatefulPartitionedCall/model/tf_detect/truediv_2", "op": "Mul", "input": ["StatefulPartitionedCall/model/tf_detect/add_1", "StatefulPartitionedCall/model/tf_detect/mul_9"], "attr": {"T": {"type": "DT_FLOAT"}}}, {"name": "StatefulPartitionedCall/model/tf_detect/truediv_3", "op": "Mul", "input": ["StatefulPartitionedCall/model/tf_detect/pow_1", "StatefulPartitionedCall/model/tf_detect/mul_11"], "attr": {"T": {"type": "DT_FLOAT"}}}, {"name": "StatefulPartitionedCall/model/tfc3_7/tf_conv_52/mul", "op": "Mul", "input": ["StatefulPartitionedCall/model/tfc3_7/tf_conv_52/conv2d_52/BiasAdd", "StatefulPartitionedCall/model/tfc3_7/tf_conv_52/Sigmoid"], "attr": {"T": {"type": "DT_FLOAT"}}}, {"name": "StatefulPartitionedCall/model/tfc3_7/tf_conv_53/mul", "op": "Mul", "input": ["StatefulPartitionedCall/model/tfc3_7/tf_conv_53/conv2d_53/BiasAdd", "StatefulPartitionedCall/model/tfc3_7/tf_conv_53/Sigmoid"], "attr": {"T": {"type": "DT_FLOAT"}}}, {"name": "StatefulPartitionedCall/model/tf_detect/concat_1", "op": "ConcatV2", "input": ["StatefulPartitionedCall/model/tf_detect/truediv_2", "StatefulPartitionedCall/model/tf_detect/truediv_3", "StatefulPartitionedCall/model/tf_detect/strided_slice_13", "StatefulPartitionedCall/model/tf_detect/concat_1/axis"], "attr": {"Tidx": {"type": "DT_INT32"}, "T": {"type": "DT_FLOAT"}, "N": {"i": "3"}}}, {"name": "StatefulPartitionedCall/model/tfc3_7/sequential_14/tf_bottleneck_10/tf_conv_55/conv2d_55/BiasAdd", "op": "_FusedConv2D", "input": ["StatefulPartitionedCall/model/tfc3_7/tf_conv_52/mul", "StatefulPartitionedCall/model/tfc3_7/sequential_14/tf_bottleneck_10/tf_conv_55/conv2d_55/Conv2D/ReadVariableOp", "StatefulPartitionedCall/model/tfc3_7/sequential_14/tf_bottleneck_10/tf_conv_55/conv2d_55/BiasAdd/ReadVariableOp"], "device": "/device:CPU:0", "attr": {"num_args": {"i": "1"}, "epsilon": {"f": 0.0}, "explicit_paddings": {"list": {}}, "strides": {"list": {"i": ["1", "1", "1", "1"]}}, "use_cudnn_on_gpu": {"b": true}, "T": {"type": "DT_FLOAT"}, "padding": {"s": "U0FNRQ=="}, "dilations": {"list": {"i": ["1", "1", "1", "1"]}}, "data_format": {"s": "TkhXQw=="}, "fused_ops": {"list": {"s": ["Qmlhc0FkZA=="]}}}}, {"name": "StatefulPartitionedCall/model/tf_detect/Reshape_3", "op": "Reshape", "input": ["StatefulPartitionedCall/model/tf_detect/concat_1", "StatefulPartitionedCall/model/tf_detect/Reshape_3/shape_1"], "attr": {"T": {"type": "DT_FLOAT"}, "Tshape": {"type": "DT_INT32"}}}, {"name": "StatefulPartitionedCall/model/tfc3_7/sequential_14/tf_bottleneck_10/tf_conv_55/Sigmoid", "op": "Sigmoid", "input": ["StatefulPartitionedCall/model/tfc3_7/sequential_14/tf_bottleneck_10/tf_conv_55/conv2d_55/BiasAdd"], "attr": {"T": {"type": "DT_FLOAT"}}}, {"name": "StatefulPartitionedCall/model/tfc3_7/sequential_14/tf_bottleneck_10/tf_conv_55/mul", "op": "Mul", "input": ["StatefulPartitionedCall/model/tfc3_7/sequential_14/tf_bottleneck_10/tf_conv_55/conv2d_55/BiasAdd", "StatefulPartitionedCall/model/tfc3_7/sequential_14/tf_bottleneck_10/tf_conv_55/Sigmoid"], "attr": {"T": {"type": "DT_FLOAT"}}}, {"name": "StatefulPartitionedCall/model/tfc3_7/sequential_14/tf_bottleneck_10/tf_conv_56/conv2d_56/BiasAdd", "op": "_FusedConv2D", "input": ["StatefulPartitionedCall/model/tfc3_7/sequential_14/tf_bottleneck_10/tf_conv_55/mul", "StatefulPartitionedCall/model/tfc3_7/sequential_14/tf_bottleneck_10/tf_conv_56/conv2d_56/Conv2D/ReadVariableOp", "StatefulPartitionedCall/model/tfc3_7/sequential_14/tf_bottleneck_10/tf_conv_56/conv2d_56/BiasAdd/ReadVariableOp"], "device": "/device:CPU:0", "attr": {"epsilon": {"f": 0.0}, "T": {"type": "DT_FLOAT"}, "padding": {"s": "U0FNRQ=="}, "use_cudnn_on_gpu": {"b": true}, "dilations": {"list": {"i": ["1", "1", "1", "1"]}}, "data_format": {"s": "TkhXQw=="}, "strides": {"list": {"i": ["1", "1", "1", "1"]}}, "explicit_paddings": {"list": {}}, "fused_ops": {"list": {"s": ["Qmlhc0FkZA=="]}}, "num_args": {"i": "1"}}}, {"name": "StatefulPartitionedCall/model/tfc3_7/sequential_14/tf_bottleneck_10/tf_conv_56/Sigmoid", "op": "Sigmoid", "input": ["StatefulPartitionedCall/model/tfc3_7/sequential_14/tf_bottleneck_10/tf_conv_56/conv2d_56/BiasAdd"], "attr": {"T": {"type": "DT_FLOAT"}}}, {"name": "StatefulPartitionedCall/model/tfc3_7/sequential_14/tf_bottleneck_10/tf_conv_56/mul", "op": "Mul", "input": ["StatefulPartitionedCall/model/tfc3_7/sequential_14/tf_bottleneck_10/tf_conv_56/conv2d_56/BiasAdd", "StatefulPartitionedCall/model/tfc3_7/sequential_14/tf_bottleneck_10/tf_conv_56/Sigmoid"], "attr": {"T": {"type": "DT_FLOAT"}}}, {"name": "StatefulPartitionedCall/model/tfc3_7/concat", "op": "ConcatV2", "input": ["StatefulPartitionedCall/model/tfc3_7/sequential_14/tf_bottleneck_10/tf_conv_56/mul", "StatefulPartitionedCall/model/tfc3_7/tf_conv_53/mul", "StatefulPartitionedCall/model/tfc3_7/concat/axis"], "attr": {"N": {"i": "2"}, "Tidx": {"type": "DT_INT32"}, "T": {"type": "DT_FLOAT"}}}, {"name": "StatefulPartitionedCall/model/tfc3_7/tf_conv_54/conv2d_54/BiasAdd", "op": "_FusedConv2D", "input": ["StatefulPartitionedCall/model/tfc3_7/concat", "StatefulPartitionedCall/model/tfc3_7/tf_conv_54/conv2d_54/Conv2D/ReadVariableOp", "StatefulPartitionedCall/model/tfc3_7/tf_conv_54/conv2d_54/BiasAdd/ReadVariableOp"], "device": "/device:CPU:0", "attr": {"num_args": {"i": "1"}, "strides": {"list": {"i": ["1", "1", "1", "1"]}}, "epsilon": {"f": 0.0}, "use_cudnn_on_gpu": {"b": true}, "T": {"type": "DT_FLOAT"}, "dilations": {"list": {"i": ["1", "1", "1", "1"]}}, "fused_ops": {"list": {"s": ["Qmlhc0FkZA=="]}}, "padding": {"s": "U0FNRQ=="}, "data_format": {"s": "TkhXQw=="}, "explicit_paddings": {"list": {}}}}, {"name": "StatefulPartitionedCall/model/tfc3_7/tf_conv_54/Sigmoid", "op": "Sigmoid", "input": ["StatefulPartitionedCall/model/tfc3_7/tf_conv_54/conv2d_54/BiasAdd"], "attr": {"T": {"type": "DT_FLOAT"}}}, {"name": "StatefulPartitionedCall/model/tfc3_7/tf_conv_54/mul", "op": "Mul", "input": ["StatefulPartitionedCall/model/tfc3_7/tf_conv_54/conv2d_54/BiasAdd", "StatefulPartitionedCall/model/tfc3_7/tf_conv_54/Sigmoid"], "attr": {"T": {"type": "DT_FLOAT"}}}, {"name": "StatefulPartitionedCall/model/tf_detect/tf_conv2d_2/conv2d_59/BiasAdd", "op": "_FusedConv2D", "input": ["StatefulPartitionedCall/model/tfc3_7/tf_conv_54/mul", "StatefulPartitionedCall/model/tf_detect/tf_conv2d_2/conv2d_59/Conv2D/ReadVariableOp", "StatefulPartitionedCall/model/tf_detect/tf_conv2d_2/conv2d_59/BiasAdd/ReadVariableOp"], "device": "/device:CPU:0", "attr": {"dilations": {"list": {"i": ["1", "1", "1", "1"]}}, "explicit_paddings": {"list": {}}, "T": {"type": "DT_FLOAT"}, "data_format": {"s": "TkhXQw=="}, "padding": {"s": "VkFMSUQ="}, "num_args": {"i": "1"}, "fused_ops": {"list": {"s": ["Qmlhc0FkZA=="]}}, "strides": {"list": {"i": ["1", "1", "1", "1"]}}, "use_cudnn_on_gpu": {"b": true}, "epsilon": {"f": 0.0}}}, {"name": "StatefulPartitionedCall/model/tf_detect/Reshape_4", "op": "Reshape", "input": ["StatefulPartitionedCall/model/tf_detect/tf_conv2d_2/conv2d_59/BiasAdd", "StatefulPartitionedCall/model/tf_detect/Reshape_4/shape_1"], "attr": {"T": {"type": "DT_FLOAT"}, "Tshape": {"type": "DT_INT32"}}}, {"name": "StatefulPartitionedCall/model/tf_detect/transpose_2", "op": "Transpose", "input": ["StatefulPartitionedCall/model/tf_detect/Reshape_4", "StatefulPartitionedCall/model/tf_detect/transpose_2/perm"], "attr": {"Tperm": {"type": "DT_INT32"}, "T": {"type": "DT_FLOAT"}}}, {"name": "StatefulPartitionedCall/model/tf_detect/Sigmoid_2", "op": "Sigmoid", "input": ["StatefulPartitionedCall/model/tf_detect/transpose_2"], "attr": {"T": {"type": "DT_FLOAT"}}}, {"name": "StatefulPartitionedCall/model/tf_detect/strided_slice_20", "op": "StridedSlice", "input": ["StatefulPartitionedCall/model/tf_detect/Sigmoid_2", "StatefulPartitionedCall/model/tf_detect/strided_slice_20/stack", "StatefulPartitionedCall/model/tf_detect/strided_slice_20/stack_1", "StatefulPartitionedCall/model/tf_detect/strided_slice_20/stack_2"], "attr": {"ellipsis_mask": {"i": "1"}, "begin_mask": {"i": "0"}, "new_axis_mask": {"i": "0"}, "T": {"type": "DT_FLOAT"}, "end_mask": {"i": "2"}, "shrink_axis_mask": {"i": "0"}, "Index": {"type": "DT_INT32"}}}, {"name": "StatefulPartitionedCall/model/tf_detect/strided_slice_16", "op": "StridedSlice", "input": ["StatefulPartitionedCall/model/tf_detect/Sigmoid_2", "StatefulPartitionedCall/model/tf_detect/strided_slice_16/stack", "StatefulPartitionedCall/model/tf_detect/strided_slice_16/stack_1", "StatefulPartitionedCall/model/tf_detect/strided_slice_16/stack_2"], "attr": {"shrink_axis_mask": {"i": "0"}, "Index": {"type": "DT_INT32"}, "begin_mask": {"i": "0"}, "end_mask": {"i": "0"}, "T": {"type": "DT_FLOAT"}, "new_axis_mask": {"i": "0"}, "ellipsis_mask": {"i": "1"}}}, {"name": "StatefulPartitionedCall/model/tf_detect/strided_slice_18", "op": "StridedSlice", "input": ["StatefulPartitionedCall/model/tf_detect/Sigmoid_2", "StatefulPartitionedCall/model/tf_detect/strided_slice_18/stack", "StatefulPartitionedCall/model/tf_detect/strided_slice_18/stack_1", "StatefulPartitionedCall/model/tf_detect/strided_slice_18/stack_2"], "attr": {"T": {"type": "DT_FLOAT"}, "Index": {"type": "DT_INT32"}, "shrink_axis_mask": {"i": "0"}, "new_axis_mask": {"i": "0"}, "ellipsis_mask": {"i": "1"}, "end_mask": {"i": "0"}, "begin_mask": {"i": "0"}}}, {"name": "StatefulPartitionedCall/model/tf_detect/mul_15", "op": "Mul", "input": ["StatefulPartitionedCall/model/tf_detect/strided_slice_16", "StatefulPartitionedCall/model/tf_detect/mul_15/y"], "attr": {"T": {"type": "DT_FLOAT"}}}, {"name": "StatefulPartitionedCall/model/tf_detect/mul_17", "op": "Mul", "input": ["StatefulPartitionedCall/model/tf_detect/strided_slice_18", "StatefulPartitionedCall/model/tf_detect/mul_17/y"], "attr": {"T": {"type": "DT_FLOAT"}}}, {"name": "StatefulPartitionedCall/model/tf_detect/add_2", "op": "Add", "input": ["StatefulPartitionedCall/model/tf_detect/mul_15", "StatefulPartitionedCall/model/tf_detect/sub_2"], "attr": {"T": {"type": "DT_FLOAT"}}}, {"name": "StatefulPartitionedCall/model/tf_detect/pow_2", "op": "Square", "input": ["StatefulPartitionedCall/model/tf_detect/mul_17"], "attr": {"T": {"type": "DT_FLOAT"}}}, {"name": "StatefulPartitionedCall/model/tf_detect/truediv_4", "op": "Mul", "input": ["StatefulPartitionedCall/model/tf_detect/add_2", "StatefulPartitionedCall/model/tf_detect/mul_16"], "attr": {"T": {"type": "DT_FLOAT"}}}, {"name": "StatefulPartitionedCall/model/tf_detect/truediv_5", "op": "Mul", "input": ["StatefulPartitionedCall/model/tf_detect/pow_2", "StatefulPartitionedCall/model/tf_detect/mul_18"], "attr": {"T": {"type": "DT_FLOAT"}}}, {"name": "StatefulPartitionedCall/model/tf_detect/concat_2", "op": "ConcatV2", "input": ["StatefulPartitionedCall/model/tf_detect/truediv_4", "StatefulPartitionedCall/model/tf_detect/truediv_5", "StatefulPartitionedCall/model/tf_detect/strided_slice_20", "StatefulPartitionedCall/model/tf_detect/concat_2/axis"], "attr": {"N": {"i": "3"}, "Tidx": {"type": "DT_INT32"}, "T": {"type": "DT_FLOAT"}}}, {"name": "StatefulPartitionedCall/model/tf_detect/Reshape_5", "op": "Reshape", "input": ["StatefulPartitionedCall/model/tf_detect/concat_2", "StatefulPartitionedCall/model/tf_detect/Reshape_5/shape_1"], "attr": {"Tshape": {"type": "DT_INT32"}, "T": {"type": "DT_FLOAT"}}}, {"name": "StatefulPartitionedCall/model/tf_detect/concat_3", "op": "ConcatV2", "input": ["StatefulPartitionedCall/model/tf_detect/Reshape_1", "StatefulPartitionedCall/model/tf_detect/Reshape_3", "StatefulPartitionedCall/model/tf_detect/Reshape_5", "StatefulPartitionedCall/model/tf_detect/concat_3/axis"], "attr": {"T": {"type": "DT_FLOAT"}, "N": {"i": "3"}, "Tidx": {"type": "DT_INT32"}}}, {"name": "Identity", "op": "Identity", "input": ["StatefulPartitionedCall/model/tf_detect/concat_3"], "attr": {"T": {"type": "DT_FLOAT"}}}], "library": {}, "versions": {"producer": 898}}, "weightsManifest": [{"paths": ["group1-shard1of7.bin", "group1-shard2of7.bin", "group1-shard3of7.bin", "group1-shard4of7.bin", "group1-shard5of7.bin", "group1-shard6of7.bin", "group1-shard7of7.bin"], "weights": [{"name": "StatefulPartitionedCall/model/tf_detect/strided_slice_2/stack", "shape": [2], "dtype": "int32"}, {"name": "StatefulPartitionedCall/model/tf_detect/strided_slice_2/stack_1", "shape": [2], "dtype": "int32"}, {"name": "StatefulPartitionedCall/model/tf_detect/strided_slice_2/stack_2", "shape": [2], "dtype": "int32"}, {"name": "StatefulPartitionedCall/model/tf_detect/mul_1/y", "shape": [], "dtype": "float32"}, {"name": "StatefulPartitionedCall/model/tf_detect/sub", "shape": [1, 1, 6400, 2], "dtype": "float32"}, {"name": "StatefulPartitionedCall/model/tf_detect/mul_2", "shape": [1, 2], "dtype": "float32"}, {"name": "StatefulPartitionedCall/model/tf_detect/strided_slice_4/stack", "shape": [2], "dtype": "int32"}, {"name": "StatefulPartitionedCall/model/tf_detect/strided_slice_4/stack_1", "shape": [2], "dtype": "int32"}, {"name": "StatefulPartitionedCall/model/tf_detect/strided_slice_4/stack_2", "shape": [2], "dtype": "int32"}, {"name": "StatefulPartitionedCall/model/tf_detect/mul_3/y", "shape": [], "dtype": "float32"}, {"name": "StatefulPartitionedCall/model/tf_detect/mul_4", "shape": [1, 3, 1, 2], "dtype": "float32"}, {"name": "StatefulPartitionedCall/model/tf_detect/tf_conv2d/conv2d_57/Conv2D/ReadVariableOp", "shape": [1, 1, 128, 255], "dtype": "float32"}, {"name": "StatefulPartitionedCall/model/tf_detect/tf_conv2d/conv2d_57/BiasAdd/ReadVariableOp", "shape": [255], "dtype": "float32"}, {"name": "StatefulPartitionedCall/model/tf_detect/Reshape/shape_1", "shape": [4], "dtype": "int32"}, {"name": "StatefulPartitionedCall/model/tf_detect/transpose/perm", "shape": [4], "dtype": "int32"}, {"name": "StatefulPartitionedCall/model/tf_detect/strided_slice_6/stack", "shape": [2], "dtype": "int32"}, {"name": "StatefulPartitionedCall/model/tf_detect/strided_slice_6/stack_1", "shape": [2], "dtype": "int32"}, {"name": "StatefulPartitionedCall/model/tf_detect/strided_slice_6/stack_2", "shape": [2], "dtype": "int32"}, {"name": "StatefulPartitionedCall/model/tf_detect/concat/axis", "shape": [], "dtype": "int32"}, {"name": "StatefulPartitionedCall/model/tf_detect/Reshape_1/shape_1", "shape": [3], "dtype": "int32"}, {"name": "StatefulPartitionedCall/model/tf_detect/strided_slice_9/stack", "shape": [2], "dtype": "int32"}, {"name": "StatefulPartitionedCall/model/tf_detect/strided_slice_9/stack_1", "shape": [2], "dtype": "int32"}, {"name": "StatefulPartitionedCall/model/tf_detect/strided_slice_9/stack_2", "shape": [2], "dtype": "int32"}, {"name": "StatefulPartitionedCall/model/tf_detect/mul_8/y", "shape": [], "dtype": "float32"}, {"name": "StatefulPartitionedCall/model/tf_detect/sub_1", "shape": [1, 1, 1600, 2], "dtype": "float32"}, {"name": "StatefulPartitionedCall/model/tf_detect/mul_9", "shape": [1, 2], "dtype": "float32"}, {"name": "StatefulPartitionedCall/model/tf_detect/strided_slice_11/stack", "shape": [2], "dtype": "int32"}, {"name": "StatefulPartitionedCall/model/tf_detect/strided_slice_11/stack_1", "shape": [2], "dtype": "int32"}, {"name": "StatefulPartitionedCall/model/tf_detect/strided_slice_11/stack_2", "shape": [2], "dtype": "int32"}, {"name": "StatefulPartitionedCall/model/tf_detect/mul_10/y", "shape": [], "dtype": "float32"}, {"name": "StatefulPartitionedCall/model/tf_detect/mul_11", "shape": [1, 3, 1, 2], "dtype": "float32"}, {"name": "StatefulPartitionedCall/model/tf_detect/tf_conv2d_1/conv2d_58/Conv2D/ReadVariableOp", "shape": [1, 1, 256, 255], "dtype": "float32"}, {"name": "StatefulPartitionedCall/model/tf_detect/tf_conv2d_1/conv2d_58/BiasAdd/ReadVariableOp", "shape": [255], "dtype": "float32"}, {"name": "StatefulPartitionedCall/model/tf_detect/Reshape_2/shape_1", "shape": [4], "dtype": "int32"}, {"name": "StatefulPartitionedCall/model/tf_detect/transpose_1/perm", "shape": [4], "dtype": "int32"}, {"name": "StatefulPartitionedCall/model/tf_detect/strided_slice_13/stack", "shape": [2], "dtype": "int32"}, {"name": "StatefulPartitionedCall/model/tf_detect/strided_slice_13/stack_1", "shape": [2], "dtype": "int32"}, {"name": "StatefulPartitionedCall/model/tf_detect/strided_slice_13/stack_2", "shape": [2], "dtype": "int32"}, {"name": "StatefulPartitionedCall/model/tf_detect/concat_1/axis", "shape": [], "dtype": "int32"}, {"name": "StatefulPartitionedCall/model/tf_detect/Reshape_3/shape_1", "shape": [3], "dtype": "int32"}, {"name": "StatefulPartitionedCall/model/tf_detect/strided_slice_16/stack", "shape": [2], "dtype": "int32"}, {"name": "StatefulPartitionedCall/model/tf_detect/strided_slice_16/stack_1", "shape": [2], "dtype": "int32"}, {"name": "StatefulPartitionedCall/model/tf_detect/strided_slice_16/stack_2", "shape": [2], "dtype": "int32"}, {"name": "StatefulPartitionedCall/model/tf_detect/mul_15/y", "shape": [], "dtype": "float32"}, {"name": "StatefulPartitionedCall/model/tf_detect/sub_2", "shape": [1, 1, 400, 2], "dtype": "float32"}, {"name": "StatefulPartitionedCall/model/tf_detect/mul_16", "shape": [1, 2], "dtype": "float32"}, {"name": "StatefulPartitionedCall/model/tf_detect/strided_slice_18/stack", "shape": [2], "dtype": "int32"}, {"name": "StatefulPartitionedCall/model/tf_detect/strided_slice_18/stack_1", "shape": [2], "dtype": "int32"}, {"name": "StatefulPartitionedCall/model/tf_detect/strided_slice_18/stack_2", "shape": [2], "dtype": "int32"}, {"name": "StatefulPartitionedCall/model/tf_detect/mul_17/y", "shape": [], "dtype": "float32"}, {"name": "StatefulPartitionedCall/model/tf_detect/mul_18", "shape": [1, 3, 1, 2], "dtype": "float32"}, {"name": "StatefulPartitionedCall/model/tfc3_7/tf_conv_52/conv2d_52/Conv2D/ReadVariableOp", "shape": [1, 1, 512, 256], "dtype": "float32"}, {"name": "StatefulPartitionedCall/model/tfc3_7/tf_conv_52/conv2d_52/BiasAdd/ReadVariableOp", "shape": [256], "dtype": "float32"}, {"name": "StatefulPartitionedCall/model/tfc3_7/sequential_14/tf_bottleneck_10/tf_conv_55/conv2d_55/Conv2D/ReadVariableOp", "shape": [1, 1, 256, 256], "dtype": "float32"}, {"name": "StatefulPartitionedCall/model/tfc3_7/sequential_14/tf_bottleneck_10/tf_conv_55/conv2d_55/BiasAdd/ReadVariableOp", "shape": [256], "dtype": "float32"}, {"name": "StatefulPartitionedCall/model/tfc3_7/sequential_14/tf_bottleneck_10/tf_conv_56/conv2d_56/Conv2D/ReadVariableOp", "shape": [3, 3, 256, 256], "dtype": "float32"}, {"name": "StatefulPartitionedCall/model/tfc3_7/sequential_14/tf_bottleneck_10/tf_conv_56/conv2d_56/BiasAdd/ReadVariableOp", "shape": [256], "dtype": "float32"}, {"name": "StatefulPartitionedCall/model/tfc3_6/tf_conv_46/conv2d_46/Conv2D/ReadVariableOp", "shape": [1, 1, 256, 128], "dtype": "float32"}, {"name": "StatefulPartitionedCall/model/tfc3_6/tf_conv_46/conv2d_46/BiasAdd/ReadVariableOp", "shape": [128], "dtype": "float32"}, {"name": "StatefulPartitionedCall/model/tfc3_6/sequential_12/tf_bottleneck_9/tf_conv_49/conv2d_49/Conv2D/ReadVariableOp", "shape": [1, 1, 128, 128], "dtype": "float32"}, {"name": "StatefulPartitionedCall/model/tfc3_6/sequential_12/tf_bottleneck_9/tf_conv_49/conv2d_49/BiasAdd/ReadVariableOp", "shape": [128], "dtype": "float32"}, {"name": "StatefulPartitionedCall/model/tfc3_6/sequential_12/tf_bottleneck_9/tf_conv_50/conv2d_50/Conv2D/ReadVariableOp", "shape": [3, 3, 128, 128], "dtype": "float32"}, {"name": "StatefulPartitionedCall/model/tfc3_6/sequential_12/tf_bottleneck_9/tf_conv_50/conv2d_50/BiasAdd/ReadVariableOp", "shape": [128], "dtype": "float32"}, {"name": "StatefulPartitionedCall/model/tfc3_5/tf_conv_40/conv2d_40/Conv2D/ReadVariableOp", "shape": [1, 1, 256, 64], "dtype": "float32"}, {"name": "StatefulPartitionedCall/model/tfc3_5/tf_conv_40/conv2d_40/BiasAdd/ReadVariableOp", "shape": [64], "dtype": "float32"}, {"name": "StatefulPartitionedCall/model/tfc3_5/sequential_10/tf_bottleneck_8/tf_conv_43/conv2d_43/Conv2D/ReadVariableOp", "shape": [1, 1, 64, 64], "dtype": "float32"}, {"name": "StatefulPartitionedCall/model/tfc3_5/sequential_10/tf_bottleneck_8/tf_conv_43/conv2d_43/BiasAdd/ReadVariableOp", "shape": [64], "dtype": "float32"}, {"name": "StatefulPartitionedCall/model/tfc3_5/sequential_10/tf_bottleneck_8/tf_conv_44/conv2d_44/Conv2D/ReadVariableOp", "shape": [3, 3, 64, 64], "dtype": "float32"}, {"name": "StatefulPartitionedCall/model/tfc3_5/sequential_10/tf_bottleneck_8/tf_conv_44/conv2d_44/BiasAdd/ReadVariableOp", "shape": [64], "dtype": "float32"}, {"name": "StatefulPartitionedCall/model/tf_upsample_1/resize/size", "shape": [2], "dtype": "int32"}, {"name": "StatefulPartitionedCall/model/tf_concat_1/concat/axis", "shape": [], "dtype": "int32"}, {"name": "StatefulPartitionedCall/model/tfc3_5/tf_conv_41/conv2d_41/Conv2D/ReadVariableOp", "shape": [1, 1, 256, 64], "dtype": "float32"}, {"name": "StatefulPartitionedCall/model/tfc3_5/tf_conv_41/conv2d_41/BiasAdd/ReadVariableOp", "shape": [64], "dtype": "float32"}, {"name": "StatefulPartitionedCall/model/tfc3_5/concat/axis", "shape": [], "dtype": "int32"}, {"name": "StatefulPartitionedCall/model/tfc3_5/tf_conv_42/conv2d_42/Conv2D/ReadVariableOp", "shape": [1, 1, 128, 128], "dtype": "float32"}, {"name": "StatefulPartitionedCall/model/tfc3_5/tf_conv_42/conv2d_42/BiasAdd/ReadVariableOp", "shape": [128], "dtype": "float32"}, {"name": "unknown_94", "shape": [4, 2], "dtype": "int32"}, {"name": "StatefulPartitionedCall/model/tf_conv_45/sequential_11/conv2d_45/Conv2D/ReadVariableOp", "shape": [3, 3, 128, 128], "dtype": "float32"}, {"name": "StatefulPartitionedCall/model/tf_conv_45/sequential_11/conv2d_45/BiasAdd/ReadVariableOp", "shape": [128], "dtype": "float32"}, {"name": "StatefulPartitionedCall/model/tfc3_4/tf_conv_34/conv2d_34/Conv2D/ReadVariableOp", "shape": [1, 1, 512, 128], "dtype": "float32"}, {"name": "StatefulPartitionedCall/model/tfc3_4/tf_conv_34/conv2d_34/BiasAdd/ReadVariableOp", "shape": [128], "dtype": "float32"}, {"name": "StatefulPartitionedCall/model/tfc3_4/sequential_9/tf_bottleneck_7/tf_conv_37/conv2d_37/Conv2D/ReadVariableOp", "shape": [1, 1, 128, 128], "dtype": "float32"}, {"name": "StatefulPartitionedCall/model/tfc3_4/sequential_9/tf_bottleneck_7/tf_conv_37/conv2d_37/BiasAdd/ReadVariableOp", "shape": [128], "dtype": "float32"}, {"name": "StatefulPartitionedCall/model/tfc3_4/sequential_9/tf_bottleneck_7/tf_conv_38/conv2d_38/Conv2D/ReadVariableOp", "shape": [3, 3, 128, 128], "dtype": "float32"}, {"name": "StatefulPartitionedCall/model/tfc3_4/sequential_9/tf_bottleneck_7/tf_conv_38/conv2d_38/BiasAdd/ReadVariableOp", "shape": [128], "dtype": "float32"}, {"name": "StatefulPartitionedCall/model/tf_upsample/resize/size", "shape": [2], "dtype": "int32"}, {"name": "StatefulPartitionedCall/model/tf_concat/concat/axis", "shape": [], "dtype": "int32"}, {"name": "StatefulPartitionedCall/model/tfc3_4/tf_conv_35/conv2d_35/Conv2D/ReadVariableOp", "shape": [1, 1, 512, 128], "dtype": "float32"}, {"name": "StatefulPartitionedCall/model/tfc3_4/tf_conv_35/conv2d_35/BiasAdd/ReadVariableOp", "shape": [128], "dtype": "float32"}, {"name": "StatefulPartitionedCall/model/tfc3_4/concat/axis", "shape": [], "dtype": "int32"}, {"name": "StatefulPartitionedCall/model/tfc3_4/tf_conv_36/conv2d_36/Conv2D/ReadVariableOp", "shape": [1, 1, 256, 256], "dtype": "float32"}, {"name": "StatefulPartitionedCall/model/tfc3_4/tf_conv_36/conv2d_36/BiasAdd/ReadVariableOp", "shape": [256], "dtype": "float32"}, {"name": "StatefulPartitionedCall/model/tf_conv_39/conv2d_39/Conv2D/ReadVariableOp", "shape": [1, 1, 256, 128], "dtype": "float32"}, {"name": "StatefulPartitionedCall/model/tf_conv_39/conv2d_39/BiasAdd/ReadVariableOp", "shape": [128], "dtype": "float32"}, {"name": "StatefulPartitionedCall/model/tf_concat_2/concat/axis", "shape": [], "dtype": "int32"}, {"name": "StatefulPartitionedCall/model/tfc3_6/tf_conv_47/conv2d_47/Conv2D/ReadVariableOp", "shape": [1, 1, 256, 128], "dtype": "float32"}, {"name": "StatefulPartitionedCall/model/tfc3_6/tf_conv_47/conv2d_47/BiasAdd/ReadVariableOp", "shape": [128], "dtype": "float32"}, {"name": "StatefulPartitionedCall/model/tfc3_6/concat/axis", "shape": [], "dtype": "int32"}, {"name": "StatefulPartitionedCall/model/tfc3_6/tf_conv_48/conv2d_48/Conv2D/ReadVariableOp", "shape": [1, 1, 256, 256], "dtype": "float32"}, {"name": "StatefulPartitionedCall/model/tfc3_6/tf_conv_48/conv2d_48/BiasAdd/ReadVariableOp", "shape": [256], "dtype": "float32"}, {"name": "unknown_107", "shape": [4, 2], "dtype": "int32"}, {"name": "StatefulPartitionedCall/model/tf_conv_51/sequential_13/conv2d_51/Conv2D/ReadVariableOp", "shape": [3, 3, 256, 256], "dtype": "float32"}, {"name": "StatefulPartitionedCall/model/tf_conv_51/sequential_13/conv2d_51/BiasAdd/ReadVariableOp", "shape": [256], "dtype": "float32"}, {"name": "StatefulPartitionedCall/model/tfc3_3/tf_conv_26/conv2d_26/Conv2D/ReadVariableOp", "shape": [1, 1, 512, 256], "dtype": "float32"}, {"name": "StatefulPartitionedCall/model/tfc3_3/tf_conv_26/conv2d_26/BiasAdd/ReadVariableOp", "shape": [256], "dtype": "float32"}, {"name": "StatefulPartitionedCall/model/tfc3_3/sequential_8/tf_bottleneck_6/tf_conv_29/conv2d_29/Conv2D/ReadVariableOp", "shape": [1, 1, 256, 256], "dtype": "float32"}, {"name": "StatefulPartitionedCall/model/tfc3_3/sequential_8/tf_bottleneck_6/tf_conv_29/conv2d_29/BiasAdd/ReadVariableOp", "shape": [256], "dtype": "float32"}, {"name": "StatefulPartitionedCall/model/tfc3_3/sequential_8/tf_bottleneck_6/tf_conv_30/conv2d_30/Conv2D/ReadVariableOp", "shape": [3, 3, 256, 256], "dtype": "float32"}, {"name": "StatefulPartitionedCall/model/tfc3_3/sequential_8/tf_bottleneck_6/tf_conv_30/conv2d_30/BiasAdd/ReadVariableOp", "shape": [256], "dtype": "float32"}, {"name": "StatefulPartitionedCall/model/tfc3_2/tf_conv_16/conv2d_16/Conv2D/ReadVariableOp", "shape": [1, 1, 256, 128], "dtype": "float32"}, {"name": "StatefulPartitionedCall/model/tfc3_2/tf_conv_16/conv2d_16/BiasAdd/ReadVariableOp", "shape": [128], "dtype": "float32"}, {"name": "StatefulPartitionedCall/model/tfc3_2/sequential_6/tf_bottleneck_3/tf_conv_19/conv2d_19/Conv2D/ReadVariableOp", "shape": [1, 1, 128, 128], "dtype": "float32"}, {"name": "StatefulPartitionedCall/model/tfc3_2/sequential_6/tf_bottleneck_3/tf_conv_19/conv2d_19/BiasAdd/ReadVariableOp", "shape": [128], "dtype": "float32"}, {"name": "StatefulPartitionedCall/model/tfc3_2/sequential_6/tf_bottleneck_3/tf_conv_20/conv2d_20/Conv2D/ReadVariableOp", "shape": [3, 3, 128, 128], "dtype": "float32"}, {"name": "StatefulPartitionedCall/model/tfc3_2/sequential_6/tf_bottleneck_3/tf_conv_20/conv2d_20/BiasAdd/ReadVariableOp", "shape": [128], "dtype": "float32"}, {"name": "StatefulPartitionedCall/model/tfc3_2/sequential_6/tf_bottleneck_4/tf_conv_21/conv2d_21/Conv2D/ReadVariableOp", "shape": [1, 1, 128, 128], "dtype": "float32"}, {"name": "StatefulPartitionedCall/model/tfc3_2/sequential_6/tf_bottleneck_4/tf_conv_21/conv2d_21/BiasAdd/ReadVariableOp", "shape": [128], "dtype": "float32"}, {"name": "StatefulPartitionedCall/model/tfc3_2/sequential_6/tf_bottleneck_4/tf_conv_22/conv2d_22/Conv2D/ReadVariableOp", "shape": [3, 3, 128, 128], "dtype": "float32"}, {"name": "StatefulPartitionedCall/model/tfc3_2/sequential_6/tf_bottleneck_4/tf_conv_22/conv2d_22/BiasAdd/ReadVariableOp", "shape": [128], "dtype": "float32"}, {"name": "StatefulPartitionedCall/model/tfc3_2/sequential_6/tf_bottleneck_5/tf_conv_23/conv2d_23/Conv2D/ReadVariableOp", "shape": [1, 1, 128, 128], "dtype": "float32"}, {"name": "StatefulPartitionedCall/model/tfc3_2/sequential_6/tf_bottleneck_5/tf_conv_23/conv2d_23/BiasAdd/ReadVariableOp", "shape": [128], "dtype": "float32"}, {"name": "StatefulPartitionedCall/model/tfc3_2/sequential_6/tf_bottleneck_5/tf_conv_24/conv2d_24/Conv2D/ReadVariableOp", "shape": [3, 3, 128, 128], "dtype": "float32"}, {"name": "StatefulPartitionedCall/model/tfc3_2/sequential_6/tf_bottleneck_5/tf_conv_24/conv2d_24/BiasAdd/ReadVariableOp", "shape": [128], "dtype": "float32"}, {"name": "StatefulPartitionedCall/model/tfc3_1/tf_conv_8/conv2d_8/Conv2D/ReadVariableOp", "shape": [1, 1, 128, 64], "dtype": "float32"}, {"name": "StatefulPartitionedCall/model/tfc3_1/tf_conv_8/conv2d_8/BiasAdd/ReadVariableOp", "shape": [64], "dtype": "float32"}, {"name": "StatefulPartitionedCall/model/tfc3_1/sequential_4/tf_bottleneck_1/tf_conv_11/conv2d_11/Conv2D/ReadVariableOp", "shape": [1, 1, 64, 64], "dtype": "float32"}, {"name": "StatefulPartitionedCall/model/tfc3_1/sequential_4/tf_bottleneck_1/tf_conv_11/conv2d_11/BiasAdd/ReadVariableOp", "shape": [64], "dtype": "float32"}, {"name": "StatefulPartitionedCall/model/tfc3_1/sequential_4/tf_bottleneck_1/tf_conv_12/conv2d_12/Conv2D/ReadVariableOp", "shape": [3, 3, 64, 64], "dtype": "float32"}, {"name": "StatefulPartitionedCall/model/tfc3_1/sequential_4/tf_bottleneck_1/tf_conv_12/conv2d_12/BiasAdd/ReadVariableOp", "shape": [64], "dtype": "float32"}, {"name": "StatefulPartitionedCall/model/tfc3_1/sequential_4/tf_bottleneck_2/tf_conv_13/conv2d_13/Conv2D/ReadVariableOp", "shape": [1, 1, 64, 64], "dtype": "float32"}, {"name": "StatefulPartitionedCall/model/tfc3_1/sequential_4/tf_bottleneck_2/tf_conv_13/conv2d_13/BiasAdd/ReadVariableOp", "shape": [64], "dtype": "float32"}, {"name": "StatefulPartitionedCall/model/tfc3_1/sequential_4/tf_bottleneck_2/tf_conv_14/conv2d_14/Conv2D/ReadVariableOp", "shape": [3, 3, 64, 64], "dtype": "float32"}, {"name": "StatefulPartitionedCall/model/tfc3_1/sequential_4/tf_bottleneck_2/tf_conv_14/conv2d_14/BiasAdd/ReadVariableOp", "shape": [64], "dtype": "float32"}, {"name": "StatefulPartitionedCall/model/tfc3/tf_conv_2/conv2d_2/Conv2D/ReadVariableOp", "shape": [1, 1, 64, 32], "dtype": "float32"}, {"name": "StatefulPartitionedCall/model/tfc3/tf_conv_2/conv2d_2/BiasAdd/ReadVariableOp", "shape": [32], "dtype": "float32"}, {"name": "StatefulPartitionedCall/model/tfc3/sequential_2/tf_bottleneck/tf_conv_5/conv2d_5/Conv2D/ReadVariableOp", "shape": [1, 1, 32, 32], "dtype": "float32"}, {"name": "StatefulPartitionedCall/model/tfc3/sequential_2/tf_bottleneck/tf_conv_5/conv2d_5/BiasAdd/ReadVariableOp", "shape": [32], "dtype": "float32"}, {"name": "StatefulPartitionedCall/model/tfc3/sequential_2/tf_bottleneck/tf_conv_6/conv2d_6/Conv2D/ReadVariableOp", "shape": [3, 3, 32, 32], "dtype": "float32"}, {"name": "StatefulPartitionedCall/model/tfc3/sequential_2/tf_bottleneck/tf_conv_6/conv2d_6/BiasAdd/ReadVariableOp", "shape": [32], "dtype": "float32"}, {"name": "unknown", "shape": [4, 2], "dtype": "int32"}, {"name": "StatefulPartitionedCall/model/tf_conv/sequential/conv2d/Conv2D/ReadVariableOp", "shape": [6, 6, 3, 32], "dtype": "float32"}, {"name": "StatefulPartitionedCall/model/tf_conv/sequential/conv2d/BiasAdd/ReadVariableOp", "shape": [32], "dtype": "float32"}, {"name": "unknown_2", "shape": [4, 2], "dtype": "int32"}, {"name": "StatefulPartitionedCall/model/tf_conv_1/sequential_1/conv2d_1/Conv2D/ReadVariableOp", "shape": [3, 3, 32, 64], "dtype": "float32"}, {"name": "StatefulPartitionedCall/model/tf_conv_1/sequential_1/conv2d_1/BiasAdd/ReadVariableOp", "shape": [64], "dtype": "float32"}, {"name": "StatefulPartitionedCall/model/tfc3/tf_conv_3/conv2d_3/Conv2D/ReadVariableOp", "shape": [1, 1, 64, 32], "dtype": "float32"}, {"name": "StatefulPartitionedCall/model/tfc3/tf_conv_3/conv2d_3/BiasAdd/ReadVariableOp", "shape": [32], "dtype": "float32"}, {"name": "StatefulPartitionedCall/model/tfc3/concat/axis", "shape": [], "dtype": "int32"}, {"name": "StatefulPartitionedCall/model/tfc3/tf_conv_4/conv2d_4/Conv2D/ReadVariableOp", "shape": [1, 1, 64, 64], "dtype": "float32"}, {"name": "StatefulPartitionedCall/model/tfc3/tf_conv_4/conv2d_4/BiasAdd/ReadVariableOp", "shape": [64], "dtype": "float32"}, {"name": "unknown_15", "shape": [4, 2], "dtype": "int32"}, {"name": "StatefulPartitionedCall/model/tf_conv_7/sequential_3/conv2d_7/Conv2D/ReadVariableOp", "shape": [3, 3, 64, 128], "dtype": "float32"}, {"name": "StatefulPartitionedCall/model/tf_conv_7/sequential_3/conv2d_7/BiasAdd/ReadVariableOp", "shape": [128], "dtype": "float32"}, {"name": "StatefulPartitionedCall/model/tfc3_1/tf_conv_9/conv2d_9/Conv2D/ReadVariableOp", "shape": [1, 1, 128, 64], "dtype": "float32"}, {"name": "StatefulPartitionedCall/model/tfc3_1/tf_conv_9/conv2d_9/BiasAdd/ReadVariableOp", "shape": [64], "dtype": "float32"}, {"name": "StatefulPartitionedCall/model/tfc3_1/concat/axis", "shape": [], "dtype": "int32"}, {"name": "StatefulPartitionedCall/model/tfc3_1/tf_conv_10/conv2d_10/Conv2D/ReadVariableOp", "shape": [1, 1, 128, 128], "dtype": "float32"}, {"name": "StatefulPartitionedCall/model/tfc3_1/tf_conv_10/conv2d_10/BiasAdd/ReadVariableOp", "shape": [128], "dtype": "float32"}, {"name": "unknown_32", "shape": [4, 2], "dtype": "int32"}, {"name": "StatefulPartitionedCall/model/tf_conv_15/sequential_5/conv2d_15/Conv2D/ReadVariableOp", "shape": [3, 3, 128, 256], "dtype": "float32"}, {"name": "StatefulPartitionedCall/model/tf_conv_15/sequential_5/conv2d_15/BiasAdd/ReadVariableOp", "shape": [256], "dtype": "float32"}, {"name": "StatefulPartitionedCall/model/tfc3_2/tf_conv_17/conv2d_17/Conv2D/ReadVariableOp", "shape": [1, 1, 256, 128], "dtype": "float32"}, {"name": "StatefulPartitionedCall/model/tfc3_2/tf_conv_17/conv2d_17/BiasAdd/ReadVariableOp", "shape": [128], "dtype": "float32"}, {"name": "StatefulPartitionedCall/model/tfc3_2/concat/axis", "shape": [], "dtype": "int32"}, {"name": "StatefulPartitionedCall/model/tfc3_2/tf_conv_18/conv2d_18/Conv2D/ReadVariableOp", "shape": [1, 1, 256, 256], "dtype": "float32"}, {"name": "StatefulPartitionedCall/model/tfc3_2/tf_conv_18/conv2d_18/BiasAdd/ReadVariableOp", "shape": [256], "dtype": "float32"}, {"name": "unknown_53", "shape": [4, 2], "dtype": "int32"}, {"name": "StatefulPartitionedCall/model/tf_conv_25/sequential_7/conv2d_25/Conv2D/ReadVariableOp", "shape": [3, 3, 256, 512], "dtype": "float32"}, {"name": "StatefulPartitionedCall/model/tf_conv_25/sequential_7/conv2d_25/BiasAdd/ReadVariableOp", "shape": [512], "dtype": "float32"}, {"name": "StatefulPartitionedCall/model/tfc3_3/tf_conv_27/conv2d_27/Conv2D/ReadVariableOp", "shape": [1, 1, 512, 256], "dtype": "float32"}, {"name": "StatefulPartitionedCall/model/tfc3_3/tf_conv_27/conv2d_27/BiasAdd/ReadVariableOp", "shape": [256], "dtype": "float32"}, {"name": "StatefulPartitionedCall/model/tfc3_3/concat/axis", "shape": [], "dtype": "int32"}, {"name": "StatefulPartitionedCall/model/tfc3_3/tf_conv_28/conv2d_28/Conv2D/ReadVariableOp", "shape": [1, 1, 512, 512], "dtype": "float32"}, {"name": "StatefulPartitionedCall/model/tfc3_3/tf_conv_28/conv2d_28/BiasAdd/ReadVariableOp", "shape": [512], "dtype": "float32"}, {"name": "StatefulPartitionedCall/model/tfsppf/tf_conv_31/conv2d_31/Conv2D/ReadVariableOp", "shape": [1, 1, 512, 256], "dtype": "float32"}, {"name": "StatefulPartitionedCall/model/tfsppf/tf_conv_31/conv2d_31/BiasAdd/ReadVariableOp", "shape": [256], "dtype": "float32"}, {"name": "StatefulPartitionedCall/model/tfsppf/concat/axis", "shape": [], "dtype": "int32"}, {"name": "StatefulPartitionedCall/model/tfsppf/tf_conv_32/conv2d_32/Conv2D/ReadVariableOp", "shape": [1, 1, 1024, 512], "dtype": "float32"}, {"name": "StatefulPartitionedCall/model/tfsppf/tf_conv_32/conv2d_32/BiasAdd/ReadVariableOp", "shape": [512], "dtype": "float32"}, {"name": "StatefulPartitionedCall/model/tf_conv_33/conv2d_33/Conv2D/ReadVariableOp", "shape": [1, 1, 512, 256], "dtype": "float32"}, {"name": "StatefulPartitionedCall/model/tf_conv_33/conv2d_33/BiasAdd/ReadVariableOp", "shape": [256], "dtype": "float32"}, {"name": "StatefulPartitionedCall/model/tf_concat_3/concat/axis", "shape": [], "dtype": "int32"}, {"name": "StatefulPartitionedCall/model/tfc3_7/tf_conv_53/conv2d_53/Conv2D/ReadVariableOp", "shape": [1, 1, 512, 256], "dtype": "float32"}, {"name": "StatefulPartitionedCall/model/tfc3_7/tf_conv_53/conv2d_53/BiasAdd/ReadVariableOp", "shape": [256], "dtype": "float32"}, {"name": "StatefulPartitionedCall/model/tfc3_7/concat/axis", "shape": [], "dtype": "int32"}, {"name": "StatefulPartitionedCall/model/tfc3_7/tf_conv_54/conv2d_54/Conv2D/ReadVariableOp", "shape": [1, 1, 512, 512], "dtype": "float32"}, {"name": "StatefulPartitionedCall/model/tfc3_7/tf_conv_54/conv2d_54/BiasAdd/ReadVariableOp", "shape": [512], "dtype": "float32"}, {"name": "StatefulPartitionedCall/model/tf_detect/tf_conv2d_2/conv2d_59/Conv2D/ReadVariableOp", "shape": [1, 1, 512, 255], "dtype": "float32"}, {"name": "StatefulPartitionedCall/model/tf_detect/tf_conv2d_2/conv2d_59/BiasAdd/ReadVariableOp", "shape": [255], "dtype": "float32"}, {"name": "StatefulPartitionedCall/model/tf_detect/Reshape_4/shape_1", "shape": [4], "dtype": "int32"}, {"name": "StatefulPartitionedCall/model/tf_detect/transpose_2/perm", "shape": [4], "dtype": "int32"}, {"name": "StatefulPartitionedCall/model/tf_detect/strided_slice_20/stack", "shape": [2], "dtype": "int32"}, {"name": "StatefulPartitionedCall/model/tf_detect/strided_slice_20/stack_1", "shape": [2], "dtype": "int32"}, {"name": "StatefulPartitionedCall/model/tf_detect/strided_slice_20/stack_2", "shape": [2], "dtype": "int32"}, {"name": "StatefulPartitionedCall/model/tf_detect/concat_2/axis", "shape": [], "dtype": "int32"}, {"name": "StatefulPartitionedCall/model/tf_detect/Reshape_5/shape_1", "shape": [3], "dtype": "int32"}, {"name": "StatefulPartitionedCall/model/tf_detect/concat_3/axis", "shape": [], "dtype": "int32"}]}]}